experiments/LunarLanderContinuous-v2/luna_v1/saves/q_network.pth (torch_old, 507906 bytes, 11 tensors)

fc1.weight f4 [400, 8]
000000 1e e8 0d 3e 38 5b f1 3d 40 d7 d5 3d c0 f5 53 be
       0.13858077 0.11784977 0.10441446 -0.20699215
000010 b7 82 07 3d 14 07 68 3d 9c 08 4b 3e 55 72 10 3e
       0.033083644 0.056647375 0.19827503 0.14106114
000020 a0 f0 0e 3e 88 ae f2 3d 82 0a d7 3d e7 47 54 be
       0.13958979 0.118496954 0.10500051 -0.20730554
000030 c8 47 0b 3d 3e 16 6c 3d 67 c0 50 3e 0a 98 11 3e
       0.034004003 0.0576384 0.20385896 0.14218155
000040 0c ef 48 bf c9 1d 9e 3e 04 19 75 3e c0 2d 37 bf
       -0.78489757 0.308821 0.23935324 -0.71554184
000050 3e b3 46 3e 59 75 85 bf f8 05 f1 be 5f e7 ef 3d
       0.19404313 -1.0426437 -0.47074866 0.117140524
000060 61 71 0f 3e 36 34 f2 3d 22 97 d4 3d c3 e6 54 be
       0.14008094 0.11826365 0.10380389 -0.20791154
000070 32 82 0c 3d 4d 1b 70 3d 52 00 4e 3e af eb 10 3e
       0.03430385 0.058619786 0.2011731 0.14152406
000080 27 e0 0e 3e 5a 8a f5 3d 64 77 d6 3d 09 a2 54 be
       0.13952695 0.11989279 0.10471991 -0.20764937
000090 14 f6 0d 3d 4a 3a 6d 3d 30 43 51 3e 46 94 12 3e
       0.034658507 0.057916917 0.20435786 0.14314374
0000a0 fd 2e 0f 3e 52 b2 f6 3d 8c f4 d2 3d ce b9 52 be
       0.13982768 0.12045731 0.1030055 -0.20578691
0000b0 94 91 0e 3d 2d 70 6d 3d 00 a6 4e 3e a4 7c 0d 3e
       0.034806803 0.057968307 0.20180511 0.13817078
0000c0 32 21 0f 3e 91 97 f6 3d b5 e0 d6 3d 6c b6 54 be
       0.13977507 0.12040628 0.10492078 -0.20772713
0000d0 d1 56 0b 3d a7 15 6e 3d 41 a9 51 3e 12 7f 12 3e
       0.03401834 0.058126118 0.20474721 0.14306286
0000e0 db d1 3e bf bf 8e dd 3e ca 7e 85 3d ad 0d e8 3d
       -0.74538964 0.4327297 0.06518324 0.113307334
0000f0 60 86 83 bf 4c 67 4a be c9 6e 80 be 92 8b ad bd
       -1.0275383 -0.19765967 -0.25084522 -0.084738865
000100 36 95 0f 3e d8 db f6 3d cc 71 d7 3d a3 39 55 be
       0.14021763 0.120536506 0.10519752 -0.20822768
000110 f0 10 0e 3d 0f c8 6e 3d 20 da 51 3e 4c fa 12 3e
       0.03468412 0.05829626 0.20493364 0.14353293
000120 17 3b 0f 3e de 49 f5 3d 45 c0 d6 3d 7e b4 54 be
       0.13987385 0.1197698 0.10485891 -0.20771977
000130 d3 5d 0e 3d d6 7e 6e 3d 65 4e 51 3e fc 7a 12 3e
       0.034757446 0.05822643 0.20440061 0.14304727
000140 b1 ca 0d 3e fd eb f4 3d c1 74 d6 3d 4e 9d 53 be
       0.13846852 0.11959074 0.10471488 -0.20665476
000150 ee 46 0b 3d 43 ab 6e 3d af b2 52 3e 19 b7 11 3e
       0.03400319 0.058268797 0.20575975 0.14230002
000160 3d 2b 0f 3e c2 5f f5 3d 36 f6 d6 3d 2c 37 55 be
       0.13981338 0.11981155 0.1049618 -0.20821828
000170 79 de 0d 3d 6e 95 6d 3d 70 52 51 3e b0 e1 12 3e
       0.034635995 0.058003835 0.20441604 0.14343905
000180 7e d7 0e 3e 64 d0 f5 3d d2 5b d5 3d 80 83 54 be
       0.13949391 0.12002638 0.10417904 -0.20753288
000190 d2 4f 0f 3d d3 5c 70 3d 71 56 51 3e b9 eb 12 3e
       0.034988232 0.058682274 0.20443131 0.14347734
0001a0 4a 13 0f 3e ac b4 f4 3d b1 5d d6 3d 89 ff 54 be
       0.13972202 0.11948523 0.10467089 -0.20800604
0001b0 32 a5 0e 3d 02 41 70 3d fe 2d 51 3e ee 2d 12 3e
       0.03482551 0.058655746 0.20427701 0.14275333
0001c0 a0 91 0f 3e e6 d5 f5 3d 73 6b d7 3d ec 0d 55 be
       0.14020395 0.120036885 0.10518541 -0.20806092
0001d0 d6 1f 0e 3d 08 64 6e 3d 96 d3 51 3e ce 34 13 3e
       0.03469833 0.058200866 0.2049087 0.14375612
0001e0 5b dd 0e 3e e4 2d f7 3d 99 86 d7 3d 15 b1 54 be
       0.13951628 0.120693 0.10523719 -0.20770676
0001f0 3a 85 0e 3d 79 50 6d 3d 20 b9 50 3e bd 6f 13 3e
       0.034795024 0.057938073 0.2038312 0.14398094
000200 64 23 14 3f 67 41 10 3e 61 03 13 bf 68 d9 e5 be
       0.578665 0.14087449 -0.5742703 -0.4489243
000210 a7 ee d5 be c7 cf 56 3f 6f 4d ed 3e e9 66 31 bf
       -0.4178364 0.83910793 0.4634814 -0.69297653
000220 e0 a5 0f 3e a6 51 f7 3d e6 06 d7 3d 39 f7 54 be
       0.1402812 0.1207612 0.10499363 -0.20797433
000230 d2 f3 0c 3d 12 07 70 3d 55 f1 50 3e c6 5d 0f 3e
       0.034412213 0.058600493 0.20404561 0.14000615
000240 98 07 0f 3e 61 42 f6 3d 70 e6 d6 3d 56 e1 54 be
       0.1396774 0.120243795 0.10493171 -0.20789084
000250 4e be 0c 3d 18 8a 6e 3d eb bd 51 3e ba 98 12 3e
       0.034361176 0.058237165 0.20482604 0.14316073
000260 52 7f 0e 3e 6b 6d ed 3d cd ac d6 3d e0 a7 54 be
       0.13915756 0.115931354 0.10482178 -0.20767164
000270 5f f4 04 3d ae a1 69 3d 9b 3a 50 3e 52 88 12 3e
       0.032459613 0.057038955 0.20334856 0.14309815
000280 43 46 0f 3e 35 dd f5 3d ed 31 d9 3d 23 10 53 be
       0.13991646 0.120050825 0.10605226 -0.20611624
000290 07 64 0c 3d 3c b1 6a 3d 3d 82 4d 3e 82 ae 11 3e
       0.03427508 0.05729793 0.20069213 0.14226726
0002a0 97 27 0f 3e aa 7a f6 3d c3 00 d7 3d ad 19 55 be
       0.13979946 0.12035115 0.10498192 -0.20810576
0002b0 94 16 0e 3d 1f e9 6d 3d c1 13 52 3e bc 65 13 3e
       0.0346895 0.05808365 0.20515348 0.14394277
0002c0 72 2f 0b 3e 28 c7 f1 3d b9 a0 cf 3d 67 f9 52 be
       0.13592318 0.11805564 0.10138077 -0.20602952
0002d0 28 52 15 3d b9 ba 6d 3d 90 2c 50 3e 42 db 14 3e
       0.036455303 0.0580394 0.20329499 0.14536765
0002e0 31 df 0e 3e 45 9b f5 3d e3 59 d7 3d b6 6c 55 be
       0.13952328 0.11992506 0.105151914 -0.20842251
0002f0 9b 25 0a 3d 88 f7 6c 3d 2d 80 50 3e d8 84 11 3e
       0.03372727 0.05785325 0.20361395 0.14210832
000300 cb f0 0e 3e 70 a5 f5 3d ae 9a d6 3d 6e 05 55 be
       0.13959043 0.11994445 0.104787216 -0.20802853
000310 0c 84 0d 3d e8 20 6e 3d c0 c1 51 3e 71 e9 12 3e
       0.034549758 0.05813685 0.20484066 0.14346863
000320 35 49 0f 3e 7d 19 f5 3d 75 ba d6 3d 89 cb 54 be
       0.1399277 0.11967752 0.104847826 -0.20780768
000330 82 eb 0c 3d 10 f0 6d 3d 80 96 51 3e da d9 12 3e
       0.034404285 0.05809027 0.20467567 0.14340916
000340 e7 a1 91 be c7 26 23 3f 10 fb 5e 3e c6 32 88 bf
       -0.28443834 0.63731045 0.2177546 -1.0640495
000350 0a a8 d3 3f fc a2 c2 3e d6 5c 25 be c4 49 93 3d
       1.6535656 0.38014972 -0.16148695 0.07191804
000360 73 25 9c be 09 19 07 3e 73 c3 1f bd 6c c6 50 be
       -0.3049732 0.13193144 -0.039004754 -0.20388192
000370 00 f1 5a 3e 4f 89 97 3f 92 ff d1 bd 1f 6e 25 be
       0.21380997 1.1838778 -0.10253824 -0.16155289
000380 1f 08 0e 3e 48 51 f4 3d e3 0f d6 3d d1 2e 54 be
       0.13870285 0.11929566 0.10452249 -0.20720984
000390 59 1c 0d 3d 12 f8 6c 3d 05 31 51 3e 2c d6 13 3e
       0.034450863 0.057853766 0.20428856 0.14437169
0003a0 96 89 0d 3e 25 69 f1 3d c3 c5 d5 3d 5c 7c 54 be
       0.13822016 0.11787633 0.10438111 -0.20750564
0003b0 ef dc 06 3d cd 4e 66 3d ab 04 53 3e aa 3d 13 3e
       0.032925542 0.056227494 0.2060725 0.14378992
0003c0 f6 e0 0e 3e bd 13 f6 3d e0 98 d9 3d 46 d8 54 be
       0.13953003 0.120154835 0.10624862 -0.20785627
0003d0 b6 6c 0b 3d b4 a4 6c 3d e3 2c 4f 3e db f6 0e 3e
       0.03403922 0.05777426 0.20231967 0.13961355
0003e0 28 5c 0d 3e fa 24 f6 3d a4 56 d4 3d 4c 31 55 be
       0.13804686 0.120187715 0.10368088 -0.20819587
0003f0 ea 57 10 3d 19 4c 6f 3d 1b 51 51 3e 2a 3c 10 3e
       0.03524009 0.05842218 0.20441096 0.14085451

fc1.bias f4 [400]
000000 d9 39 98 3e e5 2f 99 3e 72 c9 0e bf b4 19 9a 3e
       0.29731634 0.29919353 -0.5577613 0.30097735
000010 1e 79 99 3e 65 d4 97 3e b8 b2 99 3e 00 4e 26 3d
       0.29975218 0.29654232 0.30019164 0.04060173
000020 5d 46 9a 3e 4b 1b 9a 3e 89 ec 97 3e 19 2f 9a 3e
       0.30131808 0.30098948 0.2967265 0.30114058
000030 ed 89 99 3e 3b ef 99 3e d7 5c 9a 3e 13 b8 99 3e
       0.29988042 0.3006533 0.30148956 0.3002325
000040 51 c9 62 be a0 9a 99 3e ea c9 99 3e 71 0e 99 3e
       -0.22147109 0.30000782 0.3003686 0.2989383
000050 94 9d 99 3e 00 bf 99 3e dc 6e 97 3e 65 1b 99 3e
       0.30003035 0.30028534 0.29576766 0.29903713
000060 f3 ee 99 3e 61 f7 99 3e cd 73 43 3e d7 98 93 3e
       0.30065116 0.30071548 0.19087143 0.28827545
000070 20 5f 99 3e 48 64 98 3e f7 53 98 3e 3b da 97 3e
       0.29955387 0.2976401 0.2975156 0.29658684
000080 0a 9f 83 3d 1c 79 9c 3c 34 0a 9a 3e 76 2e 99 3e
       0.06426819 0.019100718 0.3008591 0.2991826
000090 e5 c9 8f 3e bb 4d ac be 0c 73 7b bf 48 d3 4c 3e
       0.2808372 -0.33653054 -0.9822242 0.20002472
0000a0 46 42 99 3e 73 68 99 3e e0 9b 98 3e a8 3d 99 3e
       0.29933375 0.299625 0.29806423 0.29929852
0000b0 71 53 99 3e 4c 98 99 3e e1 76 bb 3e 96 a9 98 3e
       0.29946473 0.29999006 0.36614135 0.29816884
0000c0 05 ff 99 3e 84 39 9a 3e cd d4 99 3e 01 8a 99 3e
       0.30077377 0.30122006 0.30045167 0.299881
0000d0 fa 12 c2 3c e1 f5 03 bf ba 73 99 3e c5 90 99 3e
       0.02369069 -0.51547056 0.29971105 0.29993263
0000e0 ea b2 99 3e 29 b7 fc be 1f 52 96 3e cc b8 40 3e
       0.30019313 -0.4935849 0.29359528 0.18820494
0000f0 7f 50 45 3e 11 59 9a 3e ea 7a 99 3e 64 06 99 3e
       0.19268988 0.30146077 0.29976588 0.29887688
000100 21 fb 99 3e 08 a3 98 3e 69 32 9a 3e 85 28 90 3e
       0.3007441 0.29811883 0.30116585 0.28155914
000110 29 64 9a 3e 02 6f 9a 3e 3b f3 99 3e 1a be 99 3e
       0.3015454 0.30162817 0.30068383 0.30027848
000120 6e 7c 98 3e 0b 90 99 3e 29 9a ec 3d 80 c6 97 3e
       0.29782432 0.2999271 0.11552841 0.2964363
000130 f8 3d 99 3e 64 06 99 3e 85 0f 9a 3e 5f 62 1d 3d
       0.2993009 0.29887688 0.30089965 0.038423892
000140 81 c7 97 3e 53 b4 99 3e 35 39 99 3e 34 b5 99 3e
       0.29644397 0.3002039 0.29926458 0.3002106
000150 4d be 97 3e 68 ce 99 3e e8 7e 97 3e b8 53 98 3e
       0.29637375 0.30040288 0.2958901 0.29751372
000160 49 5b 99 3e fa 6d 98 3e 65 2c 35 3e 64 9e 8a bd
       0.29952458 0.29771405 0.17692716 -0.06768492
000170 29 13 99 3e a7 33 99 3e b1 e6 99 3e 79 01 9a 3e
       0.2989743 0.2992222 0.30058816 0.3007925
000180 f7 56 99 3e 96 8f 99 3e 5c 52 9a 3e f0 93 95 3e
       0.2994916 0.2999236 0.3014096 0.2921443
000190 1c 57 9a 3e 0b 6e 99 3e 25 ca 99 3e d2 1a 92 3e
       0.30144584 0.2996677 0.30037037 0.28536087
0001a0 9d 1b 9a 3e 3b 6c 98 3e 42 35 97 3e b8 ef 99 3e
       0.30099192 0.29770073 0.2953282 0.30065703
0001b0 af 0a 89 3e 78 0d e6 3d bf 2b 9a 3e cb db 98 3e
       0.26765963 0.11233038 0.301115 0.2985519
0001c0 4c 9b 99 3e 93 73 97 3e 99 66 94 3e db bc 99 3e
       0.30001295 0.29580364 0.28984526 0.30026898
0001d0 9a d5 99 3e 2f 47 97 3e ae 39 2e bf 9e 30 9a 3e
       0.30045778 0.29546496 -0.6805676 0.30115217
0001e0 ec b7 42 3d 4a 8d 03 bf 79 fd 98 3e c6 f6 99 3e
       0.047538683 -0.51387465 0.29880884 0.30071086
0001f0 db 42 99 3e 41 07 99 3e cc ce f9 3d 9c 68 dd be
       0.2993382 0.29888347 0.121976465 -0.43243873
000200 bf 42 9a 3e dc ae 36 be 32 71 c1 be 8d f7 38 bf
       0.30129048 -0.17840141 -0.37781674 -0.7225273
000210 68 09 95 bc 16 aa b4 3e 93 74 32 bf 2c 1c 99 3e
       -0.018192962 0.35286015 -0.6970913 0.29904306
000220 47 0b f7 bd be 3e 9a 3e 08 b8 99 3e 77 0d 9a 3e
       -0.12062698 0.30125993 0.30023217 0.30088398
000230 d3 4f 99 3e 98 43 99 3e 95 68 33 bf fc fc 99 3e
       0.29943714 0.29934382 -0.70081455 0.30075824
000240 a4 2f 9a 3e fe f6 ab 3d a3 77 9a 3e 43 3f 96 3e
       0.30114472 0.083967194 0.301694 0.2934514
000250 a9 d1 99 3e 0a dc 98 3e 0b 86 99 3e 38 54 96 3e
       0.3004277 0.29855376 0.2998508 0.2936113
000260 01 ae 99 3e 4e 9f 22 be a9 d5 9c be 0b cf 97 3e
       0.30015567 -0.15881082 -0.3063176 0.2965015
000270 bb a6 99 3e 51 ae 99 3e 19 7c 3b bf 22 45 0f bf
       0.30010018 0.30015805 -0.73236233 -0.55964863
000280 96 8f 99 3e 11 ef 98 3e a7 03 99 3e 0b 04 9a 3e
       0.2999236 0.29869893 0.298856 0.3008121
000290 10 31 16 bd 17 ad 5b be e1 57 99 3e 02 4b 99 3e
       -0.036667883 -0.21452747 0.2994986 0.2994004
0002a0 50 4b 9a 3e f1 0c 98 3e 39 9b 99 3e 0d bc 98 3e
       0.30135584 0.29697374 0.30001238 0.2983097
0002b0 62 20 9a 3e b1 42 99 3e 69 f6 98 3e 56 06 9a 3e
       0.3010283 0.29933694 0.29875496 0.3008296
0002c0 3b df bc be ae 68 9a 3e ed b0 95 3e a5 23 71 bd
       -0.3688906 0.3015799 0.29236546 -0.058871884
0002d0 c5 4b 95 3e 72 5d 99 3e 4c 28 99 3e ca 14 98 3e
       0.2915937 0.29954106 0.29913557 0.2970336
0002e0 e9 80 06 3e b6 b9 98 3e f0 83 99 3e 80 76 a7 be
       0.13135113 0.29829186 0.29983473 -0.32707596
0002f0 0a c3 9a be d8 2d 99 3e c7 f1 99 3e 0e bd 99 3e
       -0.30226928 0.29917789 0.30067274 0.3002705
000300 0d 0a 97 3e 0c 1e 96 3e 44 b3 98 3e af d5 98 3e
       0.29499856 0.293198 0.2982427 0.29850528
000310 e5 54 97 3e 15 20 9a 3e 00 a0 99 3e c8 48 9a 3e
       0.29556957 0.30102602 0.30004883 0.30133653
000320 b9 d7 99 3e be a0 99 3e b3 32 9a 3e ed 3a 99 3e
       0.30047396 0.3000545 0.30116805 0.2992777
000330 e2 1a 9a 3e ea 2d 99 3e 0f 94 95 3e 71 f4 99 3e
       0.30098635 0.29917842 0.29214522 0.30069306
000340 7c 44 96 3e 4a 89 99 3e 0c 0c 13 3e ca 1a b9 be
       0.29349124 0.29987556 0.14360064 -0.3615325
000350 2c a7 0b bf e3 40 9a 3e c6 a9 61 be 4c 7a 99 3e
       -0.5455196 0.3012763 -0.2203742 0.29976118
000360 54 d0 99 3e dd 67 99 3e 1a 6a a1 3d b7 5d 9a 3e
       0.30041754 0.29962054 0.078815654 0.30149624
000370 98 35 99 3e f6 e7 98 3e 28 f2 99 3e 38 da 98 3e
       0.299237 0.29864472 0.30067563 0.29853988
000380 2d 45 9a 3e 1a 72 99 3e 36 1f 9a 3e 04 b4 1b bf
       0.30130902 0.29969865 0.30101937 -0.6082156
000390 71 ea 99 3e 4d 0a 8d be 8b 6c 97 3e 8b 1f 96 3e
       0.30061677 -0.2754692 0.29575 0.2932094
0003a0 9b dc 98 3e 02 78 98 3e f2 bb bf 3e 1a 4a 98 3e
       0.2985581 0.2977906 0.37448078 0.29744035
0003b0 9e fc 99 3e 9e 47 9a 3e 0a 07 9a 3e 14 bf 98 3e
       0.30075544 0.30132765 0.30083495 0.2983328
0003c0 be 0d 99 3e 38 48 99 3e 94 33 6f be ad eb 98 3e
       0.29893297 0.2993791 -0.23359519 0.29867306
0003d0 8e 29 97 3e 3d 02 9a 3e 85 72 62 be 6e c6 99 3e
       0.2952389 0.30079833 -0.22113998 0.30034202
0003e0 67 ad 98 3e 1d 05 98 3e 62 6e 99 3e fa ad 99 3e
       0.29819795 0.296914 0.29967028 0.30015546
0003f0 5e 5c 98 3e 7e d8 99 3e 90 b9 99 3e 6f fa 99 3e
       0.2975797 0.30047983 0.30024385 0.30073878

bn1.weight f4 [400]
000000 99 06 d9 bc db 0b cc b7 91 66 c4 3f 5a a4 ff bc
       -0.026492404 -2.4324216e-05 1.5343801 -0.031206299
000010 88 2f 96 b6 70 99 47 bc a7 08 cd 97 1c bf 7b 3f
       -4.4758817e-06 -0.012182578 -1.3249999e-24 0.98338485
000020 e4 69 bf a8 93 01 00 00 a4 3f bf bb b7 c5 12 b9
       -2.1251183e-14 5.65e-43 -0.005836444 -0.000139973
000030 2c 3d de bc 94 00 00 80 e6 73 a9 b3 99 de 81 bc
       -0.027128778 -2.07e-43 -7.8907576e-08 -0.015853213
000040 ff cd 80 3f aa 99 7d b0 0f 01 00 80 c2 c9 6d a4
       1.0062865 -9.2259234e-10 -3.8e-43 -5.156208e-17
000050 3b 4a 15 bd c6 a2 9e ae 5a 34 31 9e 18 9d fc b9
       -0.036447745 -7.2139225e-11 -9.381128e-21 -0.0004818223
000060 c4 48 0f bc ff 9c 1a a0 ba 15 32 3f bf 15 14 3f
       -0.008745376 -1.3096253e-19 0.695644 0.5784568
000070 5e 17 7e bb ba d3 05 8d 39 08 d6 bc 78 91 9e bc
       -0.0038771252 -4.1238646e-31 -0.026126968 -0.019356474
000080 24 4b 2a 3f ae 5c 9b 3f 28 13 68 a1 4b f3 26 bb
       0.66520905 1.2137659 -7.863001e-19 -0.0025474604
000090 51 93 1b 3f d6 c9 a7 3f 65 7e 00 40 b5 8a 74 3f
       0.6077166 1.310847 2.0077145 0.9552415
0000a0 84 b1 b7 bc 9b 34 77 bc 0e 5b a9 a2 4e 92 98 b8
       -0.022423513 -0.015088226 -4.590395e-18 -7.275176e-05
0000b0 38 00 00 00 e6 a2 28 b8 a2 5c 41 3f c6 c7 c0 a1
       7.8e-44 -4.0206032e-05 0.7553197 -1.3063306e-18
0000c0 a7 58 a6 bc 67 b3 2f 97 6e 15 5b 94 a5 00 00 80
       -0.020305945 -5.6771987e-25 -1.1060901e-26 -2.31e-43
0000d0 92 2a 77 3f 2f 0a 3c 3f 4e 7b 99 ab 64 fa 96 bb
       0.9654933 0.7345304 -1.0905528e-12 -0.0046074856
0000e0 da 64 35 b9 ce d0 aa 3f 22 76 dc b1 57 6f 28 3f
       -0.00017299075 1.3344972 -6.416273e-09 0.6579489
0000f0 4a bc 21 3f 64 58 44 19 1b 15 b7 b4 4e ee 60 a7
       0.6317793 1.0150813e-23 -3.4101762e-07 -3.121543e-15
000100 40 4a 34 98 70 46 55 bd 17 c3 f8 bc e5 a4 67 bc
       -2.3301941e-24 -0.052069128 -0.030366464 -0.014138435
000110 11 8e 99 9e 54 00 00 00 7b 01 00 80 a5 a7 de ba
       -1.6258262e-20 1.18e-43 -5.31e-43 -0.0016987218
000120 ea db 4e a4 f7 d2 ff b2 4d 44 50 3f 27 f6 82 bc
       -4.4855404e-17 -2.9781843e-08 0.8135422 -0.015986515
000130 e0 e7 94 b8 8d b3 45 bc 87 c6 fe b0 7d 39 75 3f
       -7.10038e-05 -0.012066734 -1.8537357e-09 0.95790845
000140 e7 00 c0 07 44 a1 71 b9 f9 05 ef bb 6a 34 6b 0c
       2.888948e-34 -0.00023043627 -0.007294413 1.8119514e-31
000150 f1 27 61 b7 5d 9e 99 28 1a bb 24 bc 30 72 8f b3
       -1.3420345e-05 1.7055091e-14 -0.010054374 -6.679727e-08
000160 0f 8b 0b bc 15 7d 83 bb 13 51 30 3f 6a e7 8f 3f
       -0.008517041 -0.0040127137 0.6887371 1.1242497
000170 58 49 c2 bc a3 bc bb 33 88 0c 00 00 87 4e b3 b4
       -0.023716614 8.742179e-08 4.495e-42 -3.3398484e-07
000180 86 3b b6 bc 80 bb b7 bc 4f f8 d4 9c 9d 17 a2 bb
       -0.02224518 -0.022428274 -1.4093169e-21 -0.0049466626
000190 88 ae 9b b8 b6 13 26 b9 9e 4d 9e bc 84 d1 4c bb
       -7.423485e-05 -0.00015838337 -0.01932412 -0.003125281
0001a0 1c f3 1e 3b fb 88 f0 a4 5f 8d c3 9d 60 01 00 00
       0.0024253791 -1.0431546e-16 -5.1762245e-21 4.93e-43
0001b0 9f f5 3d 3f ff c1 b3 3f 8a 01 00 80 6d e9 e2 b0
       0.74202913 1.4043578 -5.52e-43 -1.6510008e-09
0001c0 68 12 5c bb 5a e5 21 bc 31 aa 3e b7 1b 66 04 b7
       -0.0033580307 -0.009881342 -1.1364508e-05 -7.891586e-06
0001d0 4f 9c 4f bb 62 2a 2a ba 0e f9 98 3f 5d 68 0e ba
       -0.003167886 -0.0006491301 1.1951005 -0.00054324215
0001e0 86 36 9c 3f 2d ec b5 3f d7 22 e6 bb f0 9c 22 b8
       1.2204139 1.42127 -0.007023196 -3.876997e-05
0001f0 30 bd dd b8 89 59 0c bb eb 87 81 3f 3b a1 33 3f
       -0.0001057334 -0.0021415672 1.0119604 0.70167893
000200 6c 01 00 00 f6 a3 29 3f fb 35 d1 3f b7 4d e2 3f
       5.1e-43 0.6626581 1.6344599 1.7679967
000210 a9 dc 96 3f 83 2b a2 3f e0 2c 0f 40 14 32 12 b7
       1.178609 1.2669529 2.237114 -8.713938e-06
000220 d6 c0 76 3f a5 81 87 b8 3f 48 89 bc 4e 84 af b6
       0.96387994 -6.46145e-05 -0.016758082 -5.2308087e-06
000230 f3 25 25 00 26 70 c6 bc 61 cd 9c 3f e6 2a 83 0d
       3.411527e-39 -0.024223398 1.2250177 8.083826e-31
000240 79 01 00 80 29 45 5d 3f 4c 9b e4 96 b4 8e f9 ba
       -5.28e-43 0.86433655 -3.6933393e-25 -0.0019039721
000250 42 67 92 ba 22 c7 4a ba 20 63 59 bc c2 58 68 b0
       -0.0011169689 -0.00077353616 -0.013268262 -8.452724e-10
000260 41 01 00 00 8d 47 7f 3f 11 f5 01 40 ec c9 2c b9
       4.5e-43 0.9971855 2.0305827 -0.0001647842
000270 eb 42 45 bc e1 01 0c 92 3a 2c ba 3f ad b6 81 3f
       -0.01203988 -4.4178527e-28 1.4544747 1.0133873
000280 6f ed 42 b7 ee 53 ca a5 ca b1 da ba 5b ad 62 9d
       -1.1618583e-05 -3.5098287e-16 -0.0016685065 -3.0000474e-21
000290 ff ba 56 3f 31 b1 88 3f cb d4 ab aa 2c 92 cc bc
       0.83879083 1.0679075 -3.0523357e-13 -0.024972044
0002a0 51 01 00 00 7b ee 05 bc d8 87 05 bd dd c3 e6 aa
       4.72e-43 -0.008174534 -0.032600254 -4.0992115e-13
0002b0 94 cf 05 b0 d8 2d ab ba 24 05 a2 bb 3e b9 82 b9
       -4.8680104e-10 -0.0013059927 -0.0049444605 -0.00024933548
0002c0 7a 5b 89 3f 65 23 00 00 e2 c6 dd b8 d2 50 02 3f
       1.0731041 1.2697e-41 -0.00010575146 0.5090457
0002d0 8e 2e 91 bc 1d 9c b4 bc 34 a0 b2 bb 49 aa b7 bb
       -0.017722394 -0.022047097 -0.0054512266 -0.0056050164
0002e0 9a 80 c2 3e 3a 6b d5 bc 60 82 28 ba af ec 7f 3f
       0.3798874 -0.026052106 -0.0006428119 0.99970526
0002f0 f5 57 e5 3f 95 70 3d 9b 1b 20 07 9d 3a f2 d0 b1
       1.7917467 -1.5670091e-22 -1.78837e-21 -6.0811347e-09
000300 bd 5f 22 bb b8 71 26 bc c5 00 00 00 79 7c 0d b5
       -0.0024776303 -0.010158949 2.76e-43 -5.2707725e-07
000310 8b b5 e4 bb 08 9e d5 98 89 01 00 00 b2 01 00 00
       -0.0069796494 -5.521878e-24 5.51e-43 6.08e-43
000320 d3 9e 0a 89 e5 00 00 00 ea 9b 46 bc 57 01 00 80
       -1.6685825e-33 3.21e-43 -0.012122134 -4.8e-43
000330 f6 35 5e bb d5 ed 30 9a c0 af e5 bb 12 32 ec a9
       -0.0033906675 -3.6588066e-23 -0.0070094764 -1.0489191e-13
000340 cc 12 9f b8 dc 93 6c bc c5 c6 cb 3e 4f b2 53 3f
       -7.585212e-05 -0.014439549 0.39800087 0.8269395
000350 0d da 85 3f 32 dc 28 80 7b d3 82 3f ab 85 09 97
       1.0457169 -3.752411e-39 1.0220789 -4.44358e-25
000360 34 6b 02 bb 9e bd 83 ba aa e5 98 3f 60 b9 83 bc
       -0.0019900324 -0.0010051017 1.1945088 -0.016079605
000370 9e 0e 50 b9 1e 1b 0e bc b3 01 00 80 16 ee 13 bc
       -0.00019841871 -0.008673457 -6.1e-43 -0.009028932
000380 28 8e 08 80 7c 94 c0 bb bc e2 59 07 19 e8 50 3f
       -7.8568e-40 -0.0058770757 1.6391897e-34 0.8160415
000390 3b 2c 05 80 b8 cc 44 3f 99 c5 8f b2 b1 07 86 3b
       -4.75044e-40 0.76874876 -1.6737248e-08 0.0040902724
0003a0 4c 72 83 a2 8b 02 a4 bb f7 ac 30 3f 27 84 7b bb
       -3.5628638e-18 -0.005005186 0.69013923 -0.003837833
0003b0 73 3a b7 b2 a7 00 00 80 93 64 59 ba 0a fa 04 ba
       -2.1330584e-08 -2.34e-43 -0.000829288 -0.0005072659
0003c0 a7 32 ce bc 6a 5b c6 b7 be e5 3b 3f 16 e1 a6 bb
       -0.025170637 -2.3646007e-05 0.73397434 -0.0050927503
0003d0 b1 4c b7 bc f7 7c 86 84 67 a0 32 3f ff b4 4c bb
       -0.022375436 -3.161801e-36 0.69776005 -0.0031235812
0003e0 26 a1 8d b9 50 07 d6 bc 82 86 eb bb 92 6c e0 b4
       -0.0002701368 -0.026126534 -0.0071876654 -4.1802247e-07
0003f0 6f 4d e2 bb 82 9e e7 bb 17 d9 69 b5 3e aa 01 80
       -0.0069062035 -0.007068456 -8.711517e-07 -1.52907e-40

bn1.bias f4 [400]
000000 d2 27 03 bd 30 d1 1b bb 04 50 06 be c9 59 00 bd
       -0.032020397 -0.0023775809 -0.13116461 -0.031335626
000010 1e 64 5c ba a3 b3 72 bc dd f7 bb af db 9c fc be
       -0.00084072526 -0.014813337 -3.419122e-10 -0.4933842
000020 85 f2 c4 b4 dc 5b e0 a2 93 ca 9f bc 91 42 3a bb
       -3.66843e-07 -6.081258e-18 -0.019505775 -0.0028421024
000030 c3 21 e8 bc 57 a7 8e 9e 7a ee 4c b9 f8 ee 54 bc
       -0.028336411 -1.5104045e-20 -0.00019543795 -0.012996428
000040 8f 8f ed bd 19 ef bc b8 1e 1f 9f a3 c5 15 ca b3
       -0.11599647 -9.009074e-05 -1.7251993e-17 -9.410318e-08
000050 1f 0e 15 bd a2 80 88 b8 ba 8f a0 b2 88 57 06 bc
       -0.03639042 -6.508945e-05 -1.869181e-08 -0.00819958
000060 8e 85 bf bc 32 e0 0d b3 c2 91 8e be 88 76 4d bf
       -0.023379114 -3.3033025e-08 -0.2784558 -0.8025899
000070 33 dd 70 bc 59 94 62 8d 70 01 fb bc b7 f7 ad bc
       -0.0147011755 -6.9820194e-31 -0.030640334 -0.021236284
000080 2a af 83 bf 04 78 07 bf 1d e3 f8 a1 8b 0d 08 bc
       -1.0287831 -0.52917504 -1.686525e-18 -0.00830401
000090 94 0b 94 bd f3 51 54 3d 61 7d d2 3e 28 ca f0 be
       -0.07228771 0.051835965 0.41111282 -0.47029233
0000a0 3e 3c 0c bd 79 3c 8f bc 9e e8 6b ac 32 2c 53 bb
       -0.03423714 -0.01748489 -3.3524637e-12 -0.0032222387
0000b0 a7 bb a3 a5 cf d7 ea ba 9a 26 07 bf 88 dc 26 b3
       -2.840315e-16 -0.0017917099 -0.52793276 -3.885046e-08
0000c0 84 4e 04 bd d2 03 49 af ce 26 89 94 5f 2a df a7
       -0.03230144 -1.8282201e-10 -1.384877e-26 -6.1940872e-15
0000d0 00 90 07 bf 49 e8 1b bf 7f 89 50 b6 53 0b 97 bc
       -0.529541 -0.60901314 -3.1074449e-06 -0.018438017
0000e0 33 25 9f bb 32 71 aa be 60 93 89 b8 29 48 1c bf
       -0.0048567294 -0.33289486 -6.56012e-05 -0.6104761
0000f0 d6 0a fd be d1 2c 36 b0 8a 60 29 b9 51 81 15 b5
       -0.4942233 -6.62749e-10 -0.0001615306 -5.5695006e-07
000100 94 3a 0b b3 80 e2 42 bd 31 86 00 bd 3d 4d 1c bb
       -3.2416736e-08 -0.04757929 -0.031377975 -0.0023849749
000110 e1 4d bc b4 0d 47 22 a5 96 91 af a3 a9 67 8c bb
       -3.5074393e-07 -1.4075333e-16 -1.9035196e-17 -0.004284818
000120 39 d2 0a b5 2c f4 ab b9 aa 05 d6 be 1b 3a 8d bc
       -5.171492e-07 -0.00032797584 -0.41801196 -0.01723962
000130 02 e5 11 bb 78 85 fe bc 69 4b 0b b8 b1 8b 35 bd
       -0.0022261743 -0.031069502 -3.3210414e-05 -0.044322673
000140 c0 fc fe 89 3f 61 b7 bb 3b 6c 3c bb 76 62 80 8d
       -6.138596e-33 -0.0055963094 -0.0028751034 -7.912313e-31
000150 b3 53 70 ba 36 18 c5 a9 4b f7 43 bc f5 ac 77 b3
       -0.00091677456 -8.7527574e-14 -0.011960815 -5.7666472e-08
000160 21 a9 84 bc 32 73 d8 bb 7e 04 d4 be 6a 4a 83 be
       -0.016193928 -0.006605529 -0.41409677 -0.2564271
000170 95 ef e3 bc e4 7a 41 b5 9f fe 90 a8 92 85 03 ba
       -0.027824203 -7.207693e-07 -1.6097636e-14 -0.0005017157
000180 cc 28 ee bc df 4e eb bc 54 1b a8 b1 e9 c6 11 bc
       -0.029072188 -0.028724132 -4.8925504e-09 -0.0088975215
000190 57 49 96 bb a8 fb 4e bb aa d3 b8 bc a2 0f ba bb
       -0.0045863795 -0.0031583104 -0.022561867 -0.005678133
0001a0 e8 90 ef bb 91 43 56 b3 d2 bb 2d b3 75 68 3b 95
       -0.0073109753 -4.988721e-08 -4.0450523e-08 -3.784675e-26
0001b0 67 e0 c1 3c dc f0 cd be 3d ba e8 a2 23 bd 94 b9
       0.023666574 -0.40222824 -6.3080913e-18 -0.00028369678
0001c0 92 0b 48 bc cf 8e ea bb fa 4b 60 bb 53 84 79 ba
       -0.01220979 -0.0071581374 -0.0034224973 -0.0009518314
0001d0 ea ea 81 bc 8f 29 bc bb fa d9 20 bf bf ad 03 bc
       -0.015859086 -0.005742259 -0.62832606 -0.00803703
0001e0 e4 0a c0 be a5 5f e2 bc ea fd f0 bb 6a 95 40 bb
       -0.3750831 -0.027633497 -0.0073544877 -0.0029385933
0001f0 51 31 7e bb 60 84 4d bc ee c9 1b be 23 e7 3f 3f
       -0.003878672 -0.012543768 -0.15213749 0.7496206
000200 0b 2e 09 91 68 78 88 be 76 dd 01 bd 94 72 a2 3e
       -1.0821582e-28 -0.26654363 -0.031705342 0.3172804
000210 51 65 d8 bd da 5c b1 be 82 98 99 3d e1 31 fd b9
       -0.105661996 -0.34641153 0.07499792 -0.00048293083
000220 e6 13 75 be 28 a8 6b bb 16 59 ca bc de d2 13 bb
       -0.23933372 -0.0035958383 -0.024700683 -0.0022556107
000230 d2 0b 6a ab a6 24 d5 bc d0 51 cf bd bb 8e 89 8f
       -8.3149904e-13 -0.026018452 -0.10123026 -1.3564221e-29
000240 b8 ed 0d a0 e6 65 9f 3e c7 2e a5 ad 1f 8c cc bb
       -1.2021819e-19 0.3113243 -1.8779102e-11 -0.0062422897
000250 b1 fa 5e bb 20 b3 7d bb 22 8f 4f bc 4b 4c 2a b8
       -0.0034023935 -0.0038711503 -0.012668403 -4.060221e-05
000260 96 fa 1d a8 5d 8f 19 bf 7f 50 f2 be dc 63 cf bb
       -8.769588e-15 -0.5998438 -0.4732704 -0.006329043
000270 dc 91 a9 bc f7 23 0f ae d9 b5 1c 3d 37 07 3e 3e
       -0.020699434 -3.254638e-11 0.03825936 0.1855744
000280 1b 9e bc ba 3c 80 31 b4 8c 2b 44 bc ef 11 31 b1
       -0.0014390381 -1.6531061e-07 -0.011973273 -2.5767084e-09
000290 8e 22 a0 be ca 54 c1 be b5 94 18 b7 07 38 19 bd
       -0.31276363 -0.3776 -9.09453e-06 -0.037406947
0002a0 29 96 54 ad 71 55 8e bc 37 45 0e bd 1e 71 bf b6
       -1.2084147e-11 -0.017374726 -0.034733977 -5.705412e-06
0002b0 d3 59 75 b9 f1 c4 35 bc 03 63 21 bc 5f f1 90 bb
       -0.00023398483 -0.011094318 -0.009850266 -0.004423305
0002c0 80 4c 67 be 15 94 03 aa cc 72 f3 b9 ad b9 d6 be
       -0.22587776 -1.1686514e-13 -0.00046434102 -0.41938534
0002d0 00 33 68 bc 02 a3 03 bd d7 4c 80 bc 9b 67 a2 bb
       -0.014172316 -0.03213788 -0.01566164 -0.0049561984
0002e0 7a 21 c2 3d a6 98 9f bc 58 21 1d bc 49 df 8d be
       0.094790414 -0.019481968 -0.009590469 -0.27709416
0002f0 f3 d2 15 be 52 83 40 9c 0f 72 0c ac 8e 2d 24 b9
       -0.14631252 -6.36972e-22 -1.9958512e-12 -0.00015657229
000300 3d bd d9 bb e3 b6 bb bc 0a 84 26 a0 e9 b2 d4 b9
       -0.0066448734 -0.022914356 -1.4104435e-19 -0.0004056909
000310 af d1 a5 bc d7 a5 28 b0 71 18 9d a1 f7 b2 2f a9
       -0.020241586 -6.1353717e-10 -1.0645203e-18 -3.9013033e-14
000320 ea f1 f2 8b 8f 66 ca a0 3c 47 37 bc c6 2f 1d 9c
       -9.3579e-32 -3.4287999e-19 -0.011186417 -5.200869e-22
000330 6a b2 4c bc 35 d5 36 b0 9b fd 60 bc 67 2d 32 b6
       -0.012493709 -6.65142e-10 -0.013732339 -2.6550495e-06
000340 6b 93 fd ba 5c b8 b7 bc 2e 75 d4 be 8f e1 35 be
       -0.0019346302 -0.022426777 -0.4149565 -0.17761825
000350 36 cc e3 bc c3 81 cb a8 69 1b 28 be 95 c1 7f af
       -0.027807336 -2.2593803e-14 -0.16416706 -2.3260889e-10
000360 ef 9a 33 bc 6a 9e 13 bc 93 60 a9 bd 93 2b 5d bc
       -0.010962232 -0.009009937 -0.08270373 -0.013499158
000370 e2 1d 2b bc 30 c9 71 bc 8e a4 0a 9f 16 a8 45 bc
       -0.010444136 -0.0147574395 -2.9358753e-20 -0.012064001
000380 25 25 7d a9 78 b9 75 bc 36 c7 25 ac 62 01 45 3f
       -5.6209503e-14 -0.0149978325 -2.3558495e-12 0.76955235
000390 ea 66 55 ae f7 b4 c6 bd 88 1b 9d b7 48 4b ff bb
       -4.8522e-11 -0.09702485 -1.8728679e-05 -0.0077909566
0003a0 52 f8 c5 b2 22 d0 7e bc 74 e7 d3 bd 5a a4 58 bb
       -2.3046741e-08 -0.015552552 -0.103468806 -0.0033056946
0003b0 76 dd 9a b3 d5 86 96 88 19 54 16 bc 1f 2b b6 bb
       -7.211467e-08 -9.0594955e-34 -0.009175324 -0.0055593397
0003c0 87 b8 02 bd 8b ef 28 ba d5 1b 54 be 8d a3 83 bc
       -0.03191426 -0.0006444386 -0.20713742 -0.016069198
0003d0 b5 3f 06 bd e3 01 f0 aa f4 7a cd be 05 21 21 bc
       -0.0327756 -4.2633873e-13 -0.40132868 -0.009834533
0003e0 b3 35 0a bc c9 d8 09 bd a3 57 b8 bc 1e bd 87 b9
       -0.008435654 -0.033654008 -0.022502726 -0.0002589011
0003f0 2f 61 88 bc 36 cd 81 bc 9c c3 51 ba b8 2f 59 ab
       -0.016647903 -0.015844923 -0.00080018654 -7.716011e-13

fc2.weight f4 [300, 400]
000000 86 50 89 35 04 00 00 00 22 0d 7b 3d cd 05 cf bb
       1.0230731e-06 6e-45 0.06129182 -0.00631783
000010 c9 00 00 00 05 68 06 3c 13 04 00 80 df 0b 10 bd
       2.82e-43 0.008203511 -1.462e-42 -0.03516757
000020 71 00 00 80 d6 06 00 80 46 02 00 00 0d 02 00 80
       -1.58e-43 -2.452e-42 8.16e-43 -7.36e-43
000030 78 cb be b7 ea 01 00 00 3e 02 00 00 3c 8d 3b 36
       -2.2744513e-05 6.87e-43 8.04e-43 2.794738e-06
000040 de a0 ad bc 26 7c b9 13 d5 03 00 80 8e 05 00 80
       -0.021194872 4.6822985e-27 -1.375e-42 -1.993e-42
000050 63 a4 c2 3c e7 02 00 00 81 04 00 00 2e 02 00 80
       0.023760026 1.041e-42 1.616e-42 -7.82e-43
000060 7d 57 20 07 48 05 00 00 32 83 31 bb c8 08 81 bd
       1.2062773e-34 1.895e-42 -0.0027086255 -0.06300503
000070 ee 01 00 80 47 3d 3c 0b af c5 89 33 ca 07 9b 0b
       -6.92e-43 3.6253583e-32 6.415518e-08 5.971555e-32
000080 e2 c7 c6 3c c1 f1 14 bd 68 c9 69 9f 44 81 00 00
       0.024265233 -0.036363367 -4.950627e-20 4.6372e-41
000090 b1 28 81 3d 21 87 d2 3c 85 71 8a bd d2 a2 4a 3d
       0.063065894 0.0256992 -0.067599334 0.049471684
0000a0 c8 99 16 01 e6 1a 7f b9 07 04 00 80 1d 01 00 80
       2.7660981e-38 -0.00024328716 -1.445e-42 -4e-43
0000b0 1e 03 00 00 bc 00 00 00 f5 f1 38 3b b4 02 00 00
       1.118e-42 2.63e-43 0.002822039 9.7e-43
0000c0 4c 36 29 80 93 04 00 80 2b 1b 24 0f 1d 05 00 80
       -3.784733e-39 -1.641e-42 8.091057e-30 -1.834e-42
0000d0 ac 43 b0 3d 3d 16 76 3d ea 03 00 80 01 00 00 00
       0.086066574 0.0600798 -1.404e-42 1e-45
0000e0 52 01 00 00 0e 48 96 3c 2d 03 00 80 d2 38 a2 3d
       4.74e-43 0.018344905 -1.139e-42 0.07920994
0000f0 13 53 ae 3d 5b 00 00 80 42 03 00 80 9e 04 00 80
       0.08511939 -1.28e-43 -1.169e-42 -1.656e-42
000100 dd 04 00 80 ea c9 84 bb 5b 81 d5 b5 a7 01 00 80
       -1.745e-42 -0.0040523903 -1.5907384e-06 -5.93e-43
000110 eb 0e 00 00 55 01 00 80 82 03 00 80 d6 00 00 80
       5.352e-42 -4.78e-43 -1.258e-42 -3e-43
000120 8e 00 00 80 25 04 00 00 82 68 1b 3d 67 a3 4d 3a
       -1.99e-43 1.487e-42 0.037941463 0.0007844478
000130 a3 02 00 80 c8 00 00 80 21 05 00 00 f9 dc 36 3d
       -9.46e-43 -2.8e-43 1.84e-42 0.04464433
000140 fc 87 b7 87 04 01 00 00 3f 00 00 00 72 40 f8 8a
       -2.7614704e-34 3.64e-43 8.8e-44 -2.3905773e-32
000150 ca 01 00 00 52 d7 5a a9 28 5c 01 a4 21 0f f5 b2
       6.42e-43 -4.8592484e-14 -2.8050475e-17 -2.8528634e-08
000160 de fe 91 a2 6b 00 00 80 16 35 e1 3d f2 16 14 3d
       -3.957218e-18 -1.5e-43 0.109964535 0.036154695
000170 9d e9 9d 85 48 32 ad 2f e5 09 00 00 1b 04 00 80
       -1.4850025e-35 3.1504244e-10 3.55e-42 -1.473e-42
000180 19 50 c6 92 6c 89 12 23 d7 05 00 00 83 d1 95 37
       -1.2515302e-27 7.943776e-18 2.095e-42 1.7859746e-05
000190 0d 0e 00 00 a1 00 00 80 e2 0c 67 2c 26 08 44 b1
       5.04e-42 -2.26e-43 3.2834226e-12 -2.8526386e-09
0001a0 3b 03 02 96 20 04 00 80 e1 01 00 00 78 06 00 00
       -1.0502336e-25 -1.48e-42 6.74e-43 2.32e-42
0001b0 fb 65 7b bc ba 44 87 3c 31 03 00 80 99 03 00 80
       -0.015344138 0.016512264 -1.145e-42 -1.29e-42
0001c0 d7 00 00 00 8c 5d 14 9e d9 02 00 80 60 00 00 80
       3.01e-43 -7.8544e-21 -1.022e-42 -1.35e-43
0001d0 7d 01 00 00 69 02 00 00 07 97 39 3d f4 01 00 80
       5.34e-43 8.65e-43 0.045310047 -7e-43
0001e0 11 52 31 3d d2 cd d4 3d 93 01 00 80 d9 03 00 80
       0.043291155 0.103908196 -5.65e-43 -1.38e-42
0001f0 44 02 00 80 81 04 00 00 78 c3 45 bc 2d 94 54 3d
       -8.13e-43 1.616e-42 -0.012070529 0.051899124
000200 55 10 00 80 b0 9a 16 3c 5f 0a 06 3d 45 cf 96 3d
       -5.859e-42 0.009192154 0.032724734 0.07363752
000210 05 bc b3 3c d5 fe de bd e5 ef 1e be 7c 01 00 00
       0.02194024 -0.10888449 -0.155212 5.32e-43
000220 43 a1 08 3e 90 00 00 00 0a 0d db 34 3f 40 3b a3
       0.13342766 2.02e-43 4.0801416e-07 -1.0150895e-17
000230 80 05 00 80 18 e5 3a b6 ce 3c 6a bd e7 2b 2e 0b
       -1.973e-42 -2.784951e-06 -0.057186894 3.354421e-32
000240 2b b5 9c 14 e7 f7 77 3d f6 01 00 00 04 cc ca 30
       1.5823433e-26 0.060539152 7.03e-43 1.4755419e-09
000250 33 01 00 00 8f 00 00 80 09 02 00 80 61 01 00 00
       4.3e-43 -2e-43 -7.3e-43 4.95e-43
000260 b3 0e 00 00 8c 6c cf 3b 20 24 01 3e 58 01 00 80
       5.273e-42 0.0063300785 0.12611437 -4.82e-43
000270 4c f7 c9 87 f5 be a3 aa e3 4d 0c 3d b5 f0 d6 bd
       -3.0388467e-34 -2.908712e-13 0.034253966 -0.1049513
000280 39 02 00 00 b7 03 00 00 69 95 08 24 8c 03 00 00
       7.97e-43 1.333e-42 2.9616854e-17 1.272e-42
000290 10 5a e0 3d 85 6d 1e be 5d 03 00 00 fe 00 00 00
       0.10954678 -0.15471466 1.207e-42 3.56e-43
0002a0 a2 01 00 80 49 d3 21 ac 3e f6 63 bb 4b 02 00 80
       -5.86e-43 -2.2996763e-12 -0.0034784223 -8.23e-43
0002b0 71 02 00 00 ad 00 00 00 8d a7 07 b9 58 01 00 00
       8.76e-43 2.42e-43 -0.00012937021 4.82e-43
0002c0 b3 02 20 3b db 03 00 00 5b 02 00 00 76 9a 37 bd
       0.0024415671 1.383e-42 8.45e-43 -0.04482504
0002d0 75 fc 08 34 9e 2f 50 1f 2a 02 00 80 8d eb 29 80
       1.275783e-07 4.40851e-20 -7.76e-43 -3.849755e-39
0002e0 89 fc 92 bd 04 f6 02 39 82 02 00 00 88 ce e8 bc
       -0.071770735 0.00012489414 9e-43 -0.028418794
0002f0 68 93 17 bc 6c 26 c8 98 41 02 00 00 65 0e 00 80
       -0.009251453 -5.1737584e-24 8.09e-43 -5.164e-42
000300 aa 2d 91 83 84 d0 38 3c 01 0c 00 80 72 03 00 00
       -8.532818e-37 0.011280183 -4.306e-42 1.236e-42
000310 5a 01 00 00 65 03 00 00 41 03 00 80 96 03 00 80
       4.85e-43 1.218e-42 -1.167e-42 -1.286e-42
000320 92 91 3f 0c 52 07 00 00 7e 01 00 00 26 05 00 00
       1.4757911e-31 2.626e-42 5.35e-43 1.847e-42
000330 db 01 00 00 15 03 00 00 f1 c7 9f 9c b0 0a 00 00
       6.66e-43 1.106e-42 -1.0573421e-21 3.834e-42
000340 72 00 00 80 07 71 2b 31 62 e5 8a 3a d0 a5 8b 3d
       -1.6e-43 2.4948024e-09 0.0010596926 0.068187356
000350 63 b3 7e 3d 12 01 00 80 c3 27 1f bd d5 07 00 80
       0.062182795 -3.84e-43 -0.03885628 -2.81e-42
000360 09 e0 2f 37 36 03 00 00 3a f1 56 3d 9f 0a 14 83
       1.0482975e-05 1.152e-42 0.052476145 -4.3505483e-37
000370 4b fd 13 b6 de 01 00 00 8f 03 00 00 e0 a1 ae 88
       -2.2052143e-06 6.7e-43 1.277e-42 -1.0510301e-33
000380 08 01 00 80 eb 23 8a 94 b2 0f 00 80 ef 04 3d bd
       -3.7e-43 -1.3948606e-26 -5.63e-42 -0.046147283
000390 9e 00 00 80 5b 9f 9a 3d 6f 02 00 80 d0 4a 76 ba
       -2.21e-43 0.07549926 -8.73e-43 -0.0009395303
0003a0 8c 05 00 80 8d 00 00 00 4e 9c 03 bd cd 01 00 80
       -1.99e-42 1.98e-43 -0.032131486 -6.46e-43
0003b0 43 26 0a 06 d3 06 00 00 6a 01 00 00 54 02 00 00
       2.5983026e-35 2.448e-42 5.07e-43 8.35e-43
0003c0 4f df 6c b5 95 00 00 80 a9 c3 67 bb 54 00 00 80
       -8.824181e-07 -2.09e-43 -0.0035364425 -1.18e-43
0003d0 fa 4b 8d 29 c3 0e 00 00 b8 5e 3f 3d 59 02 00 00
       6.274838e-14 5.296e-42 0.04672119 8.42e-43
0003e0 6d 00 00 80 b4 00 00 80 08 02 00 00 8f 02 00 80
       -1.53e-43 -2.52e-43 7.29e-43 -9.18e-43
0003f0 70 00 00 80 87 00 00 80 2a 03 00 00 9e 07 00 00
       -1.57e-43 -1.89e-43 1.135e-42 2.733e-42

fc2.bias f4 [300]
000000 1d ef 19 3d ed ee 52 bc 76 be 07 3c f3 af 75 3e
       0.03758155 -0.012874347 0.0082851555 0.239929
000010 69 f9 16 bc 93 dc 16 bc 7b 58 c9 3e fc d3 d0 bc
       -0.009214737 -0.009207862 0.39325318 -0.025491707
000020 0a f7 db 3d 3e ca 71 bc 19 38 4a bd 1c 71 74 3e
       0.10740478 -0.014757691 -0.049369905 0.23871273
000030 a0 79 1a bc b1 37 ad 3e 0b e7 48 bc 37 c2 32 3e
       -0.009428412 0.33831552 -0.012262116 0.174569
000040 ae 7b 28 bc 67 53 3c bc 30 99 de bb ca 76 33 bd
       -0.010283394 -0.011494494 -0.0067931637 -0.043814458
000050 a9 36 28 3f a6 90 aa bb 16 5d cb bc b7 15 27 3d
       0.65708405 -0.0052052317 -0.02482466 0.040792193
000060 ba 0a d2 bc 9b f2 3b bc 65 c4 8e bc e4 74 31 3c
       -0.02563988 -0.011471416 -0.017427633 0.010831092
000070 d3 a0 67 3e 69 8c ab bc de 60 d6 be 21 d5 43 3e
       0.22619943 -0.020940976 -0.4187078 0.19124271
000080 b0 96 08 3f 7e 92 9c bb cb 66 01 3d aa 61 a4 bc
       0.5335493 -0.0047782054 0.03159217 -0.020066101
000090 25 2a 64 3d 7a ed ee be 5a 0a 40 bc 46 8f 2d bc
       0.055704255 -0.46665555 -0.011721218 -0.010593241
0000a0 4b 97 03 3c a0 65 3b 3e 81 73 81 3e 57 f9 2f bd
       0.0080316765 0.18300486 0.25283435 -0.0429624
0000b0 88 b5 84 bb 49 a6 36 bd c8 54 06 bf 2a 35 08 bb
       -0.0040499605 -0.044592176 -0.52473116 -0.0020783641
0000c0 bb b8 64 3e 92 0b 83 3b a9 3c 03 bd 91 a4 07 bc
       0.22336094 0.003999182 -0.032040272 -0.008278982
0000d0 ce 5a 1a bc 8a 80 f2 bc 27 af 53 bd b1 0a 49 3c
       -0.009421064 -0.029602308 -0.05168071 0.012270615
0000e0 3b a1 30 3d 5a c0 ee 3c 78 81 a8 bc 2e dd 38 bd
       0.04312251 0.029144455 -0.020569548 -0.04513281
0000f0 0f 37 e0 3d dc a0 56 bc f9 84 ca be da ed 40 bc
       0.109480016 -0.013099875 -0.39554575 -0.011775458
000100 05 0b ad bb e1 fc a6 3d 5c 65 f9 bc ba 8e 14 bd
       -0.0052808546 0.081537016 -0.03044384 -0.036268927
000110 6d 90 de 3d 8e b7 8e bb 10 98 fe 3d a7 c8 0b 3e
       0.10867391 -0.0043553775 0.12431347 0.13650762
000120 c5 8d 62 3f 2e eb 29 3e 6f 09 f7 bb b4 c4 a5 bc
       0.88497573 0.1659362 -0.0075389664 -0.020235397
000130 cc ad 9d 3c 86 af e4 bc 61 89 62 bc 48 f2 f9 3d
       0.019247912 -0.027915727 -0.013826699 0.122044146
000140 ae b9 fd bc 28 3d e3 bb 4c 47 bc bb 25 b2 0a bc
       -0.030972328 -0.0069347806 -0.005745804 -0.0084653245
000150 ad 1b 23 bc d6 83 a5 bc 37 08 d6 3c 00 de aa 3e
       -0.009955329 -0.020204466 0.026126964 0.33372498
000160 e8 8f 32 bd a5 6d 7f bc c5 ad ff bc cc fe 13 3b
       -0.04359427 -0.015590106 -0.03121079 0.002258229
000170 1d 17 ec bb 3a d9 3d bd e7 30 88 bc 14 43 b6 bb
       -0.0072049038 -0.04634974 -0.016624881 -0.0055621956
000180 7e bb 0a 3e 4f f8 2e 3e d3 ed 6c 3c 66 8c 9b bc
       0.13548085 0.1708691 0.014460999 -0.018987846
000190 c3 7a 65 3e e9 51 ae bb d6 8b 05 bd 94 0e fd bb
       0.22410111 -0.005319823 -0.03260406 -0.007722685
0001a0 59 73 cb bb f9 06 ba bc d8 92 22 3c 28 ea 24 bd
       -0.006208819 -0.022708403 0.009922706 -0.04026237
0001b0 11 ce 06 bc d1 37 e9 bc 0f 95 a2 bc 2e 3b ba bc
       -0.008227841 -0.028468998 -0.019846467 -0.022733297
0001c0 08 62 f2 bb 2e 41 b7 bc 43 86 63 bb d5 89 aa bc
       -0.00739694 -0.022369947 -0.0034717477 -0.020817677
0001d0 cb 02 fe b8 2f f3 01 bc cc 7a 1a bc 86 b4 c2 bb
       -0.00012112184 -0.007931515 -0.009428691 -0.00594193
0001e0 41 09 00 ba 37 c4 c0 bc 54 0f 42 3d 75 d3 d9 bb
       -0.00048841914 -0.023531063 0.0473779 -0.006647522
0001f0 8d 22 5f 3d 4f 8e bc bb 1c 07 9d 3e 5a 1a 65 bc
       0.05447631 -0.005754269 0.30669487 -0.0139833335
000200 25 0b 35 bd c3 62 4c 3e 3b ce 41 3c 85 0e 31 bd
       -0.04420008 0.1995955 0.011828954 -0.043226738
000210 62 f8 0c bd d2 4b 02 3d aa bc 73 bc 18 6b 4d 3d
       -0.034416564 0.03181059 -0.014876524 0.05015096
000220 12 6d 2b bd 45 eb e1 bc a0 d7 1d bc dc 0b 2c bd
       -0.041852064 -0.027578006 -0.009633929 -0.042003497
000230 7d 9d 8a 3c 99 b6 fa 3c 0a 12 1b 3e 44 3d 83 3c
       0.0169208 0.030604647 0.151436 0.016020425
000240 f0 fe 0d 3f 40 54 c3 bc 8c 62 14 bd 26 28 2a bc
       0.5546713 -0.023843884 -0.036226794 -0.010385549
000250 54 ec 27 bd 9d 5d 80 3b 0a 1f 34 3c a6 a7 38 bc
       -0.040996864 0.0039174096 0.010993728 -0.011270439
000260 0e 7f 29 bc 8a df 46 bb dd e0 d8 3e 83 a8 ad bb
       -0.010345234 -0.0030345642 0.42359057 -0.005299629
000270 42 33 62 3e 71 91 b1 bc ff ab 3d bc 67 89 ed b9
       0.22089866 -0.021675797 -0.011576652 -0.00045306535
000280 4a 42 ca be fe 92 5d bc 4e 23 27 bc 07 a9 9b 3b
       -0.395037 -0.013523815 -0.010201288 0.0047503742
000290 01 2a 8c bc d3 c7 36 bc 41 83 ee bd bc db 11 bb
       -0.017109873 -0.01115604 -0.116461284 -0.0022256216
0002a0 fa 0d 8a bc 5c 25 d5 ba d6 39 09 bc b8 9f 0c bd
       -0.016852368 -0.0016261744 -0.008375606 -0.034332007
0002b0 e3 a3 3f bd 82 1e 8c bb d8 01 55 bb 1c c6 42 bc
       -0.046787154 -0.0042760978 -0.003250232 -0.011888053
0002c0 6c b8 ef bb c2 d1 15 bc a3 29 f3 3d 89 f5 2f bc
       -0.007315686 -0.009144248 0.11873176 -0.0107396925
0002d0 ba 77 19 bb 70 2c d7 3d dd a7 4d 3e f2 23 6e 3e
       -0.002341731 0.10506523 0.20083566 0.232559
0002e0 4b 6f 7b bc 4f 0e 5a bc 4b b4 85 bb 9f 47 46 bc
       -0.0153463585 -0.0133090755 -0.0040803305 -0.012102037
0002f0 15 45 4a bd 02 1e c1 bb dd 50 9d 3c 43 7e 6c bb
       -0.049382288 -0.00589347 0.019203598 -0.0036086
000300 ae 78 c1 bc c5 56 8a bc 9b 42 60 bc 8a a0 2e bd
       -0.023617115 -0.016887078 -0.013687755 -0.04263357
000310 b1 fa c6 bc b8 91 87 bc 1e c2 9f 3e ec 47 e3 3c
       -0.02428946 -0.016548976 0.31202787 0.027744256
000320 b0 d9 0a bc 54 03 6f bc 33 64 ca bc 12 95 c8 bc
       -0.008474752 -0.014588196 -0.024705982 -0.024485145
000330 37 24 12 ba 6e 3d 88 bc 99 70 c3 3e a5 0c c8 ba
       -0.00055748544 -0.016630854 0.38171843 -0.0015262557
000340 0a f9 96 bc 6b 40 0d be 8f 50 45 bc 88 96 57 3e
       -0.018429298 -0.13794105 -0.012043132 0.21053517
000350 e1 31 9c 3b 95 4a ca be 5e c8 f6 3d f2 1a 89 3e
       0.004766688 -0.39510027 0.12049936 0.2677837
000360 13 00 7a 3e 59 06 15 bc 36 0e 5f 3e c5 ef 02 bc
       0.24414091 -0.009095752 0.21782765 -0.007991736
000370 30 6e 2a bd 92 24 4e bc e7 76 03 bb 00 77 0e bc
       -0.04160899 -0.012581961 -0.0020059885 -0.008695364
000380 a1 1a b3 3d 24 7d b6 bb 8a 56 64 bc 95 e0 9c bc
       0.087453134 -0.005569117 -0.013936648 -0.019150058
000390 50 3e 58 3e f5 55 10 bd 0a 20 63 3e e0 d8 2d 3b
       0.2111752 -0.035238225 0.2218019 0.0026526973
0003a0 70 23 a1 bc 0e e3 9c bc 84 f3 7d 3e 8f 13 27 bc
       -0.019670218 -0.019151237 0.24799925 -0.010197534
0003b0 15 7c 88 ba e4 3e 80 bc a3 6a 38 3e 0a 2b 04 bd
       -0.0010412956 -0.015654989 0.18009429 -0.032267608
0003c0 ab d5 2e bd 0c 5d 4c be 13 12 24 bd 36 89 96 bc
       -0.04268424 -0.1995737 -0.0400563 -0.018375974
0003d0 e4 19 07 ba 34 fc 5e bc bc 6e 06 bd 17 1a 82 3b
       -0.00051536993 -0.013609935 -0.03282045 0.0039703953
0003e0 f9 0f 31 3d 9d 0e 41 3c bd c2 29 bd 20 08 71 bc
       0.043228123 0.011783269 -0.041445483 -0.01471141
0003f0 fd 12 a0 bc f4 e3 ba bb 3e 32 ce bc bf 55 57 bc
       -0.019540304 -0.0057034437 -0.025170442 -0.013143002

bn2.weight f4 [300]
000000 60 2b fe 3a 3c 18 09 00 48 2a 32 40 bc a1 a1 89
       0.0019391589 8.35213e-40 2.7838306 -3.8911434e-33
000010 ba df b0 b8 24 14 3e a7 78 72 07 40 f3 78 9e a5
       -8.434006e-05 -2.6378715e-15 2.1163616 -2.749059e-16
000020 b0 e5 1b 40 5d 01 00 80 b3 3f e1 22 91 30 ae 30
       2.435894 -4.89e-43 6.1053816e-18 1.267397e-09
000030 33 d9 02 1b 4e 80 f0 bb 4c e8 6f 1a 5c 31 b6 b3
       1.0823529e-22 -0.007339514 4.961169e-23 -8.484014e-08
000040 68 89 2c 26 f8 b6 bc 1b f9 3c 26 22 44 ea de b2
       5.986071e-16 3.1220232e-22 2.2529474e-18 -2.5950733e-08
000050 fc 7e 0c 40 97 a8 0e 00 c2 a2 b0 3c 37 0b 54 9f
       2.1952505 1.346176e-39 0.021561984 -4.4902023e-20
000060 59 58 94 30 e7 0f 07 9a 2e 05 92 ab 8f 01 ae b8
       1.0793527e-09 -2.793019e-23 -1.0375362e-12 -8.297257e-05
000070 59 95 de bb 1e 0f d4 8d 92 78 14 40 c9 66 be b5
       -0.006792706 -1.3069148e-30 2.319859 -1.4186018e-06
000080 e8 56 12 40 87 be 6d 3f 5e 2c 38 29 f1 3e be aa
       2.2865543 0.92868847 4.089469e-14 -3.3794454e-13
000090 bc dd 23 40 56 74 05 40 65 b6 e8 34 57 31 37 b0
       2.5604086 2.0852256 4.3346077e-07 -6.664513e-10
0000a0 e9 23 61 12 43 53 48 bb c3 35 18 b2 90 50 8d 97
       7.1041744e-28 -0.0030567206 -8.8597885e-09 -9.132248e-25
0000b0 b3 f5 62 ae 9e b4 c2 16 8b 0d 25 40 7d c2 44 a9
       -5.1604675e-11 3.1456376e-25 2.5789516 -4.3689434e-14
0000c0 ae 3b 62 19 12 f4 e3 a1 03 02 00 80 e0 01 00 80
       1.1695978e-23 -1.5446723e-18 -7.22e-43 -6.73e-43
0000d0 a2 12 a1 83 37 58 16 11 46 d2 1e 40 23 00 00 80
       -9.467007e-37 1.1860097e-28 2.481584 -4.9e-44
0000e0 9e f7 28 40 d4 4f c7 18 9c 00 00 00 14 01 00 80
       2.6401134 5.15209e-24 2.19e-43 -3.87e-43
0000f0 a2 be a5 ac a0 c9 59 21 76 f7 46 40 53 5e 50 b4
       -4.7107465e-12 7.378931e-19 3.1088538 -1.9405825e-07
000100 db 00 00 00 c5 00 00 00 58 10 95 3a c1 01 00 00
       3.07e-43 2.76e-43 0.0011372669 6.29e-43
000110 17 52 0c b0 04 8e 05 8a f1 4b 80 37 5f 56 0a 39
       -5.104836e-10 -6.430427e-33 1.5294152e-05 0.00013192881
000120 b9 90 82 3f 8c b2 63 ac 90 60 e9 28 19 cc 85 b0
       1.0200416 -3.2357754e-12 2.5910074e-14 -9.735032e-10
000130 3a 01 0f 29 44 00 00 00 94 01 00 80 b7 97 1e b6
       3.1753442e-14 9.5e-44 -5.66e-43 -2.3632144e-06
000140 61 00 00 00 f0 d5 ed b6 67 1d 2f a6 68 75 90 11
       1.36e-43 -7.088056e-06 -6.075517e-16 2.2791551e-28
000150 11 01 00 80 7b 26 f7 32 99 21 ff b3 e0 52 23 b7
       -3.83e-43 2.8772083e-08 -1.1880474e-07 -9.734853e-06
000160 03 48 78 95 e5 22 55 a5 53 1f cb bb b4 00 00 80
       -5.0140008e-26 -1.8486628e-16 -0.0061988025 -2.52e-43
000170 3c 00 00 00 0f 00 00 80 c1 37 b6 ae c1 00 00 00
       8.4e-44 -2.1e-44 -8.286306e-11 2.7e-43
000180 62 e2 dc 9b e4 a8 1c 2a a7 bd 2f 1a db 01 00 80
       -3.6542243e-22 1.3914179e-13 3.6342352e-23 -6.66e-43
000190 cb 6f ce b6 d9 00 00 80 f9 01 00 80 7d 65 ec b7
       -6.152293e-06 -3.04e-43 -7.08e-43 -2.8180651e-05
0001a0 3f 00 00 80 82 22 77 2c 33 ab 0f 23 60 fc 08 84
       -8.8e-44 3.5119967e-12 7.788298e-18 -1.6102608e-36
0001b0 d2 a6 fc 9d 04 18 35 1f 98 34 a8 3d 06 73 04 40
       -6.6876333e-21 3.8348106e-20 0.082131565 2.0695205
0001c0 47 a9 cc 1a 2d 02 00 00 d8 34 1a 2a fb 18 8c 0f
       8.4645905e-23 7.8e-43 1.3696282e-13 1.3814688e-29
0001d0 54 c5 fe ae 6b b6 05 38 a8 80 fd a3 a6 29 d6 2a
       -1.1585635e-10 3.187956e-05 -2.7484803e-17 3.8042936e-13
0001e0 96 b2 9c 1e e4 01 00 00 9a 44 6e 20 90 cb e4 3b
       1.6591004e-20 6.78e-43 2.0182082e-19 0.0069822744
0001f0 a7 f8 1e 40 21 00 00 00 1f 06 90 be a9 66 cb 1b
       2.4839265 4.6e-44 -0.2812967 3.3649875e-22
000200 f1 ae 69 8d 73 99 fa a8 d5 99 8a 0c 28 01 00 80
       -7.2009246e-31 -2.7822124e-14 2.135485e-31 -4.15e-43
000210 93 c6 8f 3b 19 f8 e3 af 53 27 4c 27 d4 c4 35 40
       0.0043876856 -4.1467343e-10 2.8332005e-15 2.8401384
000220 67 79 09 9a b2 2b 4b af 1a 50 07 07 43 64 81 02
       -2.8429004e-23 -1.8478266e-10 1.0179811e-34 1.9012394e-37
000230 61 0a ac b4 3b c0 2e bd 57 a1 31 3f d8 c7 2f 8e
       -3.2045048e-07 -0.042663794 0.6938681 -2.1666637e-30
000240 c7 bc 06 c0 e0 d5 a5 2b 7e a8 90 82 3a af b7 b4
       -2.105272 1.1783317e-12 -2.1255608e-37 -3.42139e-07
000250 55 00 00 80 55 31 16 39 d9 1a 89 32 5e 00 00 00
       -1.19e-43 0.00014323492 1.5961108e-08 1.32e-43
000260 8c 01 00 00 33 df 7a b9 55 f6 0d 40 d7 01 00 80
       5.55e-43 -0.00023925006 2.21816 -6.6e-43
000270 40 6d 3f 23 3b 49 1f 37 08 00 00 00 c7 73 d7 31
       1.0377265e-17 9.494189e-06 1.1e-44 6.270486e-09
000280 fa 0f 2c 40 41 00 00 80 e8 15 30 87 18 99 03 3b
       2.6884751 -9.1e-44 -1.3247206e-34 0.0020080265
000290 a1 0c 48 b5 b4 41 02 a2 a8 27 14 40 23 b4 0a b9
       -7.4524183e-07 -1.7653068e-18 2.3149204 -0.00013227812
0002a0 af 2c 62 a7 6a 00 00 80 19 01 00 00 c3 00 00 00
       -3.1388023e-15 -1.49e-43 3.94e-43 2.73e-43
0002b0 6f 01 00 00 fb 00 00 00 56 01 00 80 0a c8 23 a9
       5.14e-43 3.52e-43 -4.79e-43 -3.6366777e-14
0002c0 37 b5 f8 39 ad ee 3c 92 e8 6e 25 90 fd ed 98 06
       0.00047437262 -5.961653e-28 -3.262595e-29 5.752574e-35
0002d0 b2 81 ec 34 f2 38 15 40 0d 37 84 03 df 44 34 27
       4.405279e-07 2.3316007 7.770902e-37 2.5017353e-15
0002e0 82 11 3b 1d 34 eb b8 1a 19 00 00 00 8d 00 00 00
       2.4758295e-21 7.648061e-23 3.5e-44 1.98e-43
0002f0 38 a2 d2 98 c8 00 00 80 06 ec 4e 07 cb 2d d2 a7
       -5.4447527e-24 -2.8e-43 1.5567079e-34 -5.8336358e-15
000300 0c ef 92 34 54 f9 3f 92 09 f7 12 05 57 aa c1 a7
       2.736855e-07 -6.0576294e-28 6.91026e-36 -5.3752944e-15
000310 5f 35 ad 36 22 00 00 00 78 b5 51 38 9b fc 48 17
       5.162015e-06 4.8e-44 4.999849e-05 6.494232e-25
000320 61 7b d9 9d f1 b8 17 38 5c 18 56 00 e5 01 00 00
       -5.7566993e-21 3.6173446e-05 7.906591e-39 6.8e-43
000330 44 01 00 00 a9 d1 68 31 54 19 c4 bd f0 01 00 00
       4.54e-43 3.3879621e-09 -0.095751435 6.95e-43
000340 43 01 00 00 4b a5 16 40 32 64 7f aa 9a 63 3c 8a
       4.53e-43 2.3538387 -2.2683312e-13 -9.070604e-33
000350 65 9f 1f 2d e0 5c 1f 40 a1 29 46 37 48 da 88 2c
       9.073496e-12 2.4900436 1.1811412e-05 3.8895866e-12
000360 1a f5 5e 93 dd 42 36 93 cf 2d 43 3a 6f 57 e3 a6
       -2.8141184e-27 -2.3004596e-27 0.00074454857 -1.5774988e-15
000370 91 ec ac 3b 32 02 00 00 d1 0b 00 00 53 28 1b b5
       0.0052772244 7.88e-43 4.239e-42 -5.780068e-07
000380 f5 2a 6f 29 52 cd 0f b0 bb 36 ed 30 3c 4a e8 ac
       5.310592e-14 -5.2314875e-10 1.7259575e-09 -6.6020783e-12
000390 18 c7 2f bd 80 b4 18 00 3b 00 be bd 2b 3b d1 b8
       -0.04291448 2.268803e-39 -0.09277388 -9.9769175e-05
0003a0 88 ce 03 3c 6c ad 67 32 aa 09 eb 90 8e e4 f8 38
       0.008044846 1.3485401e-08 -9.2706046e-29 0.00011868133
0003b0 f3 b2 3c 85 1b 2f 1e 2a 22 c0 81 bc 79 01 00 00
       -8.872585e-36 1.4049562e-13 -0.015838686 5.28e-43
0003c0 d2 05 87 1d 6d db 06 40 3e de 27 37 78 61 dd a7
       3.574022e-21 2.1071427 1.00057205e-05 -6.14455e-15
0003d0 6b 01 00 80 7f a1 85 2e aa 20 39 91 c4 1b 4a 02
       -5.09e-43 6.076827e-11 -1.4603992e-28 1.4848585e-37
0003e0 75 f6 0c 25 78 c7 a0 2f 65 f7 2a a8 c7 6c 40 29
       1.2226567e-16 2.9245562e-10 -9.490541e-15 4.2726913e-14
0003f0 0b 01 00 00 c3 da 86 a6 2b e9 4e b9 af 7e 62 18
       3.74e-43 -9.357413e-16 -0.00019732553 2.9273774e-24
