experiments/LunarLanderContinuous-v2/luna_v2/saves/pi_network.pth (torch_old, 505222 bytes, 10 tensors)

fc1.weight f4 [400, 8]
0.038601447 0.025194261 -0.036377255 -0.008470318 0.044565 0.052007474 0.052423976 -0.004566864
0.094057605 -0.032199316 0.08034795 -0.017938321 -0.08237281 -0.057085533 -0.044986952 0.041793417
-0.027803851 -0.002825424 -0.13925244 0.0061900867 0.03504517 -0.09274255 -0.08195181 0.005396687
0.019123359 0.032441385 -0.06995019 0.078394935 0.109282516 0.0128519265 0.054523375 0.030115236
0.05082606 0.041621476 -0.022972777 -0.013022075 0.052530415 0.058832068 0.0027894548 -0.008602935
-0.11004487 0.0630494 -0.0009309143 -0.026625464 0.11311822 0.05698489 0.050349377 -0.13762134
-0.012271258 0.060560614 -0.010998069 0.046659112 0.06501253 -0.03220773 0.06245217 -0.040411454
-0.050235853 0.018498229 -0.11160213 0.13353297 0.16759159 -0.005307496 -0.11409375 -0.011163466
-0.009298179 0.026355984 0.050230246 0.036169816 0.011240786 -0.04631684 -0.053202547 0.045465212
0.04233334 0.16313718 0.0298115 -0.049656417 -0.019326063 0.067611076 0.06317044 -0.029801574
-0.02773479 -0.05829555 -0.086426534 0.13078728 0.021931581 -0.013487548 -0.04573256 0.13360359
-0.027951125 0.05598595 0.016619524 0.032327887 0.047335833 0.075673744 0.022753082 0.009930738
-0.049456388 0.04437128 -0.08825318 0.17958626 0.009564313 0.07821481 -0.10894472 0.01521981
0.05795384 -0.012127423 0.012998182 0.18202071 -0.110364206 -0.14390029 0.04517757 -0.15500024
0.06449089 0.05229109 0.04453245 -0.017912041 -0.05729635 -0.023042426 -0.027086092 0.08837899
0.04048058 -0.054072026 -0.03409224 -0.009617948 -0.20179796 -0.11111212 -0.0097477 0.0046371953
0.0016436722 0.029903246 0.010515588 -0.001814144 -0.24760266 -0.097033806 -0.041312914 0.08632317
0.022185994 0.11624191 -0.0024745686 -0.027362892 0.0073224427 0.063454725 0.107522964 -0.024532212
-0.08257433 0.03530373 -0.020764386 -0.015782129 -0.11088206 -0.010806641 -0.059130188 0.032914136
-0.008295741 -0.04813423 -0.13450722 -0.019273119 -0.011697622 0.10584475 0.001393848 0.08883306
0.010896155 0.018464437 0.076922774 -0.035234038 -0.011595714 -0.04676463 -0.04206502 0.002383518
0.09119562 -0.005735079 0.028148701 -0.059850626 0.03515653 -0.03068019 -0.13503255 0.015633551
0.069125816 -0.0425985 0.04484442 -0.044129 -0.06785844 -0.0856725 0.029922402 0.05638288
-0.083110765 -0.025716685 0.110089615 0.022941573 -0.1198938 -0.07974718 0.017637512 0.0062181437
-0.04113748 0.027487079 -0.09352151 0.009671266 0.052050274 0.036591597 0.11336798 -0.029400889
-0.012874537 -0.03795436 0.054402374 -0.040956117 0.06584551 0.11232194 0.051796123 0.01006046
-0.028689489 0.05105459 0.038178466 0.01158862 0.011477126 -0.0598914 0.09957691 0.011460225
0.02863014 0.0031784691 -0.04399168 0.1910511 -0.11025653 -0.074517414 0.0066997395 0.036451776
-0.081841566 -0.0547003 -0.0358253 -0.04721746 0.15600178 0.08012344 -0.049836468 -0.002909651
0.04297744 0.019732477 0.04182811 -0.0073408997 -0.13911268 -0.0675879 -0.06223906 -0.11636067
0.07664414 0.06161298 -0.022812622 0.02078891 -0.08505848 -0.19397841 -0.040260594 0.06038285
-0.006138736 -0.11883568 0.020229496 -0.021852931 0.03423953 -0.06272467 -0.01345592 0.08290919
00000000: 8d1c 1e3d 3264 ce3c 5100 15bd 17c7 0abc
00000010: ca89 363d ca05 553d 86ba 563d a2a5 95bb
00000020: 46a1 c03d 6ee3 03bd 778d a43d 63f3 92bc
00000030: 13b3 a8bd 85d2 69bd 3d44 38bd 932f 2b3d
00000040: e7c4 e3bc c02a 39bb 3198 0ebe 36d6 ca3b
00000050: 868b 0f3d ceef bdbd 5ad6 a7bd b1d6 b03b
00000060: 97a8 9c3c 42e1 043d 0c42 8fbd 868d a03d
00000070: 83cf df3d e390 523c e753 5f3d 3ab4 f63c
00000080: fd2e 503d 487b 2a3d 6831 bcbc 8b5a 55bc
00000090: 222a 573d e5f9 703d 49cf 363b 53f3 0cbc
000000a0: 345f e1bd 0b20 813d 9a08 74ba a51d dabc
000000b0: 86aa e73d fd68 693d 263b 4e3d 9cec 0cbe
000000c0: 630d 49bc 680e 783d 3f31 34bc a01d 3f3d
000000d0: 4a25 853d 41ec 03bd d9cd 7f3d 7b86 25bd
000000e0: 1cc4 4dbd 9989 973c a88f e4bd debc 083e
000000f0: 219d 2b3e 81ea adbb fca9 e9bd f8e6 36bc
00000100: 6457 18bc 81e8 d73c 3bbe 4d3d cd26 143d
00000110: 462b 383c bab6 3dbd eaea 59bd bb39 3a3d
00000120: b965 2d3d 6f0d 273e 3f37 f43c 8764 4bbd
00000130: b151 9ebc ad77 8a3d 815f 813d 6e22 f4bc
00000140: 1234 e3bc 51c7 6ebd 6500 b1bd 1aed 053e
00000150: dca9 b33c e0fa 5cbc 1152 3bbd 61cf 083e
00000160: c2f9 e4bc 8651 653d ab25 883c 3f6a 043d
00000170: 38e3 413d d6fa 9a3d ac64 ba3c 89b4 223c
00000180: c892 4abd a9be 353d 15be b4bd 76e5 373e
00000190: a3b3 1c3c 162f a03d 691e dfbd 835c 793c
000001a0: 0161 6d3d 19b2 46bc 54f6 543c a363 3a3e
000001b0: a106 e2bd 995a 13be 1e0c 393d 62b8 1ebe
000001c0: cd13 843d 2f2f 563d a967 363d 46bc 92bc
000001d0: 94af 6abd 78c3 bcbc a7e3 ddbc 0b00 b53d
000001e0: f7ce 253d a17a 5dbd 4ea4 0bbd 9994 1dbc
000001f0: 20a4 4ebe c08e e3bd d1b4 1fbc 9df3 973b
00000200: 7d70 d73a a7f7 f43c 9349 2c3c 92c8 edba
00000210: 8d8b 7dbe a9b9 c6bd bb37 29bd 34ca b03d
00000220: 67bf b53c 3d10 ee3d 5f2c 22bb 2528 e0bc
00000230: 1af1 ef3b 8df4 813d 0035 dc3d c7f7 c8bc
00000240: bb1c a9bd a59a 103d 131a aabc 8649 81bc
00000250: 2216 e3bd 560e 31bc 7f32 72bd f9d0 063d
00000260: dcea 07bc 6628 45bd 43bc 09be a9e2 9dbc
00000270: 62a7 3fbc 22c5 d83d c7b1 b63a 1bee b53d
00000280: c985 323c bb42 973c b089 9d3d 9151 10bd
00000290: f3fb 3dbc 458c 3fbd 5f4c 2cbd cc34 1c3b
000002a0: c5c4 ba3d 54ed bbbb 1b98 e63c ee25 75bd
000002b0: 4b00 103d 0655 fbbc f945 0abe ef11 803c
000002c0: d691 8d3d c47b 2ebd c8ae 373d 9cc0 34bd
000002d0: 5ef9 8abd 1075 afbd d31f f53c bcf1 663d
000002e0: fa35 aabd ccab d2bc aa76 e13d f7ef bb3c
000002f0: e18a f5bd 7d52 a3bd 8b7c 903c 92c1 cb3b
00000300: c67f 28bd 952c e13c 3588 bfbd 3b74 1e3c
00000310: ab32 553d 12e1 153d 792d e83d 22da f0bc
00000320: b9ef 52bc 0876 1bbd 06d5 5e3d 9ac1 27bd
00000330: 03da 863d 0c09 e63d 2c28 543d a1d4 243c
00000340: 3806 ebbc 9e1e 513d 0661 1c3d 32de 3d3c
00000350: 8e0a 3c3c af50 75bd fbee cb3d abc3 3b3c
00000360: c189 ea3c dd4d 503b 9f30 34bd e6a2 433e
00000370: 2dce e1bd 969c 98bd 7d89 db3b 754e 153d
00000380: 8d9c a7bd 6c0d 60bd 8dbd 12bd 1867 41bd
00000390: eebe 1f3e c217 a43d 5321 4cbd d8af 3ebb
000003a0: 1d09 303d 01a6 a13c f453 2b3d ee8b f0bb
000003b0: 8e73 0ebe 866b 8abd 62ee 7ebd 814e eebd
000003c0: 9af7 9c3d e45d 7c3d 89e1 babc 814d aa3c
000003d0: 2433 aebd 47a2 46be 4be8 24bd 0254 773d
000003e0: 7327 c9bb 1f60 f3bd 54b8 a53c eb04 b3bc
000003f0: c03e 0c3d cb75 80bd 3876 5cbc 4bcc a93d

fc1.bias f4 [400]
0.043411244 0.022581166 -0.003609124 -0.038385328 0.04162386 0.019286357 -0.05947544 0.052170224
0.032270636 0.19824368 0.03383167 0.01387043 -0.025338465 -0.036156297 0.05880561 0.023910223
0.034664 0.124167785 -0.04553961 0.043136563 0.04823396 0.013672718 0.03617643 -0.02153994
-0.04959786 0.026572106 0.08830746 0.0335181 0.023392154 0.03082519 -0.0161033 0.04916393
0.019903775 0.022591196 -0.034365386 0.031465914 0.016465245 0.018135777 0.05999031 -0.009670147
0.015259887 -0.07847875 0.0057963203 0.004209739 -0.015567646 0.025660472 -0.0053343303 0.028389819
-0.042387765 0.009426822 -0.0276693 -0.06361112 0.028018884 0.03689445 0.025917085 -0.01687629
0.17883779 -0.032654304 -0.03777932 -0.026598899 -0.023775512 -0.020784894 -0.032668054 -0.010799372
-0.06503055 0.013758454 0.042211767 0.044793513 -0.003880123 0.007399589 -0.022221897 -0.003981758
0.041628774 0.005334981 0.055837855 -0.03102705 -0.030828768 0.027213443 -0.02392546 -0.0063340296
0.02542326 0.009991271 0.08796338 -0.05038469 0.004169134 0.036485244 0.20159633 0.034406997
0.01302105 -0.016901307 0.0073810993 0.04097091 0.018730432 0.0036977967 0.0385846 0.042036753
0.04553881 0.051795613 0.0013040513 0.012061091 0.033461526 -0.012891269 0.021727992 0.023930455
0.04115335 0.0023573062 0.02702459 0.009016865 0.008490289 0.0037301064 -0.012885474 0.08482171
0.09010657 0.013515 0.026932433 -0.026986714 0.013072185 0.037444767 0.049707305 0.03244282
-0.010271805 0.07508581 0.016960742 0.05313095 -0.0062371306 -0.0117248865 0.050182614 -0.10303703
0.040349323 0.05647115 -9.997114e-05 0.039078195 0.11883542 0.04353014 0.045633584 -0.008930142
-0.0023929416 0.011944629 0.036528364 -0.04519985 -0.017565452 -0.027278865 -0.054576702 -0.030144796
-0.0030418625 0.030358069 -0.03646272 -0.033184145 0.023623245 0.0059927227 0.048562896 -0.07910257
0.03818102 -0.0004506791 0.039285596 -0.05416674 0.03427054 -0.0073789456 0.05173165 -0.004839515
0.035068758 -0.053784203 -0.0020653617 0.025309099 0.029353168 0.0203112 0.0129527785 -0.022255776
0.028332043 0.029977815 -0.049189143 0.011935524 0.028685302 0.016717853 0.08808105 0.13024509
0.0194859 0.042187728 0.025678521 0.10575583 -0.013199997 -0.004885079 0.06275695 -0.03284853
0.05436433 0.0424979 -0.005013729 0.09589265 0.04285789 0.05121213 0.02413192 0.029513268
0.018059343 -0.040426154 0.05427842 -0.026504047 0.06397508 -0.022285555 0.049349062 0.03789202
0.06331275 0.022857072 0.0474064 0.046555698 -0.034049228 0.009593994 -0.022763126 -0.015084264
0.010804186 -0.048918065 -0.014782297 0.019226048 -0.014832029 0.007164102 -0.05645567 0.032976758
-0.031487957 -0.021409703 -0.027594427 0.106089056 0.07744981 0.017717378 0.030751893 0.047353372
0.059481286 0.016387187 -0.013853008 0.014907222 0.025360756 -0.0138364965 -0.0527893 -0.008959245
0.0374937 -0.013477334 0.023496704 -0.016825499 -0.028262114 0.012363821 0.038007263 -0.0031308024
0.0431503 0.0011220921 0.09520845 0.04577612 -0.066006094 0.09654274 0.054266002 0.072541416
0.036370795 -0.029708039 0.011912397 0.0034093086 -0.038999584 0.079456165 0.027000912 -0.0047056274
00000000: fdcf 313d 23fc b83c 0e87 6cbb ef39 1dbd
00000010: c87d 2a3d 6cfe 9d3c 859c 73bd 72b0 553d
00000020: 372e 043d 6400 4b3e 1493 0a3d cd40 633c
00000030: 9d92 cfbc a018 14bd 27de 703d 5fdf c33c
00000040: d7fb 0d3d ae4b fe3d be87 3abd f7af 303d
00000050: f990 453d 8903 603c bc2d 143d 8774 b0bc
00000060: 2027 4bbd bfad d93c 8bda b43d 464a 093d
00000070: e7a0 bf3c 1c85 fc3c 11eb 83bc 1e60 493d
00000080: 3e0d a33c 2c11 b93c b8c2 0cbd 67e2 003d
00000090: 1fe2 863c 7b91 943c 66b8 753d 896f 1ebc
000000a0: 9b04 7a3c 78b9 a0bd 0fef bd3b daf1 893b
000000b0: 710f 7fbc e935 d23c 9bcb aebb c491 e83c
000000c0: cb9e 2dbd f572 1a3c baaa e2bc 8c46 82bd
000000d0: dc87 e53c a31e 173d 1150 d43c 2540 8abc
000000e0: 4121 373e 85c0 05bd 7dbe 1abd efe5 d9bc
000000f0: ddc4 c2bc 1545 aabc f0ce 05bd d9ef 30bc
00000100: bd2e 85bd 236b 613c 3fe6 2c3d 6779 373d
00000110: a949 7ebb 4078 f23b b20a b6bc 6879 82bb
00000120: ef82 2a3d 10d1 ae3b 3cb6 643d 712c febc
00000130: 9d8c fcbc baee de3c 54ff c3bc b18d cfbb
00000140: 7144 d03c 6eb2 233c 2526 b43d 2d60 4ebd
00000150: 3b9d 883b 8d71 153d 456f 4e3e 5aee 0c3d
00000160: 3e56 553c 9c74 8abc 26dd f13b 1dd1 273d
00000170: 9070 993c bc56 723b e30a 1e3d bb2e 2c3d
00000180: e786 3a3d a327 543d b3ec aa3a e29b 453c
00000190: f40e 093d e735 53bc e7fe b13c cd09 c43c
000001a0: 6a90 283d 097d 1a3b ac62 dd3c 79bb 133c
000001b0: da1a 0b3c cd74 743b 981d 53bc 01b7 ad3d
000001c0: cb89 b83d 056e 5d3c 68a1 dc3c 3e13 ddbc
000001d0: b82c 563c af5f 193d e399 4b3d c3e2 043d
000001e0: 134b 28bc 97c6 993d 41f1 8a3c d79f 593d
000001f0: d860 ccbb bd19 40bc 498c 4d3d 1405 d3bd
00000200: 5545 253d 4b4e 673d 99a7 d1b8 7510 203d
00000210: fc5f f33d a94c 323d 48ea 3a3d bb4f 12bc
00000220: e6d2 1cbb 68b3 433c c49e 153d 7a23 39bd
00000230: 6ce5 8fbc ed77 dfbc d28b 5fbd 38f2 f6bc
00000240: fc59 47bb 7cb1 f83c ef59 15bd 19ec 07bd
00000250: 8985 c13c 9a5e c43b e3e9 463d 8700 a2bd
00000260: b463 1c3d 2049 ecb9 efe9 203d f2dd 5dbd
00000270: 445f 0c3d 15cb f1bb 91e4 533d cb94 9ebb
00000280: 42a4 0f3d d34c 5cbd 055b 07bb 0755 cf3c
00000290: 0e76 f03c ac63 a63c e437 543c bf51 b6bc
000002a0: 9a18 e83c 0994 f53c 8e7a 49bd 378d 433c
000002b0: 70fd ea3c e1f3 883c d663 b43d f85e 053e
000002c0: e5a0 9f3c 0acd 2c3d c35b d23c 8396 d83d
000002d0: cd44 58bc 0313 a0bb b786 803d 2e8c 06bd
000002e0: 22ad 5e3d 4712 2e3d 354a a4bb 5e63 c43d
000002f0: c18b 2f3d cfc3 513d 4eb0 c53c cfc5 f13c
00000300: 30f1 933c e595 25bd 0c53 5e3d 041f d9bc
00000310: 5e05 833d 3290 b6bc 3e22 4a3d aa34 1b3d
00000320: 1daa 813d c13e bb3c 372d 423d 30b1 3e3d
00000330: 3477 0bbd 2130 1d3c bc79 babc fd23 77bc
00000340: 0a04 313c 4f5e 48bd 7331 72bc f27f 9d3c
00000350: 0a02 73bc d8c0 ea3b 103e 67bd a312 073d
00000360: 84f9 00bd 6763 afbc b50d e2bc 3845 d93d
00000370: 029e 9e3d 0924 913c 65eb fb3c 9cf5 413d
00000380: a6a2 733d 6c3e 863c baf7 62bc 6c3d 743c
00000390: 5cc1 cf3c 79b2 62bc 9839 58bd ccc9 12bc
000003a0: fe92 193d 09d0 5cbc 297c c03c a1d5 89bc
000003b0: f385 e7bc a091 4a3c 81ad 1b3d 262e 4dbb
000003c0: 5ebe 303d 2a13 933a a6fc c23d be7f 3b3d
000003d0: 342e 87bd 33b8 c53d 0746 5e3d 9890 943d
000003e0: 8bf9 143d 465e f3bc 372c 433c b56e 5f3b
000003f0: 07be 1fbd eab9 a23d 0431 dd3c aa31 9abb

bn1.weight f4 [400]
0.6313502 1.097629 0.9765976 1.174174 0.6325683 0.8350608 1.1314532 0.9543313
0.7189053 0.2529479 1.2129494 0.81429696 1.116486 1.3871313 0.52890646 1.149551
1.0053297 0.43925238 1.1343737 0.9487611 0.7667534 0.99554235 0.91985637 1.152075
1.0388498 1.0073357 0.5494519 1.0948979 0.9875535 0.82167727 0.99732745 1.1348294
0.9048938 1.1064626 1.1820887 0.849591 0.9467213 1.1695595 0.5652059 0.9729874
1.0181882 1.3297095 0.9338254 1.0539491 1.180735 1.2491168 0.93034405 1.133774
1.1683034 1.190279 0.91034377 1.0974802 0.8960619 1.1295415 0.8474137 1.2535076
0.37090975 1.0426464 1.2725666 1.0843104 1.1432983 0.9489664 1.2983823 1.184401
1.3388822 1.1382219 0.6535022 0.62642145 1.3616273 1.1696784 1.2141457 0.8788699
0.64235926 0.67456424 0.526936 1.0372779 1.1204727 0.87888366 1.1301934 1.0985768
0.84777886 1.1419138 0.40935665 1.1420197 1.0794687 1.0572753 0.22612815 1.0115191
0.9533957 1.1592116 1.1045015 0.84301794 1.0665845 1.0222213 1.0402467 0.6879183
0.6239367 1.0857555 1.074874 1.0776905 0.94827926 1.0616585 0.9251542 1.085264
0.7350643 1.1828732 0.99446946 1.1152834 0.96342015 1.0885246 1.0626932 0.47065455
0.4909555 1.2666872 1.0287435 1.2364331 1.1661506 1.0181607 1.1249173 1.030978
1.0285017 0.4297268 1.100758 0.59859914 1.0711293 1.012675 0.6198077 1.4740167
0.7545168 0.5328328 1.1118124 1.0810179 0.420416 0.832556 0.7357233 1.0987009
1.0626493 1.1112531 0.8371028 1.2356973 1.2995114 1.1186227 1.0812995 0.9518602
1.1722534 0.95614356 1.249084 0.94999 0.9425891 0.90326375 0.9258466 1.1989297
0.8005487 1.2632484 0.64916176 1.1122015 1.0600464 1.0405028 0.6494583 1.0741444
0.85410446 1.1683336 0.99619263 0.85915 0.70311576 1.0794023 1.0753382 1.413681
1.0068942 0.75622594 1.2453647 0.9632478 0.97537553 1.2464205 0.4524098 0.3539183
1.151672 0.70425564 0.94590133 0.36705795 1.0469255 0.9666067 0.48976132 1.0605934
0.8652184 0.9596504 0.94588894 0.45069355 0.75433785 0.5351964 1.1614867 0.81849796
0.9996358 0.9464437 0.59447443 1.0922878 1.0370798 0.84995526 0.5617126 0.7739561
0.46134079 1.0722631 0.80789167 0.5854912 1.1311278 0.92073804 1.1575655 1.2364486
0.89505804 0.9366738 1.0645075 1.0571014 1.1671832 0.8826523 1.3230445 0.9064347
1.2724535 1.2727696 1.0775846 0.37174803 0.45238099 0.9049941 0.776565 0.65314645
1.0048317 0.8981707 0.92600244 1.0354817 0.7935331 0.9766699 1.40314 0.9004817
0.80198777 1.1511017 1.2303213 1.2443801 0.8211864 1.0991606 1.0081066 1.0379854
0.89476854 1.225297 0.42699865 0.93511605 1.2237669 0.42849952 1.0536842 0.5081967
0.89289147 1.2196995 0.88121235 1.0102425 1.0136153 0.4375908 0.7409088 1.1453424
00000000: 2ba0 213f 1b7f 8c3f 4d02 7a3f 554b 963f
00000010: ffef 213f 8bc6 553f 75d3 903f 0e4f 743f
00000020: 2e0a 383f 6382 813e ed41 9b3f c475 503f
00000030: 03e9 8e3f 858d b13f 6a66 073f 7d24 933f
00000040: a5ae 803f b0e5 e03e 2833 913f 02e2 723f
00000050: f349 443f dddb 7e3f b57b 6b3f 3277 933f
00000060: 08f9 843f 60f0 803f e1a8 0c3f 9d25 8c3f
00000070: 4ed0 7c3f 7159 523f da50 7f3f 1742 913f
00000080: 1fa7 673f 91a0 8d3f af4e 973f cc7e 593f
00000090: 545c 723f 20b4 953f 55b1 103f b415 793f
000000a0: fe53 823f ec33 aa3f 2e0f 6f3f cee7 863f
000000b0: 5322 973f 0fe3 9f3f 072b 6e3f 821f 913f
000000c0: f78a 953f 105b 983f 4a0c 693f 3b7a 8c3f
000000d0: 5064 653f d194 903f 1bf0 583f f072 a03f
000000e0: e2e7 bd3e 7075 853f 76e3 a23f afca 8a3f
000000f0: 9957 923f 76ef 723f 6431 a63f 749a 973f
00000100: 7e60 ab3f 41b1 913f ec4b 273f 285d 203f
00000110: ce49 ae3f 06b8 953f 2069 9b3f 9efd 603f
00000120: a871 243f 3eb0 2c3f 47e5 063f 86c5 843f
00000130: a66b 8f3f 85fe 603f 2daa 903f 2a9e 8c3f
00000140: 0908 593f 3b2a 923f 3297 d13e b42d 923f
00000150: 082c 8a3f cc54 873f 238e 673e 7579 813f
00000160: be11 743f 0c61 943f 4e60 8d3f 06d0 573f
00000170: d785 883f 26d8 823f ce26 853f 6a1b 303f
00000180: 51ba 1f3f 09fa 8a3f 7995 893f c3f1 893f
00000190: 6ec2 723f 6de4 873f e8d6 6c3f eee9 8a3f
000001a0: 2d2d 3c3f 6468 973f 8d95 7e3f 9bc1 8e3f
000001b0: b4a2 763f c654 8b3f 5506 883f a2f9 f03e
000001c0: 855e fb3e ce22 a23f dead 833f 7143 9e3f
000001d0: 6c44 953f 1753 823f 4afd 8f3f 16f7 833f
000001e0: f2a5 833f 2705 dc3e a3e5 8c3f cb3d 193f
000001f0: c41a 893f 569f 813f b8ab 1e3f 94ac bc3f
00000200: 0328 413f bb67 083f de4f 8e3f cb5e 8a3f
00000210: c440 d73e 6422 553f 5d58 3c3f 3ba2 8c3f
00000220: e404 883f 8b3d 8e3f 5e4c 563f 542b 9e3f
00000230: 6456 a63f 072f 8f3f 0668 8a3f 1cad 733f
00000240: 660c 963f d3c5 743f fce1 9f3f 8b32 733f
00000250: 854d 713f 4b3c 673f 4804 6d3f 8776 993f
00000260: c2f0 4c3f 20b2 a13f 772f 263f 9e5c 8e3f
00000270: 9aaf 873f 322f 853f e642 263f 907d 893f
00000280: 97a6 5a3f f58b 953f 7b06 7f3f 41f1 5b3f
00000290: 65ff 333f db29 8a3f afa4 893f 80f3 b43f
000002a0: e9e1 803f 0698 413f 1c68 9f3f 6897 763f
000002b0: 36b2 793f b58a 9f3f 42a2 e73e c834 b53e
000002c0: fd69 933f 194a 343f 9726 723f 05ef bb3e
000002d0: a801 863f 8973 773f ffc1 fa3e 86c1 873f
000002e0: f47e 5d3f a6ab 753f c725 723f 4ec1 e63e
000002f0: 491c 413f a202 093f 99ab 943f 1589 513f
00000300: 22e8 7f3f 224a 723f 7a2f 183f 16d0 8b3f
00000310: 08bf 843f ab96 593f 66cc 0f3f fd21 463f
00000320: dc34 ec3e eb3f 893f fdd1 4e3f c0e2 153f
00000330: ccc8 903f 7db5 6b3f 1b2b 943f f343 9e3f
00000340: 8622 653f dbc9 6f3f c841 883f 194f 873f
00000350: 4266 953f 80f5 613f 8659 a93f 1b0c 683f
00000360: c2df a23f 1dea a23f 4bee 893f c255 be3e
00000370: 7b9e e73e b1ad 673f f7cc 463f 9b34 273f
00000380: 539e 803f 84ee 653f 7f0e 6d3f aa8a 843f
00000390: fc24 4b3f 0a07 7a3f 179a b33f f885 663f
000003a0: 124f 4d3f 4d57 933f 2b7b 9d3f d947 9f3f
000003b0: 4639 523f 4bb1 8c3f a309 813f b5dc 843f
000003c0: 8d0f 653f 88d6 9c3f 919f da3e c463 6f3f
000003d0: 65a4 9c3f 4a64 db3e 20df 863f 2e19 023f
000003e0: 8994 643f 1d1f 9c3f 2297 613f a04f 813f
000003f0: 25be 813f e70b e03e 33ac 3d3f 949a 923f

bn1.bias f4 [400]
-0.36100587 -0.048199955 -0.19574338 -0.048137456 -0.33447215 -0.2166308 -0.08260766 -0.13620612
-0.27335727 -0.71827626 -0.07319177 -0.22764863 -0.048554596 -0.015282435 -0.45454234 -0.053416155
-0.039189883 -0.5373283 -0.078166574 -0.12182898 -0.26874414 -0.084999084 -0.12993778 -0.07907772
-0.11274106 -0.10669319 -0.46466672 -0.05015354 -0.15134904 -0.18087913 -0.030365719 -0.018834967
-0.12242996 -0.027579358 -0.019009441 -0.18571751 -0.123273164 -0.15784152 -0.4023452 -0.051527716
-0.07495497 -0.0082315495 -0.10444172 -0.10414592 -0.07146844 -0.027091732 -0.09233035 -0.0058205305
-0.084709994 -0.0033772956 -0.20868729 -0.094015 -0.13256057 -0.020759247 -0.20095734 -0.04365607
-0.60828996 -0.18648703 -0.051242784 -0.038631923 -0.10943251 -0.22688115 0.020856874 -0.02224843
-0.10375484 -0.034274008 -0.35824734 -0.32551122 -0.006114649 -0.015448777 0.0026477312 -0.19509491
-0.3686451 -0.34058997 -0.43400007 -0.058484968 -0.08578972 -0.15952939 -0.023317214 -0.037885644
-0.16592172 -0.06967776 -0.5394465 -0.066478506 -0.029262165 -0.02419351 -0.7256034 -0.055951044
-0.11855366 -0.15062276 -0.063571885 -0.1425484 0.015849171 -0.113168016 -0.05011257 -0.32953492
-0.3775136 0.0040931418 -0.07617956 -0.03290395 -0.072323695 -0.095188364 -0.06729481 -0.13799638
-0.28344458 -0.059913132 -0.13720857 0.0017703542 -0.12180421 0.0039025245 -0.046244495 -0.55160314
-0.47980273 -0.019805728 -0.059729926 -0.031743642 -0.09309558 -0.03550376 -0.088095695 -0.0350263
-0.07276076 -0.55159295 0.0069954973 -0.42311946 -0.039110333 -0.024241505 -0.41299564 -0.022932654
-0.24294572 -0.4940278 -0.031191884 0.027582597 -0.57561517 -0.24955301 -0.25499502 -0.057494245
-0.06814199 -0.07615338 -0.21389848 -0.110585324 0.0368392 -0.13093574 -0.064198546 -0.14195983
-0.008385056 -0.07763085 -0.06462282 -0.118560225 -0.10087164 -0.20350078 -0.05547206 -0.10735322
-0.22672626 -0.012912758 -0.3192499 -0.10178827 0.009439168 -0.07138853 -0.3364401 -0.012838334
-0.17746451 -0.07671163 -0.103059314 -0.15427275 -0.29410544 -0.0721946 -0.10155452 -0.05308441
-0.087596186 -0.27129504 -0.13565783 -0.0420491 -0.10600381 -0.006149558 -0.5414247 -0.5956015
-0.01120344 -0.31818888 -0.059473254 -0.6174978 -0.04152856 -0.09183978 -0.47572443 -0.014791836
-0.1680748 -0.063564956 -0.106841065 -0.5341428 -0.2716388 -0.47185716 0.044564802 -0.26452622
-0.021226684 -0.20338488 -0.41623598 -0.03175959 -0.02521894 -0.17341271 -0.3961838 -0.24603958
-0.525019 -0.021069897 -0.23954181 -0.41774333 -0.023544883 -0.078995086 -0.076461986 -0.06812413
-0.11313423 -0.10106685 -0.0685642 -0.031836648 -0.033190656 -0.18385428 -0.07476381 -0.10866157
0.029375087 -0.111208074 -0.072786875 -0.6014175 -0.5307783 -0.09737824 -0.2342255 -0.36021245
-0.014149799 -0.15871963 -0.15062487 -0.051567625 -0.234432 -0.07431524 0.0065380456 -0.12158517
-0.22340028 -0.1351147 -0.038762543 -0.06648672 -0.21636915 -0.025425266 -0.023419714 -0.0634298
-0.114498146 -0.06755047 -0.5768872 -0.14329189 -0.059511334 -0.5303895 -0.040142547 -0.45310482
-0.13901402 -0.0637536 -0.17607008 -0.10515506 -0.035313696 -0.5453446 -0.30020553 -0.028965259
00000000: c3d5 b8be 516d 45bd f470 48be c82b 45bd
00000010: ef3f abbe 77d4 5dbe 342e a9bd 9e79 0bbe
00000020: 7cf5 8bbe f4e0 37bf 91e5 95bd b91c 69be
00000030: 2fe1 46bd 2e63 7abc c6b9 e8be e6ca 5abd
00000040: 9285 20bd 598e 09bf cc15 a0bd 7981 f9bd
00000050: d598 89be 0014 aebd 690e 05be 80f3 a1bd
00000060: c9e4 e6bd f681 dabd cce8 edbe cc6d 4dbd
00000070: 3efb 1abe 6138 39be 87c1 f8bc ca4b 9abc
00000080: 8fbc fabd 1bee e1bc b0b9 9bbc bb2c 3ebe
00000090: a476 fcbd 35a1 21be 3100 cebe ba0e 53bd
000000a0: fe81 99bd 9fdd 06bc 8ae5 d5bd 754a d5bd
000000b0: 0c5e 92bd 7bef ddbc b217 bdbd 26ba bebb
000000c0: 6f7c adbd 9e55 5dbb 1fb2 55be f08a c0bd
000000d0: f5bd 07be 4c0f aabc c3c7 4dbe b5d0 32bd
000000e0: e4b8 1bbf 75f6 3ebe f4e3 51bd 823c 1ebd
000000f0: 271e e0bd 8853 68be 09dc aa3c 5742 b6bc
00000100: 6b7d d4bd e762 0cbd 326c b7be 68a9 a6be
00000110: 655d c8bb de1c 7dbc 8f85 2d3b f6c6 47be
00000120: 0dbf bcbe cf61 aebe 4235 debe ef8d 6fbd
00000130: 85b2 afbd ac5b 23be be03 bfbc fa2d 1bbd
00000140: 62e7 29be 37b3 8ebd 2a19 0abf e225 88bd
00000150: 35b7 efbc 7831 c6bc 25c1 39bf ec2c 65bd
00000160: 43cc f2bd da3c 1abe fa31 82bd 35f8 11be
00000170: 1fd6 813c a2c4 e7bd d742 4dbd cdb8 a8be
00000180: 7649 c1be c31f 863b 0704 9cbd 4bc6 06bd
00000190: 721e 94bd 1ef2 c2bd ddd1 89bd ec4e 0dbe
000001a0: a61f 91be 7967 75bd 6780 0cbe 3b0b e83a
000001b0: 7c74 f9bd 7fc1 7f3b de6a 3dbd dd35 0dbf
000001c0: b4a8 f5be 9f3f a2bc 5ea7 74bd 9f05 02bd
000001d0: e5a8 bebd 646c 11bd 846b b4bd bd77 0fbd
000001e0: 9803 95bd 3235 0dbf 7c3a e53b 1da3 d8be
000001f0: 2832 20bd 1f96 c6bc 2a74 d3be 43dd bbbc
00000200: c3c6 78be 36f1 fcbe 1f86 ffbc e6f4 e13c
00000210: 845b 13bf d38a 7fbe b58e 82be 167f 6bbd
00000220: 078e 8bbd 4ef6 9bbd 3408 5bbe 8f7a e2bd
00000230: b3e4 163d 0514 06be 877a 83bd eb5d 11be
00000240: 7961 09bc ecfc 9ebd f858 84bd b4cf f2bd
00000250: ca95 cebd 8262 50be ac36 63bd 01dc dbbd
00000260: ee2a 68be 0890 53bc b974 a3be 5e76 d0bd
00000270: bda6 1a3c 2634 92bd e041 acbe e057 52bc
00000280: 42b9 35be fd1a 9dbd c310 d3bd adf9 1dbe
00000290: fd94 96be c3da 93bd d1fb cfbd 0a6f 59bd
000002a0: a165 b3bd 2fe7 8abe e3e9 0abe ad3b 2cbd
000002b0: 8718 d9bd 3b82 c9bb cf9a 0abf 5779 18bf
000002c0: a28e 37bc a7e9 a2be 3a9a 73bd 5614 1ebf
000002d0: da19 2abd 7f16 bcbd 2792 f3be 7559 72bc
000002e0: cd1b 2cbe 582e 82bd 7dcf dabd 95bd 08bf
000002f0: 3e14 8bbe 4397 f1be 9589 363d fb6f 87be
00000300: 95e3 adbc 2044 50be e21c d5be 5816 02bd
00000310: f397 cebc 1a93 31be 9ad8 cabe cdf1 7bbe
00000320: a567 06bf c79a acbc 734a 75be 74e2 d5be
00000330: 33e1 c0bc 2dc8 a1bd 1a98 9cbd aa84 8bbd
00000340: ebb2 e7bd 23fc cebd 636b 8cbd 2567 02bd
00000350: edf2 07bd 4c44 3cbe c51d 99bd f589 debd
00000360: 06a4 f03c 0fc1 e3bd 4911 95bd 7ff6 19bf
00000370: 16e1 07bf 3e6e c7bd cfd8 6fbe c46d b8be
00000380: 8fd4 67bc 6687 22be 683d 1abe 9338 53bd
00000390: f10e 70be 9732 98bd 1a3d d63b a501 f9bd
000003a0: 0bc3 64be 825b 0abe 79c5 1ebd 312a 88bd
000003b0: e08f 5dbe a648 d0bc b3da bfbc 7ce7 81bd
000003c0: 017e eabd e757 8abd e1ae 13bf 1cbb 12be
000003d0: 28c2 73bd 9bc7 07bf 836c 24bd 5bfd e7be
000003e0: b159 0ebe 3f91 82bd b74b 34be 895b d7bd
000003f0: 18a5 10bd b49b 0bbf 8ab4 99be 8d48 edbc

fc2.weight f4 [300, 400]
0.05169733 0.07398004 0.011922115 0.06760735 0.062189456 0.055495318 -0.015063982 0.02506154
0.07584957 -0.016049605 -0.019437008 0.017144443 -0.02174863 0.21848638 0.021756276 -0.012965476
-0.12264391 0.039060883 0.26068905 0.024229676 -0.050027493 0.017504118 0.009234593 -0.123540245
0.044304408 0.024112962 -0.008548788 0.023411099 0.02206542 -0.03327854 -0.022479407 0.08680012
0.0059487633 -0.023730073 0.13816419 0.04883182 -0.014057828 0.20456596 -0.04091639 0.024877502
-0.09902766 -0.039552733 0.04236672 0.19617882 0.14025195 -0.066437244 0.012116001 0.0414104
-0.055535447 -0.12159085 0.10253903 0.07174125 -0.023786953 -0.16208598 -0.033453796 0.35111448
0.033683382 -0.1586245 -0.07694658 -0.04044244 0.0727842 -0.005183959 0.20700693 -0.02893452
0.2229111 0.015268287 -0.021586474 -0.019464443 -0.18372835 -0.07689685 -0.07569042 -0.035603363
0.009896505 -0.032634623 -0.023769068 -0.01299773 0.06105374 -0.06547804 0.1504439 0.024563054
-0.008288309 0.00044030676 -0.017458182 0.25285208 -0.050330207 -0.08844973 -0.029479994 -0.051302012
0.025215248 -0.07545081 0.04375 -0.009995416 0.0603018 0.057122026 -0.08105149 -0.032179818
-0.029593453 0.09033327 -0.013764218 -0.1306121 -0.045836672 0.069856316 -0.11471158 0.024370003
-0.018362414 -0.10938461 -0.07047216 -0.119962215 -0.07652601 0.10259135 -0.14802405 0.072013065
-0.042863533 0.10307187 0.0039968523 -0.11723934 -0.057070356 -0.0479081 0.19652799 -0.042396087
-0.06930746 -0.002001135 -0.015476908 -0.044292603 0.112563655 -0.12123771 -0.058285404 0.059933342
-0.019032866 -0.05474875 0.0034244377 -0.030622 0.009708873 -0.10671116 0.020874042 0.03877676
0.014187338 0.0035963103 -0.016830685 0.16467457 -0.11162939 0.18153745 -0.11986067 0.044334993
-0.0075902413 -0.00905336 -0.07579011 0.026969336 -0.02144457 -0.023312153 -0.008544295 0.12882419
0.03534022 -0.048766375 -0.031633195 -0.021632597 -0.0026834407 -0.06007077 0.047527876 0.008520669
-0.041986085 -0.26913506 0.04773061 0.04033038 0.019836286 -0.06546789 -0.1075216 -0.37403512
-0.18905537 -0.023718849 -0.056509808 0.07847533 0.061072715 0.003498891 0.03760823 -0.006397136
0.009343812 0.013810466 0.058760583 0.03276114 0.021613425 -0.097824484 0.005403006 0.0019077236
0.032856233 -0.09896334 0.038081624 0.01781964 0.019887023 -0.0038838633 0.11340682 -0.124215595
-0.03555239 0.046522886 -0.045378502 0.045457248 -0.100721575 -0.045300346 -0.010471417 0.02027836
0.07779708 -0.08674673 -0.010178617 -0.02903124 -0.1272236 -0.0015535078 0.07286698 -0.24592204
-0.033836253 0.023366954 0.024108492 -0.01655274 0.07101406 0.10620529 -0.17281103 -0.02302182
-0.13478988 -0.102583885 0.046449903 -0.0069178515 0.010157031 -0.07079214 -0.056437105 -0.0028800983
-0.07118293 -0.012286849 0.027270589 0.057465512 0.07204965 -0.0973822 0.26922226 -1.3553424e-05
0.019087402 0.3581887 -0.07060876 0.103621066 -0.009957562 -0.0022120753 0.045581847 -0.012128844
0.0041406294 -0.17427796 -0.026070671 0.091412336 0.18240388 0.03238034 -0.03392462 0.037650567
-0.027555255 -0.15833654 0.015945489 0.07070442 0.0240209 -0.0416346 -0.05792207 -0.0288723
00000000: 94c0 533d d982 973d fa54 433c b975 8a3d
00000010: 5fba 7e3d 0f4f 633d ecce 76bc dc4d cd3c
00000020: 0557 9b3d 767a 83bc 5c3a 9fbc 8172 8c3c
00000030: 2f2a b2bc e5ba 5f3e 383a b23c 266d 54bc
00000040: bb2c fbbd 4efe 1f3d 0979 853e 507d c63c
00000050: a1e9 4cbd cc64 8f3c b14c 173c ab02 fdbd
00000060: 8a78 353d 8c88 c53c 3710 0cbc a2c8 bf3c
00000070: 8ac2 b43c 144f 08bd bc26 b8bc 43c4 b13d
00000080: d8ed c23b 9265 c2bc ea7a 0d3e e003 483d
00000090: ce52 66bc bd79 513e f297 27bd e7cb cb3c
000000a0: 04cf cabd 0c02 22bd ba88 2d3d 1ae3 483e
000000b0: 359e 0f3e 4010 88bd 3182 463c f49d 293d
000000c0: 2379 63bd a004 f9bd fcff d13d 14ed 923d
000000d0: dbdc c2bc def9 25be d906 09bd 47c5 b33e
000000e0: 96f7 093d 766e 22be 2b96 9dbd f9a6 25bd
000000f0: e20f 953d 33de a9bb a0f9 533e 1608 edbc
00000100: cf42 643e d627 7a3c 1ed6 b0bc e573 9fbc
00000110: 4923 3cbe 187c 9dbd 9403 9bbd d5d4 11bd
00000120: f324 223c e2ab 05bd 59b7 c2bc 6ef4 54bc
00000130: 7d13 7a3d 5a19 86bd f70d 1a3e 7538 c93c
00000140: b0cb 07bc f9d8 e639 7604 8fbc d475 813e
00000150: 0c27 4ebd 2225 b5bd 0780 f1bc 0f22 52bd
00000160: 3590 ce3c f485 9abd 3333 333d d0c3 23bc
00000170: 05ff 763d c9f8 693d 53fe a5bd fcce 03bd
00000180: f86d f2bc a600 b93d 5183 61bc 2ebf 05be
00000190: 3cbf 3bbd d410 8f3d e8ed eabd 9aa3 c73c
000001a0: c66c 96bc 0a05 e0bd b553 90bd c0ae f5bd
000001b0: abb9 9cbd 6a1b d23d 9e93 17be 967b 933d
000001c0: ac91 2fbd 5817 d33d 07f8 823b 2e1b f0bd
000001d0: 9bc2 69bd 493b 44bd a23e 493e 85a7 2dbd
000001e0: 12f1 8dbd 7925 03bb db92 7dbc 296c 35bd
000001f0: c687 e63d 7a4b f8bd adbc 6ebd aa7c 753d
00000200: d0ea 9bbc 3a40 60bd 886c 603b fdda fabc
00000210: f711 1f3c 618b dabd 0a00 ab3c 61d4 1e3d
00000220: 0272 683c 13b0 6b3b 81e0 89bc 73a0 283e
00000230: f39d e4bd f4e4 393e 8379 f5bd 9c98 353d
00000240: 8fb7 f8bb 8b54 14bc d837 9bbd ccee dc3c
00000250: 86ac afbc 21f9 bebc 5ffd 0bbc 7dea 033e
00000260: e8c0 103d 40bf 47bd cf91 01bd d836 b1bc
00000270: aadc 2fbb c50c 76bd 97ac 423d 479a 0b3c
00000280: 9af9 2bbd 12cc 89be 2c81 433d 7831 253d
00000290: b57f a23c 0714 86bd 4934 dcbd 8881 bfbe
000002a0: bb97 41be 084e c2bc d476 67bd acb7 a03d
000002b0: 6227 7a3d a64d 653b 160b 1a3d 119f d1bb
000002c0: ca16 193c 4b45 623c f0ae 703d 8c30 063d
000002d0: a30e b13c 3458 c8bd b30b b13b 950c fa3a
000002e0: 4294 063d 4bad cabd 7afb 1b3d 7efa 913c
000002f0: 1cea a23c 6a88 7ebb d641 e83d bf64 febd
00000300: 629f 11bd c88e 3e3d cfde 39bd 6131 3a3d
00000310: 1d47 cebd db8c 39bd 4e90 2bbc ce1e a63c
00000320: 1354 9f3d 45a8 b1bd 37c4 26bc ecd2 edbc
00000330: e746 02be 129f cbba 493b 953d fdd2 7bbe
00000340: e297 0abd 0e6c bf3c 2c7f c53c 9d99 87bc
00000350: d26f 913d 2982 d93d 60f5 30be 4198 bcbc
00000360: 5c06 0abe 8017 d2bd 4142 3e3d 25af e2bb
00000370: ad69 263c 78fb 90bd 982a 67bd 08c0 3cbb
00000380: 5bc8 91bd c84e 49bc 9266 df3c f560 6b3d
00000390: c48e 933d 5270 c7bd 80d7 893e 8363 63b7
000003a0: 2f5d 9c3c 8264 b73e 539b 90bd 4837 d43d
000003b0: 0b25 23bc 77f8 10bb 08b4 3a3d 0fb8 46bc
000003c0: 1eae 873b ec75 32be 2992 d5bc 6436 bb3d
000003d0: 15c8 3a3e 3fa1 043d 8bf4 0abd 7b37 1a3d
000003e0: 8fbb e1bc f922 22be 1da0 823c 7bcd 903d
000003f0: 7ac7 c43c 0b89 2abd b13f 6dbd 9a85 ecbc

fc2.bias f4 [300]
0.032316208 -0.019212928 -0.03644237 -0.047613867 -0.06407594 0.0014888305 -0.014460279 -0.031923693
-0.040576816 0.027562758 -0.017824536 0.029076202 0.01868502 0.014549302 0.029401854 -0.0044672415
0.02129744 -0.044077292 0.043375187 -0.042138312 0.0343088 0.019275086 -0.02333017 0.0014385208
0.028393315 -0.03808384 -0.009167944 0.036444597 -0.04675936 -0.0010910961 -0.017554026 0.035944484
0.008916412 0.010719268 0.01265416 0.027972372 -0.018979913 -0.036903363 0.044211768 0.023613099
-0.048488043 -0.022716096 -0.016257843 -0.040197514 0.011634805 0.004074015 0.03480811 0.039205223
0.044456203 0.056251936 -0.017015554 0.027350966 0.03207817 0.014678476 -0.02923981 -0.037591744
-0.04319205 -0.052081957 0.047786903 -0.02929107 0.0149041405 -0.020370144 -0.033642154 0.046118774
-0.04314479 -0.043972824 -0.035501026 0.0007839145 -0.022306666 0.0493955 -0.026436126 0.020329097
0.048305947 0.03215189 0.041316785 0.025452815 0.02392399 0.041555595 -0.03173881 -0.06335162
-0.0013149341 -0.038302515 -0.010007596 0.059493925 0.0503406 0.03512408 0.03844643 0.05236856
0.039287746 0.018942863 0.0024140712 0.012780308 0.031396877 0.023565141 0.022890702 0.0037197853
0.018681986 -0.014964618 -0.04133488 0.034193944 -0.052777566 0.0130694965 0.019357868 0.03704101
-0.042151034 -0.030067893 -0.052872397 -0.033368587 -0.015813192 0.029921211 0.03380344 0.06441618
-0.043677483 0.009475003 0.017014725 -0.02746219 0.022226866 0.020568563 0.031089325 -0.05702929
-0.034439743 -0.023269324 -0.022690408 -0.030371295 -0.048229583 0.022985967 -0.04368747 -0.013705423
0.035680324 -0.036391016 0.053544585 -0.020535966 0.034480285 0.033402935 -0.016358761 0.03637514
0.014894481 -0.042110883 0.03011641 0.025855174 0.025663564 0.05405564 0.0473552 -0.0062103
0.009001418 -0.037164826 -0.03628778 0.016775763 0.02358657 -0.04961931 0.049873564 -0.033545744
0.0061063487 -0.0537567 0.04635299 0.016451253 0.039467324 0.019569064 -0.057028156 -0.002328338
-0.025858568 0.000121040815 -0.020979552 -0.00664964 -0.0050176797 -0.04201318 0.03623588 0.026792482
0.023397123 0.04527148 -0.03390259 0.034543134 -0.0040892316 -0.04191455 -0.020413078 0.023864312
0.001458644 -0.01598067 0.0037189801 -0.019406812 -0.0181597 0.0060672527 -0.034703262 -0.0125004975
0.023895836 -0.010950388 -0.009028234 0.008594902 0.054738168 0.018888673 0.018091382 -0.025669573
0.019141573 -0.011257813 0.012619995 0.0600134 0.0376696 -0.044093255 0.032147374 -0.03942051
0.036268648 -0.025780791 0.02850679 0.06599034 -0.033698473 0.037663113 -0.022420142 -0.051232345
-0.018100256 -0.021285154 -0.01903025 -0.007129503 -0.031586744 0.0068576443 0.00060555787 -0.042719577
0.01633669 -0.022182591 -0.019066606 0.037308 -0.007944324 -0.025089553 0.023670878 0.0010837222
-0.03842492 -0.049039964 0.033855874 0.05152733 -0.014258723 0.053326864 -0.043407254 -0.011430632
-0.032941036 0.047803745 0.0302564 0.031480942 -0.06453392 -0.023580525 0.014749864 -0.035116713
0.013075015 0.030573959 -0.01619083 -0.05118296 -0.04021825 -0.03611536 -0.04820204 0.029933583
-0.048527196 0.04665772 0.0036425584 -0.008088721 -0.02653718 -0.022903152 -0.024526715 -0.012510525
00000000: 005e 043d 6e64 9dbc 9844 15bd c206 43bd
00000010: 3f3a 83bd dd24 c33a ceea 6cbc 6bc2 02bd
00000020: e033 26bd 4bcb e13c c304 92bc 3731 ee3c
00000030: 5411 993c 3260 6e3c 28dc f03c f061 92bb
00000040: f877 ae3c 648a 34bd 2eaa 313d 3999 2cbd
00000050: 6287 0c3d c9e6 9d3c ea1e bfbc c08c bc3a
00000060: 1999 e83c cdfd 1bbd 2535 16bc ee46 153d
00000070: be86 3fbd 1c03 8fba 76cd 8fbc 863a 133d
00000080: 2416 123c de9f 2f3c 6553 4f3c 5126 e53c
00000090: c37b 9bbc fb27 17bd 6617 353d 4270 c13c
000000a0: 669b 46bd 1b17 babc 2b2f 85bc 26a6 24bd
000000b0: e99f 3e3c 517f 853b f392 0e3d a895 203d
000000c0: b517 363d 6e68 663d 3464 8bbc 220f e03c
000000d0: 6664 033d fe7d 703c 5388 efbc cdf9 19bd
000000e0: 26ea 30bd e453 55bd 33bc 433d d3f3 efbc
000000f0: 7f30 743c 4adf a6bc 5bcc 09bd 0ae7 3c3d
00000100: 97b8 30bd d91c 34bd 8669 11bd 9d7f 4d3a
00000110: 78bc b6bc f052 4a3d 9390 d8bc 3589 a63c
00000120: 75dc 453d b3b1 033d ca3b 293d 6c82 d03c
00000130: 3efc c33c 3336 2a3d 8e00 02bd 7fbe 81bd
00000140: de59 acba 19e3 1cbd e6f6 23bc e7af 733d
00000150: f231 4e3d 44de 0f3d 017a 1d3d 6a80 563d
00000160: 30ec 203d 102e 9b3c 6535 1e3b 7f64 513c
00000170: 039a 003d af0b c13c 4885 bb3c a4c7 733b
00000180: f70a 993c 282e 75bc c34e 29bd f30e 0c3d
00000190: 4a2d 58bd 7121 563c 6494 9e3c 50b8 173d
000001a0: 90a6 2cbd f150 f6bc ba90 58bd 80ad 08bd
000001b0: ab8a 81bc 541d f53c 7a75 0a3d a1ec 833d
000001c0: 29e7 32bd 0b3d 1b3c 7762 8b3c 63f8 e0bc
000001d0: 1e15 b63c 677f a83c 0aaf fe3c 8b97 69bd
000001e0: b010 0dbd 4f9f bebc 3ce1 b9bc 39cd f8bc
000001f0: 628c 45bd 114d bc3c a2f1 32bd b68c 60bc
00000200: 8825 123d bf0e 15bd 9151 5b3d 0b3b a8bc
00000210: 333b 0d3d 84d1 083d cf02 86bc 19fe 143d
00000220: fb07 743c 767c 2cbd b1b6 f63c 3bce d33c
00000230: 653c d23c 7269 5d3d 87f7 413d c67f cbbb
00000240: af7a 133c 253a 18bd 7fa2 14bd 536d 893c
00000250: 9f38 c13c 9e3d 4bbd 3948 4c3d 4367 09bd
00000260: c417 c83b fc2f 5cbd a2dc 3d3d c7c4 863c
00000270: 7da8 213d 4d4f a03c 5b96 69bd 0897 18bb
00000280: 59d5 d3bc 4bd7 fd38 4fdd abbc 39e5 d9bb
00000290: 596b a4bb 0316 2cbd 136c 143d e87b db3c
000002a0: 53ab bf3c 966e 393d 71dd 0abd 1a7d 0d3d
000002b0: f6fe 85bb 97ae 2bbd 5439 a7bc 177f c33c
000002c0: f92f bf3a e5e9 82bc 22ba 733b 09fb 9ebc
000002d0: a7c3 94bc cecf c63b 0225 0ebd e3ce 4cbc
000002e0: 33c1 c33c 4269 33bc 28eb 13bc a2d1 0c3c
000002f0: 2135 603d 6bbc 9a3c 6134 943c ff48 d2bc
00000300: cace 9c3c b172 38bc 18c4 4e3c 9cd0 753d
00000310: 704b 1a3d 219b 34bd f7ac 033d 6777 21bd
00000320: 6f8e 143d 3d32 d3bc 1287 e93c f225 873d
00000330: 6907 0abd a344 1a3d 72aa b7bc 02d9 51bd
00000340: fd46 94bc 345e aebc 54e5 9bbc 9b9e e9bb
00000350: 1a61 01bd 17b6 e03b 4dbe 1e3a b9fa 2ebd
00000360: 86d4 853c 44b8 b5bc 9231 9cbc 46d0 183d
00000370: e928 02bc 9b88 cdbc 6ee9 c13c af0b 8e3a
00000380: 7363 1dbd 21de 48bd 75ac 0a3d 520e 533d
00000390: 6b9d 69bc 456d 5a3d cecb 31bd 8c47 3bbc
000003a0: 2eed 06bd dccd 433d 45dc f73c 29f2 003d
000003b0: 5c2a 84bd f22b c1bc 6aa9 713c 8bd6 0fbd
000003c0: 9638 563c 3d76 fa3c a2a2 84bc 39a5 51bd
000003d0: e4bb 24bd b3ed 13bd 816f 45bd 4637 f53c
000003e0: 74c4 46bd 2a1c 3f3d fdb7 6e3b 8e86 04bc
000003f0: 8064 d9bc 649f bbbc 40ec c8bc f2f8 4cbc

bn2.weight f4 [300]
0.60123426 0.5109488 0.58749074 0.60759515 0.8697463 0.86568934 0.4786447 0.6505178
1.0220133 0.53386533 0.55935115 0.9244583 0.5181544 0.6009201 0.7261412 0.52174073
0.6772795 0.5533211 0.6953058 0.49802154 0.6548977 0.6214023 0.70147157 0.75936246
0.72384703 0.59663534 0.8069988 0.7318373 0.80628943 0.616474 0.5803462 1.066892
0.5895186 1.0683981 0.6628074 0.7122872 0.38068843 0.6204615 0.56554145 0.5839339
0.81220764 0.48176062 0.6756834 0.64285964 1.1116829 0.484567 0.5831717 0.43576458
0.6098456 1.0109644 0.4345227 0.5840068 0.45315972 0.5787566 0.8061378 0.96991646
0.65058637 0.6301275 0.480455 1.031201 0.5373611 0.7148259 0.7540875 1.0288082
0.62797815 0.626673 0.46245447 0.5610766 1.0910796 0.66520333 0.57521594 0.66267145
0.94651955 0.65457666 0.64844304 0.92528665 0.7714337 0.6531543 0.7994411 1.0617125
0.91208357 0.6084131 0.49601594 0.70997363 0.7214282 0.36559108 0.6686651 0.5548656
1.1174166 0.7887903 0.47059062 0.6377536 0.6959479 0.8094452 0.4300181 0.5160606
0.540932 0.6265124 0.337632 0.59474766 0.68232137 0.596061 0.61139315 0.5589553
0.75478715 0.4980269 0.45464382 0.7033223 0.55196154 0.735932 0.5374978 0.5913336
0.96066445 0.9029481 0.6450046 0.95696676 0.5773062 0.5783205 0.5466969 0.72044885
0.65520144 0.67835575 0.49696785 0.62425065 0.9234054 0.72548294 0.7706273 1.026776
0.6894895 0.7936609 0.6943668 0.67800856 0.7445769 0.64046514 0.48574188 0.7191279
1.042761 0.7292698 0.7260418 0.86425203 0.42607242 0.9937838 0.6911879 0.809407
0.876702 0.58385855 0.9382383 0.5573926 0.6696153 0.97254765 0.85757893 0.7628806
0.90286845 0.5179639 0.5032721 0.43443146 0.64590114 0.42756775 0.49119344 0.69178504
0.76848406 0.5374449 0.99156636 0.6672966 1.069487 0.6459825 0.83413494 0.64113474
0.49711373 0.6960108 0.6213704 0.58695424 0.5266149 0.7374035 0.68243927 0.74750924
0.58781517 0.8128317 0.52955323 0.52403593 1.0335841 0.94982135 0.67105514 0.8458799
0.7270578 0.76801884 0.7775986 0.9224506 0.56642705 0.96899766 0.88618594 0.6606402
0.78327227 0.54322267 0.9789377 0.7253057 0.54451793 0.9232377 0.8589917 0.84299105
0.55524784 0.5790692 0.49766484 0.56656736 0.6770814 0.56405145 0.5140963 0.51361346
0.50072664 0.7142447 0.85412264 0.9963562 0.752784 0.4170029 1.0173959 0.52219164
0.7733639 0.68381697 0.54865056 0.8566303 0.75370324 0.59434026 0.571802 0.5535847
0.50456214 0.7054799 0.7511207 0.71340877 0.5812289 0.6436743 0.61625123 0.43515083
0.74461055 0.7892408 0.65864015 0.6535633 0.41510358 0.71542263 0.78610104 0.65754557
0.986656 0.6712442 0.59039074 1.0078638 0.9290967 0.69340765 0.78435683 0.5308572
0.7680817 0.73043436 0.7144384 1.0286683 1.053273 0.49594283 0.98555344 0.81424975
00000000: 7dea 193f 8acd 023f cb65 163f 5b8b 1b3f
00000010: b2a7 5e3f d19d 5d3f eb10 f53e 5688 263f
00000020: 55d1 823f 66ab 083f a331 0f3f 4da9 6c3f
00000030: c4a5 043f e6d5 193f 64e4 393f cd90 053f
00000040: 3062 2d3f 74a6 0d3f 90ff 313f aefc fe3e
00000050: 60a7 273f 3914 1f3f a493 333f 9465 423f
00000060: 0a4e 393f 18bd 183f 7997 4e3f b059 3b3f
00000070: fc68 4e3f 3dd1 1d3f 9291 143f eb8f 883f
00000080: b1ea 163f 45c1 883f bfad 293f 7458 363f
00000090: 98e9 c23e 91d6 1e3f 53c7 103f b17c 153f
000000a0: d7ec 4f3f 54a9 f63e 96f9 2c3f 7392 243f
000000b0: a04b 8e3f 2a19 f83e be4a 153f 891c df3e
000000c0: d71e 1c3f 4867 813f c279 de3e 7881 153f
000000d0: 8d04 e83e 6429 143f 0c5f 4e3f 724c 783f
000000e0: d48c 263f 0950 213f 33fe f53e 65fe 833f
000000f0: 7f90 093f d5fe 363f e10b 413f fdaf 833f
00000100: 2dc3 203f a46d 203f d5c6 ec3e b7a2 0f3f
00000110: 7fa8 8b3f c44a 2a3f 5a41 133f d6a4 293f
00000120: 1b4f 723f 5692 273f 5d00 263f 96df 6c3f
00000130: ae7c 453f 1f35 273f 2ca8 4c3f 32e6 873f
00000140: 4f7e 693f f6c0 1b3f cdf5 fd3e d5c0 353f
00000150: 85af 383f c12e bb3e a32d 2b3f ac0b 0e3f
00000160: 8207 8f3f 29ee 493f 41f1 f03e d243 233f
00000170: a429 323f cd37 4f3f 552b dc3e 8c1c 043f
00000180: 857a 0a3f 1e63 203f 1ade ac3e 6241 183f
00000190: 9dac 2e3f 7497 183f 4384 1c3f b217 0f3f
000001a0: bb39 413f 62fd fe3e 13c7 e83e ee0c 343f
000001b0: 5a4d 0d3f 0a66 3c3f 7599 093f a461 173f
000001c0: 1bee 753f 9b27 673f 051f 253f c6fb 743f
000001d0: 57ca 133f d00c 143f 54f4 0b3f 566f 383f
000001e0: 48bb 273f b9a8 2d3f 9272 fe3e e4ce 1f3f
000001f0: 4c64 6c3f 40b9 393f d547 453f 656d 833f
00000200: 6282 303f 5c2d 4b3f 06c2 313f f891 2d3f
00000210: 979c 3e3f 86f5 233f 29b3 f83e c418 383f
00000220: 3179 853f 6db1 3a3f e0dd 393f 9f3f 5d3f
00000230: 2a26 da3e 9d68 7e3f b1f1 303f 4c35 4f3f
00000240: 8b6f 603f c177 153f 6330 703f 48b1 0e3f
00000250: e96b 2b3f e2f8 783f 4b8a 5b3f 254c 433f
00000260: 6322 673f 4899 043f 71d6 003f cd6d de3e
00000270: c759 253f 29ea da3e b57d fb3e d318 313f
00000280: 5fbb 443f fd95 093f 4bd7 7d3f f3d3 2a3f
00000290: f3e4 883f 1c5f 253f de89 553f 6821 243f
000002a0: b185 fe3e c42d 323f 2112 1f3f a242 163f
000002b0: 3cd0 063f 7ac6 3c3f 57b4 2e3f c45c 3f3f
000002c0: 0e7b 163f bd15 503f cd90 073f 3827 063f
000002d0: 7c4c 843f 7e27 733f 45ca 2b3f 968b 583f
000002e0: 7620 3a3f e29c 443f b410 473f b925 6c3f
000002f0: 5d01 113f 3b10 783f 15dd 623f b71f 293f
00000300: 8884 483f a410 0b3f a99b 7a3f a2ad 393f
00000310: 8765 0b3f 4e59 6c3f e1e6 5b3f 43ce 573f
00000320: b924 0e3f e13d 143f edcd fe3e 8f0a 113f
00000330: 3555 2d3f ad65 103f d19b 033f 2c7c 033f
00000340: 9f2f 003f bed8 363f c8a7 5a3f 3311 7f3f
00000350: 74b6 403f 6781 d53e 073a 823f 5aae 053f
00000360: 2dfb 453f a10e 2f3f 5d74 0c3f 204c 5b3f
00000370: b2f2 403f af26 183f 9e61 123f bab7 0d3f
00000380: fc2a 013f 559a 343f 7249 403f f5a1 363f
00000390: 6bcb 143f d7c7 243f a4c2 1d3f 17cc de3e
000003a0: cc9e 3e3f af0b 4a3f a49c 283f ed4f 273f
000003b0: 7588 d43e f025 373f eb3d 493f e854 283f
000003c0: 7d95 7c3f a9d6 2b3f d923 173f ae01 813f
000003d0: 48d9 6d3f 2a83 313f 9ccb 483f 42e6 073f
000003e0: 01a1 443f bffd 3a3f 6fe5 363f 67ab 833f
000003f0: a6d1 863f 38ec fd3e 3b4d 7c3f ac72 503f

bn2.bias f4 [300]
-0.077881776 -0.14540762 0.27376026 0.17519568 0.18696292 -0.22684363 0.25119048 -0.031119972
-0.041654848 0.2945898 0.2982554 -0.21160765 0.13599658 0.21600042 -0.2254376 0.08276045
0.13034377 -0.09690936 0.16780238 0.053675503 0.13215457 0.24438947 -0.22680205 -0.20191775
-0.10638456 0.2441218 -0.14898172 0.19912833 0.24622855 -0.23309723 -0.33615252 -0.0017630495
0.11328595 0.23996131 0.13589706 0.22065514 -0.40010738 -0.16073547 -0.24535327 -0.17183857
0.2547631 0.21911277 -0.08420789 -0.37942988 0.017546942 -0.17105198 0.19383666 -0.17190035
-0.21604332 0.014691177 0.33106136 -0.16114347 -0.14013386 0.27980787 0.21736753 -0.11311111
-0.07767548 0.20699468 -0.16039796 -0.08465644 0.0534833 0.31849593 0.25448674 -0.083740115
0.22432643 0.19317709 0.3216703 0.26434517 0.012680326 -0.15935525 -0.082191035 0.25703076
0.21560636 -0.2294938 0.21511185 -0.13952275 -0.15295734 0.087752804 0.2510423 0.21809645
0.2090239 0.2337737 0.14062984 -0.1252118 -0.17123336 0.04353612 -0.23667471 0.06417374
0.22330047 0.067637905 -0.25676087 0.3285091 0.25153267 -0.13931486 0.19040263 -0.25708604
0.3357638 0.07347864 0.3845536 -0.23139432 0.054399643 -0.2554011 0.06531155 0.14277945
-0.28528646 -0.37486193 0.2649651 0.150824 0.32505172 -0.042377505 -0.329006 0.28315434
-0.07199242 0.099581376 -0.26954895 -0.17127402 -0.29169717 0.3974586 -0.15243354 -0.006416408
-0.22279021 0.19943604 0.4081326 0.25289804 -0.23244911 -0.14646365 0.24686846 -0.00953588
-0.06908739 -0.073744945 0.11694108 -0.14936209 -0.2059131 0.25894654 0.03388519 -0.31416607
-0.1338113 -0.09858633 0.07594013 -0.03040685 0.2922797 0.042587604 -0.19705842 -0.14506012
-0.24089 0.22816646 -0.16628784 0.19617894 -0.2412386 -0.02012523 -0.18237674 0.2446549
0.09399446 0.27036697 0.045638226 -0.03513367 0.04685864 -0.15667675 -0.34954545 0.061059434
-0.044752967 -0.24944997 -0.16047488 0.2204862 0.01563162 0.0895876 -0.16456799 0.24081463
0.40030533 -0.017084103 0.14633243 0.17314033 -0.242058 0.217824 0.21395028 0.13067633
-0.17075798 0.23549977 -0.14300735 -0.16960469 -0.20539735 0.21266352 -0.02814471 -0.06819365
-0.18911427 0.19707249 0.23160528 0.07680502 -0.1723193 -0.023646237 0.19413245 0.19843543
-0.088212326 -0.24305396 -0.21741082 0.13181815 0.3203852 -0.08985064 -0.12425428 0.07127192
0.2327774 0.25595236 0.26277545 -0.046007387 -0.25183475 -0.29171798 -0.15488534 -0.23476027
0.30029178 0.29141432 -0.090357654 0.095982336 0.15890703 0.13098086 -0.14350909 0.22680567
0.21501029 -0.27168155 -0.24016307 0.03775185 -0.018733023 -0.03714678 -0.22826949 0.15718335
-0.3409822 0.07725727 -0.24388397 -0.09714833 0.2879537 0.19416586 0.0997978 0.07901473
-0.19930165 0.080244966 0.09906477 0.16727215 -0.040120065 0.25815797 -0.019575737 -0.29290655
-0.18185572 0.1363959 -0.22158726 0.008054334 0.0010053988 0.31516686 -0.11621256 0.31531927
-0.12692755 0.13522239 -0.2037278 0.20634581 0.19867682 -0.17107011 0.16346493 -0.17422327
00000000: 7b80 9fbd bce5 14be 4e2a 8c3e 7f66 333e
00000010: 3573 3f3e b249 68be 0a9c 803e 50ef febc
00000020: 469e 2abd 79d4 963e efb4 983e adaf 58be
00000030: b042 0b3e 372f 5d3e 1dd9 66be 507e a93d
00000040: d678 053e 6a78 c6bd 63d4 2b3e d8da 5b3d
00000050: 8753 073e 3c41 7a3e cc3e 68be 87c3 4ebe
00000060: 26e0 d9bd 11fb 793e aa8e 18be 4ce8 4b3e
00000070: 5623 7c3e 0ab1 6ebe 2f1c acbe 2016 e7ba
00000080: 7702 e83d 6bb8 753e 9928 0b3e 6cf3 613e
00000090: e0da ccbe d797 24be e33d 7bbe 73f6 2fbe
000000a0: 4f70 823e 195f 603e 3075 acbd a244 c2be
000000b0: 9bbe 8f3c 4028 2fbe 1e7d 463e a506 30be
000000c0: 763a 5dbe 43b3 703c e080 a93e cb02 25be
000000d0: 407f 0fbe fa42 8f3e 9895 5e3e cca6 e7bd
000000e0: 5214 9fbd 6af6 533e 5d3f 24be 5b60 adbd
000000f0: 4e11 5b3d e611 a33e 164c 823e f07f abbd
00000100: d4b5 653e 37d0 453e f8b1 a43e 4058 873e
00000110: 24c1 4f3c 062e 23be c653 a8bd 8999 833e
00000120: eac7 5c3e 6c00 6bbe 4846 5c3e 0ddf 0ebe
00000130: d9a0 1cbe beb7 b33d 9e88 803e ad54 5f3e
00000140: 5c0a 563e 5f62 6f3e 4501 103e 8637 00be
00000150: cc57 2fbe ee52 323d db5a 72be 866d 833d
00000160: e1a8 643e be85 8a3d 2976 83be 5832 a83e
00000170: e4c8 803e 8ea8 0ebe e8f8 423e c8a0 83be
00000180: 3ce9 ab3e f87b 963d 36e4 c43e a2f2 6cbe
00000190: 29d2 5e3d efc3 82be 10c2 853d c734 123e
000001a0: 1111 92be e7ed bfbe 81a9 873e 9b71 1a3e
000001b0: 2e6d a63e 0994 2dbd 7973 a8be 9bf9 903e
000001c0: c370 93bd 52f1 cb3d 5202 8abe 7562 2fbe
000001d0: 5559 95be b27f cb3e 8a17 1cbe bb40 d2bb
000001e0: 1e23 64be f638 4c3e c2f6 d03e da7b 813e
000001f0: 2407 6ebe 91fa 15be 16cb 7c3e 613c 1cbc
00000200: b17d 8dbd 9707 97bd ce7e ef3d 60f2 18be
00000210: e2da 52be a494 843e 32cb 0a3d 60da a0be
00000220: d405 09be a1e7 c9bd 8086 9b3d c917 f9bc
00000230: afa5 953e 5770 2e3d afc9 49be a48a 14be
00000240: deab 76be 78a4 693e 5c47 2abe 22e3 483e
00000250: 4007 77be abdd a4bc f8c0 3abe d086 7a3e
00000260: 2b80 c03d 8a6d 8a3e 26ef 3a3d 53e8 0fbd
00000270: d8ee 3f3d df6f 20be 9ff7 b2be 7519 7a3d
00000280: e34e 37bd d06f 7fbe 8753 24be 22c7 613e
00000290: e20d 803c b479 b73d 8384 28be 1c98 763e
000002a0: d2f4 cc3e f6f3 8bbc 2bd8 153e b34b 313e
000002b0: 0dde 77be 410d 5f3e c815 5b3e 04d0 053e
000002c0: 2edb 2ebe da26 713e 8570 12be daac 2dbe
000002d0: af53 52be 77c4 593e bc8f e6bc 1da9 8bbd
000002e0: 2ca7 41be 5fcd 493e ef29 6d3e f34b 9d3d
000002f0: 7874 30be c1b5 c1bc a8ca 463e a832 4b3e
00000300: aaa8 b4bd 23e3 78be f1a0 5ebe 56fb 063e
00000310: 8709 a43e 9d03 b8bd 0779 febd 03f7 913d
00000320: 335d 6e3e 300c 833e 818a 863e 3e72 3cbd
00000330: 7cf0 80be 0f5c 95be 439a 1ebe ff64 70be
00000340: d8bf 993e 4234 953e 6f0d b9bd 6392 c43d
00000350: 86b8 223e d91f 063e 0cf4 12be bf3f 683e
00000360: a82b 5c3e d819 8bbe 4fed 75be afa1 1a3d
00000370: ff75 99bc 3927 18bd 7abf 69be acf4 203e
00000380: 3895 aebe 0f39 9e3d b8bc 79be b4f5 c6bd
00000390: ab6e 933e 6ad3 463e ca62 cc3d 7ad2 a13d
000003a0: bb15 4cbe 7957 a43d 78e2 ca3d 6449 2b3e
000003b0: f054 24bd 482d 843e 4c5d a0bc d9f7 95be
000003c0: 6338 3abe 5eab 0b3e c5e7 62be 53f6 033c
000003d0: 96c7 833a 8d5d a13e da00 eebd 8771 a13e
000003e0: 4cf9 01be bd77 0a3e 059e 50be 514c 533e
000003f0: f071 4b3e 012d 2fbe 5a63 273e 9667 32be
