experiments/LunarLanderContinuous-v2/luna_v2/saves/target_q_network.pth (torch_old, 507906 bytes, 11 tensors)

fc1.weight f4 [400, 8]
0	0xbec6caaf	-0.3882651
1	0xbe299c9c	-0.16563648
2	0xbf10c17d	-0.5654524
3	0x3a9bc38e	0.0011883841
4	0x3ebb9afb	0.36641678
5	0xbd4d5401	-0.05012894
6	0x3e97ce89	0.2964976
7	0x3d9b693c	0.07588431
8	0x3cf40c41	0.029791
9	0x3e3b0aa1	0.18265773
10	0x3e2cd2c0	0.1687727
11	0x3e30d416	0.17268404
12	0x3f529fc4	0.82275033
13	0xbecaa7cc	-0.39581144
14	0x3d90e981	0.07075787
15	0x3e04a0bb	0.12951939
16	0x3e98b95c	0.29828918
17	0x3e855b80	0.2604637
18	0xbf0e706d	-0.556403
19	0xbee343d6	-0.44387692
20	0x3db84d0e	0.08999072
21	0xbf103c10	-0.5634165
22	0x3f247645	0.64242965
23	0xbd8db6e5	-0.0691965
24	0x3dfa14e4	0.12211016
25	0x3ec08777	0.3760335
26	0xbf241f9f	-0.6411075
27	0x3e506d10	0.20354104
28	0x3e366ce6	0.17814979
29	0xbeb8bd37	-0.3608186
30	0x3eb7812c	0.35840738
31	0x3edcfafe	0.43160242
32	0x3b32de5b	0.0027293179
33	0xbf3f57a4	-0.74743104
34	0xbd88f4ab	-0.06687292
35	0x3efb0b65	0.4903213
36	0x3f0a3454	0.53986096
37	0xbeed5924	-0.4635707
38	0xbe204cd3	-0.15654306
39	0x3ebef885	0.3729898
40	0xbc8f2cd0	-0.017477423
41	0x3e3699dc	0.1783213
42	0x3f53350b	0.8250281
43	0x3d00fb6f	0.031489786
44	0x3eab6514	0.33475554
45	0x3cbfab89	0.023397224
46	0xbe1302d7	-0.14356552
47	0x3e4605f2	0.19338205
48	0x3c94eab5	0.018178323
49	0x3ea569b4	0.32307208
50	0xbee51806	-0.4474489
51	0xbf34639e	-0.70464504
52	0xbf1f6363	-0.6226103
53	0x3ec109bc	0.3770274
54	0x3ee87818	0.45404124
55	0x3e8f5853	0.27997074
56	0xbe76a796	-0.24087366
57	0xbee5f109	-0.44910458
58	0x3bd621c8	0.0065347888
59	0xbe8867c6	-0.26641673
60	0x3f4e666a	0.8062502
61	0xbf3525cb	-0.7076079
62	0x3e4cec4c	0.20012015
63	0xbd843421	-0.06455255
64	0xbe315a46	-0.17319593
65	0x3e36d8f7	0.17856203
66	0xbdb35c6d	-0.08757863
67	0xbf2d3e00	-0.6767273
68	0xbebffd6a	-0.37498027
69	0x3ef89e01	0.48558047
70	0x3f0c2eb0	0.5475874
71	0x3e32d759	0.17464961
72	0xbeb8a8b0	-0.36066198
73	0x3d99dcf2	0.07512845
74	0xbe401073	-0.18756275
75	0xbe876319	-0.26442793
76	0xbf4da060	-0.8032284
77	0x3d16a7bc	0.036781058
78	0x3eaf6ec2	0.3426419
79	0x3e21cd90	0.15801072
80	0xbd40cce3	-0.047070395
81	0x3e9cda7c	0.3063544
82	0xbda0d74b	-0.07853564
83	0xbefeb89e	-0.49750227
84	0x3e02a452	0.12757996
85	0x3f4f63fd	0.81011945
86	0x3a335140	0.00068404153
87	0x3c80d5b0	0.015726894
88	0x3ebc0dad	0.36729184
89	0xbf32c34a	-0.6982924
90	0x3d2bac06	0.0419121
91	0x3f3792e0	0.7170849
92	0xba74838a	-0.0009327462
93	0xbd9671ff	-0.07345962
94	0x3e8f41ad	0.27979794
95	0x3dc14b2c	0.09438166
96	0xbe88cf32	-0.26720577
97	0x3e73342c	0.2375037
98	0x3ddb6cb8	0.10714096
99	0xbc9606be	-0.018313762
100	0xbf27d756	-0.6556295
101	0x3f160825	0.5860618
102	0x3e9ac1e6	0.30226058
103	0x3dbbeac6	0.09175639
104	0xbe8a5555	-0.27018228
105	0x3eade345	0.33962455
106	0xbeb99b18	-0.3625114
107	0x3f31b896	0.6942228
108	0x3e915f6f	0.28393123
109	0x3e9314d5	0.2872683
110	0x3c659121	0.014011652
111	0x3d99e592	0.0751449
112	0xbe0eabbe	-0.13932702
113	0xbc8fe8fe	-0.017567154
114	0x3e1dbd9b	0.1540436
115	0x3d557b10	0.052119315
116	0x3ef04de4	0.46934426
117	0x3e98699b	0.2976807
118	0x3e90e9ca	0.28303367
119	0xbbd4a0c3	-0.006488891
120	0xbc7926a8	-0.01520697
121	0xbef91399	-0.48647764
122	0x3eb9f314	0.36318266
123	0x3d0d802a	0.034546055
124	0xbee1444f	-0.43997428
125	0x3f12bf98	0.573236
126	0x3ee7f60d	0.4530491
127	0xbe1df327	-0.15424787
128	0x3e77f500	0.24214554
129	0x3ee1561e	0.44011015
130	0xbcd14c51	-0.025549086
131	0xbecf0a09	-0.40437344
132	0x3d0b7915	0.03405102
133	0x3e2ff352	0.17182663
134	0x3f1e27f5	0.6177972
135	0x3eba5788	0.36394906
136	0xbf1e3b7c	-0.61809516
137	0xbe730478	-0.23732173
138	0x3dee61f1	0.116397746
139	0xbf4b638d	-0.7944878
140	0xbe83e70c	-0.25762212
141	0xbea6506c	-0.32483232
142	0xbcf63f05	-0.030059347
143	0xbcb40cba	-0.021978725
144	0xbeac1fe5	-0.33618084
145	0x3eefe73b	0.46856102
146	0x3eca5fb0	0.3952613
147	0xbd92f022	-0.07174708
148	0xbf29174e	-0.66051185
149	0xbe8636b7	-0.2621362
150	0x3e54ee8a	0.2079412
151	0x3e8dff7c	0.27733982
152	0xbd90e6bb	-0.07075258
153	0xbdfd336f	-0.12363326
154	0xbc3cd344	-0.011524979
155	0xbf7c3e5a	-0.9853264
156	0x3de26b0d	0.110555746
157	0xbe9fdfac	-0.31225336
158	0x3e60e18f	0.21961044
159	0x3ead7150	0.33875513
160	0xbf16b923	-0.58876246
161	0x3e73158d	0.2373869
162	0x3f319747	0.69371456
163	0xbeb47e2e	-0.35252517
164	0x3f0de30d	0.55424577
165	0x3e8b5718	0.27214885
166	0x3e69f952	0.22849014
167	0x3eda0fca	0.4259017
168	0xbde44a3d	-0.11146972
169	0x3e6530be	0.22381875
170	0x3e7f2f69	0.2492043
171	0x3f36aceb	0.713576
172	0x3f541829	0.82849365
173	0xbeec0ac5	-0.46101967
174	0xbde6c1c5	-0.11267427
175	0x3dc12310	0.09430516
176	0x3e629cc9	0.22130121
177	0x3e8341c6	0.2563612
178	0xbd9015ac	-0.070353836
179	0xbf39ca76	-0.72574556
180	0x3d7ee146	0.062226556
181	0xbdcf17b7	-0.10111945
182	0x3eed341c	0.4632882
183	0x3eec8e7a	0.4620245
184	0x3eec8851	0.4619775
185	0x3e06eb76	0.13175759
186	0xbe07e48a	-0.13270774
187	0xbe4b34d3	-0.1984437
188	0xbda75e05	-0.0817223
189	0x3f1a09d4	0.60171247
190	0x3f169466	0.5882019
191	0xbea89cee	-0.32932228
192	0x3f164c86	0.58710515
193	0xbaa2fc9e	-0.0012434905
194	0x3e7c83b1	0.24659611
195	0x3c1c6d5b	0.009547557
196	0xbe392693	-0.18081121
197	0x3eddc389	0.43313244
198	0x3e69c179	0.2282771
199	0x3d825295	0.063634075
200	0xbe535d41	-0.20641042
201	0x3e96deea	0.29466945
202	0xbe9f8adf	-0.31160638
203	0xbf1fe467	-0.6245789
204	0xbeff852f	-0.499063
205	0xbe3343af	-0.17506288
206	0x3e89b82d	0.26898327
207	0xbe80d5bd	-0.2516307
208	0x3b59c28a	0.0033227527
209	0x3e7afece	0.24511263
210	0xbe39b746	-0.1813632
211	0xbf00b8e0	-0.50282097
212	0x3c9d049d	0.019167239
213	0x3f02c4c9	0.5108152
214	0x3efa9e54	0.4894892
215	0x3ed0fe06	0.40818805
216	0xbe6bf186	-0.23041353
217	0x3ea17eb6	0.31541985
218	0xbde0f30f	-0.1098386
219	0x3f74bf65	0.95604545
220	0x3ee16d7d	0.44028845
221	0xbebbe511	-0.366982
222	0x3e8f7a5d	0.28023043
223	0x3c8f4594	0.017489232
224	0x3d84eb37	0.06490176
225	0x3dae909e	0.08523677
226	0x3d566fdb	0.052352767
227	0xbd7f11a5	-0.062272687
228	0xbdf9f8c5	-0.12205652
229	0x3dfb5f3a	0.122740224
230	0x3de1e942	0.110308185
231	0x3c12ceba	0.00896042
232	0x3d84148e	0.06449233
233	0xbf1497d8	-0.58044195
234	0xbe298f4a	-0.16558567
235	0xbf5b8bac	-0.8576
236	0xbe74d41e	-0.23909041
237	0xbf15694b	-0.5836379
238	0xbe1fefc4	-0.15618807
239	0x3e1ef949	0.15524782
240	0xbe5c4de8	-0.21514094
241	0xbf053a09	-0.5204168
242	0xbeb469e5	-0.3523704
243	0xbeccdbe7	-0.40011522
244	0x3e435e4d	0.19078942
245	0xbe2662dc	-0.1624865
246	0x3eef6fe9	0.46765068
247	0xbedc63b8	-0.4304483
248	0x3e3f2ce2	0.18669465
249	0xbe45e9bf	-0.19327448
250	0x3e94d098	0.29065394
251	0x3ef73be7	0.4828789
252	0xbf046bce	-0.51726997
253	0xbe37bce0	-0.17943144
254	0x3e94bf5e	0.29052252
255	0x3d02885c	0.031868324

fc1.bias f4 [400]
0	0xbc97d189	-0.018532531
1	0xbe48f586	-0.1962491
2	0x3ec0c420	0.37649632
3	0x3cdf799b	0.027279666
4	0xbc6822fe	-0.014168499
5	0x3ead5c2c	0.33859384
6	0x3e3e630e	0.18592474
7	0xbd544b8d	-0.051829863
8	0x3e8a1d77	0.26975605
9	0xbe83c9a2	-0.2573977
10	0x3d86827d	0.065678574
11	0x3ed1d890	0.40985537
12	0x3d9ebbb6	0.07750647
13	0x3d0546d0	0.032538235
14	0x3dd02f2c	0.10165247
15	0xbcdf87d7	-0.027286453
16	0x3ea76f1f	0.32701966
17	0xbe0cb337	-0.1374024
18	0xbe5bddf9	-0.21471395
19	0xbc9639d6	-0.018338125
20	0x3cc74474	0.024324633
21	0x3b5d68e1	0.0033784437
22	0x3eebf4ff	0.46085355
23	0xbe3ae8aa	-0.18252817
24	0xbec822e2	-0.39089113
25	0x3dd81e7f	0.10552692
26	0x3f0aba8b	0.5419089
27	0x3d9508e9	0.0727709
28	0x3f408588	0.7520375
29	0x3d8e09f4	0.06935492
30	0x3de138a1	0.10997129
31	0x3f098d0f	0.53730863
32	0x3d826ae1	0.06368042
33	0xbd9d6f50	-0.07687247
34	0xbeb60518	-0.3555076
35	0xbe2e92b2	-0.17048147
36	0x3f270d50	0.6525469
37	0xbe25fd25	-0.16209848
38	0x3e81d5d2	0.25358444
39	0x3db578c8	0.08860928
40	0x3e9e6b7d	0.30941382
41	0x3d2dff22	0.04247964
42	0x3de11c89	0.10991771
43	0xbe2a95f8	-0.16658771
44	0x3ea30af9	0.3184431
45	0x3e6fc9c7	0.23416816
46	0xbeb9bda4	-0.36277497
47	0xbd3f56a7	-0.046713497
48	0x3f2646b8	0.6495166
49	0x3ef08723	0.469781
50	0x3d1bd9f2	0.038049646
51	0x3db25dec	0.087093204
52	0x3e6b5b83	0.22984128
53	0x3e824fa4	0.25451386
54	0xba829897	-0.0009963688
55	0x3e2c7534	0.16841584
56	0xbbd3ddc2	-0.0064656446
57	0x3eb240aa	0.3481496
58	0x3e8d5614	0.27604735
59	0xbe70fda9	-0.23534264
60	0x3dcb5a8c	0.0992938
61	0x3f1f52f9	0.6223598
62	0x3d9ff778	0.07810873
63	0x3e1746e6	0.1477314
64	0x3e3dbae0	0.18528318
65	0x3f04080d	0.51574785
66	0x3bd174c8	0.0063920952
67	0x3ee66c00	0.45004272
68	0xbd959f19	-0.07305736
69	0xbd7cab2c	-0.06168668
70	0x3dc5f4b4	0.09665814
71	0x3f3610bb	0.7111928
72	0x3ebecf5d	0.3726758
73	0x3e303031	0.17205884
74	0x3f118bda	0.5685402
75	0x3d02821e	0.03186237
76	0x3e170f35	0.14751895
77	0x3eaea46f	0.34109828
78	0x3e3f42a2	0.18677762
79	0xbe6294ea	-0.22127119
80	0x3de7b092	0.11312975
81	0xbd87a15c	-0.06622574
82	0x3da83e32	0.08214988
83	0x3f1d44c0	0.6143303
84	0x3e7f73a8	0.24946463
85	0x3f1570a3	0.58374995
86	0x3e6ecc73	0.23320179
87	0x3e27f330	0.16401362
88	0x3e75cd2e	0.24004051
89	0x3e65b4b9	0.22432221
90	0x3eb90b8f	0.3614163
91	0xbe7292e6	-0.2368885
92	0xbe2f2c4c	-0.17106742
93	0x3def2b04	0.116781265
94	0xbd5de7d9	-0.054176185
95	0x3ed7842b	0.42093024
96	0x3e423c9f	0.18968438
97	0x3eadee9e	0.33971113
98	0x3e5f39a1	0.21799327
99	0xbdeb73cf	-0.11496698
100	0x3f0df739	0.55455357
101	0x3ed2f8c7	0.41205427
102	0xbcc4a7d7	-0.024005814
103	0x3e82adb8	0.25523162
104	0x3ed9c2c0	0.42531395
105	0x3f3d0c58	0.7384696
106	0xbd64acc8	-0.05582884
107	0xbe36c46a	-0.17848364
108	0x3ec1daf3	0.37862357
109	0x3ebe6039	0.37182787
110	0x3e2f2ed6	0.1710771
111	0x3e80a9bd	0.251295
112	0x3e641029	0.2227179
113	0x3eef81c1	0.46778682
114	0xbea5d277	-0.32387134
115	0x3ecbb6cf	0.3978791
116	0x3e8d694b	0.27619395
117	0x3da70eab	0.081570946
118	0xbe865755	-0.26238504
119	0x3e417738	0.18893135
120	0x3d933f19	0.07189769
121	0xbdd7260c	-0.10505304
122	0x3f2bb8a0	0.6707859
123	0xbd636beb	-0.05552284
124	0x3df74e79	0.12075514
125	0xbe67c46b	-0.22633521
126	0x3f210603	0.628998
127	0xbc8cf64e	-0.017207291
128	0x3f15066a	0.5821291
129	0x3f2c52d3	0.6731388
130	0xbeb86732	-0.36016232
131	0x3ea9b256	0.33143872
132	0xbe178214	-0.14795715
133	0x3ed1404c	0.40869367
134	0x3db38dae	0.08767258
135	0xbdf68462	-0.12036969
136	0x3ec1d0a3	0.3785449
137	0x3e2a6626	0.16640529
138	0x3e6bac2b	0.23014896
139	0xbe46ef16	-0.19427142
140	0x3e087eef	0.13329671
141	0x3df58b73	0.119894885
142	0xbdd97352	-0.10617699
143	0x3e3e81a4	0.18604141
144	0x3e47c66b	0.19509284
145	0xbd1e489d	-0.03864347
146	0x3e1f4945	0.15555294
147	0x3f1dbb25	0.61613685
148	0x3e7124f5	0.23549254
149	0x3f3382c5	0.70121413
150	0x3e46506c	0.19366616
151	0x3f1f5ce0	0.6225109
152	0x3ed2f89a	0.41205293
153	0xbd548883	-0.051888
154	0x3d72b4d0	0.059254467
155	0x3e17dca7	0.14830266
156	0xbe7bb50c	-0.24580783
157	0x3e740fb0	0.2383411
158	0x3f0667e9	0.52502304
159	0x3ee4e604	0.44706738
160	0x3f1b2944	0.6060984
161	0x3e633bd5	0.22190793
162	0xbe469b6f	-0.1939523
163	0x3ea19e5e	0.31566137
164	0xbe4c4341	-0.1994753
165	0x3dcf9949	0.10136659
166	0x3f13ae7d	0.57688123
167	0x3ebb1f5d	0.36547366
168	0xbd8454a1	-0.06461454
169	0xbe2e8cb7	-0.17045866
170	0xbd8341a3	-0.064090036
171	0xbda14316	-0.07874124
172	0xbd077d92	-0.033078738
173	0x3dc8f6e2	0.09812714
174	0x3ef4fe96	0.47850484
175	0x3f160fc4	0.58617806
176	0x3e7b378c	0.24532908
177	0x3e95ec18	0.29281688
178	0x3bd39532	0.0064569945
179	0x3eed6eba	0.4637354
180	0x3f02b3c5	0.51055557
181	0x3f1b31ff	0.60623163
182	0xb8fd6ef3	-0.00012084646
183	0x3eb47951	0.35248807
184	0xbe2e6319	-0.1702999
185	0x3d71c998	0.059030145
186	0x3f33aeb3	0.70188445
187	0x3eb44ced	0.3521494
188	0x3f0b2ef7	0.5436854
189	0x3ef46436	0.47732705
190	0xbe8000e2	-0.25000674
191	0x3f39d3dd	0.725889
192	0x3e914a77	0.28377125
193	0x3ee30bc3	0.4434491
194	0x3f3219f8	0.69570875
195	0xbec164fb	-0.37772354
196	0x3e6ec5a8	0.23317587
197	0x3c2ed267	0.010670281
198	0x3e612522	0.21986821
199	0xbcfe6450	-0.031053692
200	0x3dd8c8a5	0.10585145
201	0x3eef98a5	0.46796146
202	0xbed69dc3	-0.41917238
203	0x3e9a50ae	0.3013968
204	0x3ea37fa8	0.3193333
205	0x3eae2ae9	0.34017113
206	0xbf082088	-0.5317464
207	0xbe4f1c90	-0.2022574
208	0x3ee7f5b8	0.45304656
209	0xbd7c5442	-0.061603792
210	0x3e448c00	0.19194031
211	0x3e695baf	0.22788881
212	0x3daf9048	0.08572441
213	0xbd57b572	-0.052663274
214	0x3dc63a5d	0.09679101
215	0x3edeb7b1	0.4349952
216	0x3ec54f4d	0.38537064
217	0x3e857b6c	0.26070726
218	0xbe8e45bf	-0.27787587
219	0x3f05d2e3	0.5227491
220	0x3e93b26f	0.28847072
221	0x3f193123	0.598406
222	0x3f143df0	0.5790701
223	0xbe0fbe06	-0.14037332
224	0x3f043786	0.5164722
225	0x3ed7b9a0	0.42133808
226	0x3e1c06ff	0.15237044
227	0xbcc92a96	-0.02455644
228	0xbe7ef1d6	-0.2489694
229	0x3e9ba672	0.30400425
230	0x3d5984c0	0.053105116
231	0x3f11d29c	0.5696199
232	0x3f26b190	0.6511469
233	0x3e16dba0	0.14732218
234	0x3ec69a04	0.3878938
235	0x3d01f4fa	0.03172777
236	0xbd0bfa38	-0.034174174
237	0x3e81823d	0.25294676
238	0x3f23b8bf	0.63953775
239	0xbe096374	-0.13416845
240	0x3ef4d628	0.47819638
241	0x3d835ee6	0.06414585
242	0x3e7568f0	0.23965812
243	0xbe265737	-0.16244207
244	0x3e9f3b63	0.31099996
245	0xbd733b40	-0.059382677
246	0x3eef6173	0.46754035
247	0xbe7df976	-0.24802193
248	0x3e9b7a8a	0.30366927
249	0x3e9f24ce	0.31082767
250	0x3ec0e5ea	0.3767541
251	0x3f14db26	0.58146894
252	0x3f1d99eb	0.61562985
253	0x3f0d288b	0.5513999
254	0x3ddf0a1c	0.108906
255	0x3e652d26	0.22380504

bn1.weight f4 [400]
0	0x3fa2e1ed	1.2725197
1	0x3f9523f3	1.1651596
2	0x3efab6af	0.48967502
3	0x3f499eda	0.78758013
4	0x3fdc23e5	1.7198454
5	0x3f3356a9	0.7005411
6	0x3f08fdc3	0.5351221
7	0x3fd03d24	1.6268659
8	0x3ef5de15	0.48020998
9	0x3fc7762b	1.5582937
10	0x3f2b72c5	0.66972
11	0x3f799067	0.97485965
12	0x3f36c92b	0.7140071
13	0x3f964141	1.1738664
14	0x3f4faf5d	0.8112696
15	0x3fb8fa59	1.44514
16	0x3eca1df4	0.39475977
17	0x3fadaf77	1.3569173
18	0x3f646059	0.89209515
19	0x3f4e8129	0.8066583
20	0x3f72c29d	0.94828206
21	0x3faeb9d5	1.3650461
22	0x3e9a5646	0.30143946
23	0x3f7f3fde	0.9970683
24	0x3ffef295	1.991778
25	0x3f2e70e7	0.68141025
26	0x3ec5def2	0.38646656
27	0x3f87059c	1.0548587
28	0x3f233190	0.637475
29	0x3fa482e2	1.2852442
30	0x3f80bdb7	1.0057896
31	0x3f8310ed	1.023954
32	0x3f6b6502	0.91951
33	0x3fc454df	1.5338401
34	0x3fdcaaa7	1.7239579
35	0x3f896237	1.0733098
36	0x3e938810	0.28814745
37	0x3f8d42ee	1.103605
38	0x3f062478	0.52399397
39	0x3f779a55	0.96719867
40	0x3fa06a05	1.2532355
41	0x3f66efe4	0.90209794
42	0x3f7e912f	0.9944028
43	0x3f8fa0f5	1.1220995
44	0x3f01c9e5	0.5069869
45	0x3ee6cfc2	0.45080382
46	0x400854c6	2.1301742
47	0x3fad5214	1.3540673
48	0x3e8825f6	0.26591462
49	0x3f6977d4	0.9119847
50	0x3f22fac6	0.636639
51	0x3f4e65e7	0.8062424
52	0x3f684a50	0.9073839
53	0x3f8a8d41	1.0824357
54	0x3f428d85	0.7599719
55	0x3f95fe68	1.1718264
56	0x3f9b74cd	1.214502
57	0x3f39b95c	0.7254846
58	0x3ec944ae	0.3931021
59	0x3ffa7839	1.9567939
60	0x3f60a950	0.8775835
61	0x3f2814e1	0.6565686
62	0x3f828b2b	1.0198721
63	0x3f2780dc	0.65431
64	0x3f5f57e7	0.87243503
65	0x3eb7c970	0.35895872
66	0x3f6030d6	0.8757452
67	0x3eb5509c	0.35413063
68	0x3f425c15	0.75921756
69	0x3f8668f5	1.050078
70	0x3f464ec4	0.77463937
71	0x3e80f230	0.25184774
72	0x3f45bbee	0.7723988
73	0x3f6e4663	0.9307615
74	0x3eab0125	0.3339931
75	0x3f6528cc	0.89515376
76	0x3f463a7d	0.77432996
77	0x3f5c996f	0.8617162
78	0x3f6de4ec	0.9292743
79	0x3f7dc953	0.9913532
80	0x3f1a456c	0.6026218
81	0x3f56f3e5	0.83965904
82	0x3f2f0cb9	0.6837879
83	0x3ea28ca4	0.31747925
84	0x3f093007	0.5358891
85	0x3f26582e	0.649783
86	0x3fafcff5	1.3735338
87	0x3fa8433a	1.3145516
88	0x3f099c44	0.5375407
89	0x3f1335e8	0.5750413
90	0x3ee22732	0.4417053
91	0x3f8be4f4	1.0929246
92	0x3f821fc6	1.0165946
93	0x3f735b47	0.95061153
94	0x3f968aeb	1.1761144
95	0x3f58f6ea	0.8475176
96	0x3f82a2bd	1.0205914
97	0x3f04ff47	0.5195202
98	0x3f3d9056	0.74048364
99	0x3fb4d28d	1.4126755
100	0x3e89b850	0.26898432
101	0x3f58ac95	0.8463834
102	0x3fb7fa3b	1.4373239
103	0x3f009634	0.5022919
104	0x3eb17793	0.3466154
105	0x3eeb1809	0.45916775
106	0x3f538d7d	0.8263777
107	0x3f9893c1	1.1920091
108	0x3edbee00	0.42955017
109	0x3ef7674e	0.48321003
110	0x3f7d96d7	0.9905829
111	0x3f0f7b30	0.56047344
112	0x3f669f89	0.9008718
113	0x3f2df9a9	0.67959076
114	0x4000285a	2.0024629
115	0x3f198803	0.5997316
116	0x3f08b3b3	0.533992
117	0x3f9f437a	1.2442467
118	0x3f905bb1	1.1277982
119	0x3f38b8ec	0.7215717
120	0x3fab1e99	1.3368713
121	0x3fa38b0a	1.2776806
122	0x3e60ae51	0.21941496
123	0x3ff7d085	1.936051
124	0x3f50079b	0.81261605
125	0x3f94e0d7	1.1631116
126	0x3e9f6b12	0.31136376
127	0x3f72566f	0.9466314
128	0x3e8d0be3	0.2754813
129	0x3e958f9a	0.29211122
130	0x3ffed811	1.9909688
131	0x3f15a541	0.5845528
132	0x3f84c55d	1.037273
133	0x3f5bd034	0.8586457
134	0x3f87764e	1.0582979
135	0x3f971495	1.1803156
136	0x3e9c3353	0.30507907
137	0x3fb2020e	1.3906877
138	0x3eceec29	0.4041455
139	0x3f9edfd1	1.2412053
140	0x3f695417	0.91143936
141	0x3f95f85b	1.1716417
142	0x3f249e93	0.64304465
143	0x3f9aed74	1.2103715
144	0x3f92cf5a	1.1469529
145	0x3f8a9aec	1.0828528
146	0x3f0d7a58	0.55264807
147	0x3e8e2cf3	0.2776867
148	0x3f6092e7	0.87724155
149	0x3ec3157f	0.38102338
150	0x3f9d74e6	1.23013
151	0x3e86939d	0.26284495
152	0x3ed1c416	0.40969914
153	0x3f556896	0.8336271
154	0x3f793370	0.9734411
155	0x3f28580b	0.6575934
156	0x3fe2c7b4	1.7717195
157	0x3fce9103	1.6138004
158	0x3f32f154	0.6989949
159	0x3ee51dbc	0.44749248
160	0x3ec7a414	0.3899237
161	0x3f244b33	0.64177245
162	0x3fe84114	1.814486
163	0x3f0d77c8	0.55260897
164	0x3fc48c9e	1.5355413
165	0x3f2aeb47	0.66765255
166	0x3ebbd882	0.3668862
167	0x3ef8d9e5	0.4860374
168	0x3fa1aa72	1.2630141
169	0x3f614bd8	0.88006353
170	0x3fa25711	1.268282
171	0x3f6d879c	0.9278505
172	0x3fcb53f3	1.5884994
173	0x3f487436	0.78302324
174	0x3ead3596	0.33829945
175	0x3ea2ce45	0.31797996
176	0x3f0d64e0	0.5523205
177	0x3f7b1b6f	0.98088735
178	0x3f93d8a7	1.1550492
179	0x3f40b9e1	0.7528363
180	0x3ed0df7a	0.407955
181	0x3e88a07a	0.26684934
182	0x3f74ffce	0.95702827
183	0x3f09df52	0.53856385
184	0x3fd36c55	1.6517435
185	0x3f24168e	0.64096916
186	0x3ee10ebf	0.43956563
187	0x3f1001ea	0.5625292
188	0x3eb1d9e2	0.34736544
189	0x3f0dc9db	0.5538613
190	0x3f6324e8	0.8872819
191	0x3f084d9d	0.5324343
192	0x3f73acde	0.9518565
193	0x3ef479fd	0.4774932
194	0x3ee2822c	0.44239938
195	0x3ffdce1f	1.9828528
196	0x3f82762d	1.0192314
197	0x3f9d3dfc	1.2284541
198	0x3f992207	1.1963509
199	0x3f1fc609	0.6241155
200	0x3f616a27	0.880526
201	0x3eae1943	0.34003648
202	0x4001b6cc	2.026782
203	0x3f7d0f70	0.9885168
204	0x3ed3a3eb	0.41335997
205	0x3f2ca393	0.67437094
206	0x3fd05298	1.6275206
207	0x3fcf93c1	1.6216966
208	0x3ec7572d	0.38933697
209	0x3f509568	0.81477976
210	0x3f5db02d	0.8659695
211	0x3f07e40c	0.53082347
212	0x3fe49505	1.7857977
213	0x3ff6ed48	1.9291162
214	0x3fa65b7e	1.2996671
215	0x3eedbe5d	0.46434298
216	0x3f0cb5d2	0.54964936
217	0x3f0032f3	0.5007774
218	0x3fb2fca8	1.3983355
219	0x3eb665f5	0.35624662
220	0x3f82e378	1.0225668
221	0x3eaba7ec	0.33526552
222	0x3e8edcbc	0.27902782
223	0x3fa07a61	1.2537347
224	0x3eacf964	0.3378402
225	0x3f849625	1.035832
226	0x3f160774	0.5860512
227	0x3f5b00bc	0.85547996
228	0x3f8b93a9	1.0904437
229	0x3fb9a3c9	1.4503108
230	0x3f4b1277	0.7932505
231	0x3f0159e4	0.5052779
232	0x3e878282	0.26466757
233	0x3fbc9e16	1.4735744
234	0x3f9fb8f1	1.2478315
235	0x3f97eb53	1.186869
236	0x3f36c471	0.71393496
237	0x3f465577	0.7747416
238	0x3ef71716	0.482598
239	0x3fbba469	1.4659549
240	0x3ea706b3	0.326223
241	0x3fccefbf	1.6010665
242	0x3f3540c1	0.7080193
243	0x40141520	2.3137894
244	0x3f04e4f6	0.51911867
245	0x3f4ffbbb	0.81243485
246	0x3ee74f9e	0.4517793
247	0x3f9daeef	1.231901
248	0x3f25272e	0.6451291
249	0x3ef70c90	0.48251772
250	0x3ef6975b	0.4816235
251	0x3ea0ab63	0.31380758
252	0x3e9a890e	0.3018269
253	0x3f30c4f0	0.690505
254	0x3f94612c	1.1592155
255	0x3f26b8ad	0.6512554

bn1.bias f4 [400]
0	0xbdc18ae9	-0.09450323
1	0xbed9a6de	-0.42510122
2	0xbf2c4342	-0.6729013
3	0xbefeb0a0	-0.4974413
4	0xbe041876	-0.12899956
5	0xbeeca395	-0.46218553
6	0xbf165a43	-0.5873148
7	0xbe3a6d82	-0.18205836
8	0xbf1ae367	-0.6050324
9	0xbea9cba6	-0.33163184
10	0xbf0f7d95	-0.56051
11	0xbe84a0ae	-0.2590384
12	0xbedf88a2	-0.4365893
13	0x3c34154e	0.010991408
14	0xbe8f8bbe	-0.28036302
15	0xbe72fd60	-0.23729467
16	0xbf301cfb	-0.6879422
17	0xbec8a194	-0.39185774
18	0xbf10268c	-0.5630882
19	0xbee17058	-0.44031024
20	0xbed1d121	-0.40979865
21	0xbea8e9d1	-0.32990888
22	0xbf26b649	-0.65121895
23	0xbe7429ab	-0.2384402
24	0xbe2417f7	-0.16024767
25	0xbec4d073	-0.38440284
26	0xbf402de7	-0.7507004
27	0xbe353138	-0.17694557
28	0xbf1f7a8e	-0.6229638
29	0xbec6aa8b	-0.3880199
30	0xbdf4638f	-0.11933052
31	0xbed6fe66	-0.41990966
32	0xbee2baa1	-0.44283012
33	0xbdfe98e0	-0.12431502
34	0xbdf40aed	-0.119161464
35	0xbe7d6869	-0.2474686
36	0xbf56cef2	-0.83909523
37	0xbe2c0c0c	-0.1680147
38	0xbf13f6ba	-0.5779835
39	0xbeaaff9e	-0.33398145
40	0xbe8bfe07	-0.27342245
41	0xbedfa360	-0.43679333
42	0x3d98bdf3	0.07458105
43	0xbec87434	-0.39151156
44	0xbed1af73	-0.4095417
45	0xbf0ede07	-0.55807537
46	0xbd61f8c3	-0.05516888
47	0xbe80ed19	-0.2518089
48	0xbf50664c	-0.8140609
49	0xbe95bdef	-0.2924647
50	0xbed04eca	-0.4068511
51	0xbf083b41	-0.53215414
52	0xbdb5ee0c	-0.088832945
53	0xbdbbe23a	-0.09174009
54	0xbe90d277	-0.28285572
55	0xbe7c1a23	-0.24619345
56	0xbed286a1	-0.4111834
57	0xbe61dbde	-0.22056529
58	0xbeae582c	-0.34051645
59	0xbe353307	-0.17695247
60	0xbefbc479	-0.49173334
61	0xbee7c399	-0.45266417
62	0xbe130c8c	-0.14360255
63	0xbf30b240	-0.6902199
64	0xbe3dd43f	-0.18537997
65	0xbf1410c8	-0.57838106
66	0xbf0a9542	-0.54134
67	0xbf470bbc	-0.7775228
68	0xbe7bc435	-0.24586566
69	0xbed6a82e	-0.41925186
70	0xbeadf03b	-0.33972344
71	0xbf41b870	-0.75672054
72	0x3dbeda6b	0.09319004
73	0xbeeb6101	-0.45972446
74	0xbf2b623e	-0.6694678
75	0xbf1cfd32	-0.61323845
76	0xbf39818f	-0.72463316
77	0xbecceff1	-0.4002681
78	0xbe6dbe44	-0.23217112
79	0xbecbdb3c	-0.398157
80	0xbf204315	-0.6260236
81	0xbe9b80cd	-0.30371705
82	0xbf0b6301	-0.5444794
83	0xbf4d1a9e	-0.8011874
84	0xbf106316	-0.56401193
85	0xbf19f9dc	-0.6014688
86	0xbd4fc62b	-0.050726097
87	0xbdc76395	-0.09735791
88	0xbf06d870	-0.5267401
89	0xbf4722d3	-0.7778751
90	0xbf4221df	-0.75832933
91	0xbe7aa6c5	-0.2447768
92	0xbeae5a16	-0.34053105
93	0xbe1a3ebb	-0.15062992
94	0xbed41c9c	-0.41428077
95	0xbe0bd3d2	-0.13655022
96	0xbe40bc51	-0.18821837
97	0xbf1e49c9	-0.6183134
98	0xbf16170b	-0.5862891
99	0xbde56274	-0.11200419
100	0xbf162bdb	-0.5866067
101	0x3bffc16a	0.007805039
102	0xbe7ec033	-0.24878006
103	0xbeee2550	-0.46512842
104	0xbebeb089	-0.3724406
105	0xbf1538e3	-0.5828993
106	0xbeccc84c	-0.39996564
107	0xbebd651a	-0.36991197
108	0xbf3f9a6f	-0.7484502
109	0xbf152484	-0.58258843
110	0xbe5f0a9e	-0.21781394
111	0xbf0ddc45	-0.5541423
112	0xbed70982	-0.4199944
113	0xbec05c87	-0.37570593
114	0xbde22e25	-0.110439576
115	0xbf23cfaa	-0.63988745
116	0xbf130d9c	-0.5744264
117	0xbe0d0605	-0.13771828
118	0xbeb440f3	-0.35205802
119	0xbf018dab	-0.50606793
120	0xbe502025	-0.20324762
121	0xbe8138f5	-0.25238767
122	0xbf197b86	-0.59954107
123	0xbebfce85	-0.3746225
124	0xbf06b075	-0.52613
125	0xbeabba9b	-0.33540806
126	0xbf2ffd51	-0.68745905
127	0xbe6c12e7	-0.23054086
128	0xbf19ae4e	-0.6003159
129	0xbf4e0cba	-0.8048817
130	0xbda8459a	-0.082164004
131	0xbe3b49da	-0.18289891
132	0xbed9a2d0	-0.4250703
133	0xbf17a0aa	-0.5922953
134	0xbdbf92b1	-0.09354151
135	0xbe7be1d8	-0.24597871
136	0xbeecac1d	-0.46225062
137	0xbea3beb7	-0.3198144
138	0xbf0be5f7	-0.54647774
139	0xbe6519a2	-0.2237306
140	0xbeb76fd7	-0.35827515
141	0xbe9843f8	-0.29739356
142	0xbe9c71b8	-0.3055551
143	0xbdcb888e	-0.09938155
144	0xbe4afca9	-0.19822945
145	0xbe9339ad	-0.2875494
146	0xbf21c343	-0.6318857
147	0xbf1b5048	-0.60669374
148	0xbefaca86	-0.48982638
149	0xbf1a18c9	-0.6019407
150	0xbf037d32	-0.5136291
151	0xbf64b97d	-0.8934553
152	0xbf40d9ad	-0.75332147
153	0xbec538ac	-0.385198
154	0xbeec8d4a	-0.46201545
155	0xbeea2414	-0.4573065
156	0xbe391365	-0.18073805
157	0xbe5fac39	-0.21843041
158	0xbe9dfc3b	-0.308565
159	0xbf1b554d	-0.60677034
160	0xbf359306	-0.70927465
161	0xbf19713e	-0.5993842
162	0xbe834a7d	-0.25642768
163	0xbf2c2b37	-0.6725344
164	0xbe743ed5	-0.23852094
165	0xbed88c36	-0.42294472
166	0xbf3062e1	-0.6890088
167	0xbf406083	-0.75147265
168	0xbe9789e4	-0.2959739
169	0xbec24639	-0.379442
170	0xbe9780f0	-0.2959056
171	0xbf06d7fa	-0.52673304
172	0xbdc78ab0	-0.097432494
173	0xbf06e235	-0.52688915
174	0xbf256113	-0.6460125
175	0xbf36b417	-0.71368545
176	0xbf05a4e7	-0.52204746
177	0xbee890a7	-0.4542286
178	0xbec41cb2	-0.38303143
179	0xbf357482	-0.708809
180	0xbf267cb8	-0.65034056
181	0xbf1e4b59	-0.6183372
182	0xbed1fd48	-0.4101355
183	0xbf2c3a85	-0.67276794
184	0xbe3dbf40	-0.18529987
185	0xbea65265	-0.32484737
186	0xbf2ca155	-0.67433673
187	0xbf2596cd	-0.6468323
188	0xbf2cb576	-0.6746439
189	0xbf0cd875	-0.5501779
190	0xbe8f9a7f	-0.2804756
191	0xbf443eff	-0.76658624
192	0xbec7e8b8	-0.39044738
193	0xbf27a32b	-0.6548335
194	0xbf28bb28	-0.6591058
195	0xbe2df519	-0.16988029
196	0xbea89ce3	-0.32932195
197	0xbe3d5d54	-0.18492633
198	0x3bb9322a	0.005651732
199	0xbee18b73	-0.44051704
200	0xbdf884a9	-0.12134678
201	0xbf3dd0a0	-0.7414646
202	0xbdc9806b	-0.09838947
203	0xbef1f72d	-0.47258893
204	0xbed26b35	-0.41097417
205	0xbf0d28cb	-0.5514037
206	0xbeb864e8	-0.36014485
207	0xbe9e2345	-0.30886284
208	0xbf2067bf	-0.62658304
209	0xbee0377b	-0.43792328
210	0xbddba897	-0.10725515
211	0xbf1750b1	-0.591075
212	0xbf04342c	-0.5164211
213	0xbe51944c	-0.20466727
214	0xbe54cfe5	-0.2078243
215	0xbf2edc1b	-0.68304604
216	0xbf3cb4d3	-0.73713416
217	0xbee9af4b	-0.4564155
218	0xbe660153	-0.22461443
219	0xbf3c8464	-0.7363951
220	0xbeb7ceb1	-0.3589988
221	0xbf398e91	-0.72483164
222	0xbf19e4fe	-0.6011504
223	0xbe92d35a	-0.28676873
224	0xbf2bcf5d	-0.67113286
225	0xbeec545d	-0.46158114
226	0xbe5d36a3	-0.21602874
227	0xbe842438	-0.25808883
228	0xbe7e3162	-0.24823526
229	0xbea6199e	-0.3244142
230	0xbe3eb065	-0.18621977
231	0xbf118ca7	-0.56855243
232	0xbf2a0dc4	-0.66427255
233	0xbe7b96eb	-0.2456929
234	0x3d9ad223	0.07559612
235	0xbe4c5d1c	-0.19957393
236	0xbe8c723c	-0.27430904
237	0xbf202b03	-0.6256563
238	0xbf22332c	-0.6335933
239	0xbe687b6c	-0.22703332
240	0xbf6f7597	-0.935388
241	0xbe184471	-0.14869858
242	0xbf0fc9eb	-0.5616748
243	0xbeb77af1	-0.35835984
244	0xbed123b3	-0.4084755
245	0xbf0ba48a	-0.5454794
246	0xbf15e265	-0.58548576
247	0xbe3b11a3	-0.18268447
248	0xbeebaf98	-0.46032405
249	0xbe77b7be	-0.24191186
250	0xbf2e73e5	-0.6814559
251	0xbf2e47d0	-0.6807833
252	0xbf2c2106	-0.6723789
253	0xbed9a28a	-0.4250682
254	0xbeacfeb9	-0.33788088
255	0xbf114760	-0.56749535

fc2.weight f4 [300, 400]
0	0x3dae305a	0.08505316
1	0xbdce1b03	-0.10063746
2	0xbd8c3eb3	-0.068478964
3	0x3f47a10d	0.7798012
4	0xbe29450e	-0.16530249
5	0xbf82d7ac	-1.0222068
6	0x3e329a43	0.17441659
7	0xbe7b7ef5	-0.24560149
8	0xbe251040	-0.1611948
9	0xbdec7c05	-0.11547092
10	0x3f09de94	0.5385525
11	0x3e8988f7	0.26862308
12	0x3f2fbd62	0.6864835
13	0x3eb9bc4d	0.36276475
14	0x3de4806e	0.111573085
15	0xbf1556b4	-0.58335423
16	0x3cef2a45	0.02919496
17	0x3efb7937	0.49115917
18	0x3ec4b4f6	0.38419312
19	0x3f3412fa	0.70341456
20	0x3e57f0de	0.21087977
21	0xbe43cc22	-0.19120839
22	0x3c5b7a45	0.013395851
23	0x3b18f357	0.0023338401
24	0x3ea34226	0.31886405
25	0x3e99fc6d	0.30075398
26	0xbe09bc38	-0.13450706
27	0xbe8a1c51	-0.2697473
28	0xbef99c13	-0.48751888
29	0xbe6cdf69	-0.23132099
30	0x3e762bf0	0.24040198
31	0x3d9d39ac	0.07677016
32	0xbe5fb5d5	-0.21846707
33	0xbe0edb4b	-0.13950841
34	0xbe9b50f3	-0.30335197
35	0x3cb5f19b	0.022209933
36	0xbdd3c1af	-0.103396766
37	0xbf0a1f41	-0.5395394
38	0x3d6d1979	0.05788562
39	0xbe36175c	-0.17782348
40	0x3ea0b10c	0.31385076
41	0xbf146b6d	-0.5797642
42	0xbd80a1e1	-0.06280876
43	0xbd01d79e	-0.03169977
44	0xbea0326a	-0.31288463
45	0x3ce79ca2	0.02827293
46	0xbc886538	-0.016649827
47	0xbf313121	-0.6921559
48	0xbec05786	-0.37566775
49	0xbde637e2	-0.112411276
50	0x3e0cee35	0.13762744
51	0x3eb3107f	0.34973523
52	0xbe85cb56	-0.26131696
53	0xbec69b2f	-0.3879027
54	0xbd7aa66b	-0.061193865
55	0xbefda3a7	-0.4953892
56	0xbd1d826f	-0.03845447
57	0xbefbd685	-0.49187103
58	0x3f08404e	0.5322312
59	0xbe74d5ce	-0.23909685
60	0x3f0ef42e	0.5584134
61	0x3e8bb11f	0.2728357
62	0xbdd533e3	-0.10410287
63	0xbe1336cf	-0.14376377
64	0x3e403f28	0.18774092
65	0x3e81b96a	0.25336772
66	0xbe81ccbb	-0.2535151
67	0xbea4703f	-0.32116887
68	0xbde2d763	-0.11076238
69	0xbeafc91c	-0.34333122
70	0xbdffd658	-0.12492055
71	0x3e26e529	0.16298355
72	0x3d51e048	0.051239282
73	0xbfb58b4c	-1.4183135
74	0xbcf7273a	-0.030170072
75	0x3e210b15	0.15726884
76	0x3eda9060	0.42688274
77	0x3d554028	0.052063137
78	0xbf2a88d7	-0.6661505
79	0x3d721e98	0.059111208
80	0x3eb5a47f	0.35477063
81	0xbe955364	-0.29165184
82	0xbdcd39f7	-0.100208215
83	0x3e785990	0.24252915
84	0x3e382b16	0.17985186
85	0x3e1be829	0.15225281
86	0x3d1feb77	0.039042916
87	0x3f38c01b	0.7216813
88	0x3dd8a036	0.10577433
89	0x3cd2afbc	0.025718562
90	0x3d262c1c	0.04056941
91	0x3ebbdc37	0.36691448
92	0x3ed35521	0.41275886
93	0xbe5638cd	-0.20920105
94	0xbf0539c5	-0.52041274
95	0xbefcb4e8	-0.4935677
96	0xbf1ec763	-0.6202299
97	0x3ec7fd64	0.3906051
98	0x3eaf6204	0.34254467
99	0xbd20f8de	-0.03929984
100	0x3ce89d1c	0.028395228
101	0xbed18dc2	-0.40928465
102	0xbefbd150	-0.4918313
103	0x3eb6e497	0.35721275
104	0xbe05ecd3	-0.13078623
105	0xbc9f5df2	-0.019453976
106	0x3c1e8ffe	0.009677885
107	0x3e0f4984	0.13992888
108	0xbf114459	-0.56744915
109	0x3e936459	0.28787497
110	0x3d4ce593	0.050023627
111	0x3e02ad0d	0.12761326
112	0xbd30d940	-0.043175936
113	0xbf1813ea	-0.59405386
114	0xbeea5786	-0.457699
115	0x3e8ac12e	0.2710051
116	0x3e154011	0.1457522
117	0x3f413950	0.75478077
118	0x3e4947c6	0.19656286
119	0x3e8d682f	0.27618548
120	0x3f3a202e	0.7270535
121	0xbd62e0c8	-0.05539015
122	0x3e04c2c4	0.12964922
123	0x3e84a5eb	0.25907835
124	0xbda48739	-0.08033604
125	0x3ec05a61	0.37568954
126	0x3d717740	0.058951616
127	0xbd4332b9	-0.047655795
128	0xbe50ac9d	-0.20378347
129	0x3c704a77	0.014666191
130	0xbf2c338b	-0.6726615
131	0xbea586d6	-0.32329434
132	0x3e14d863	0.1453567
133	0xbeeb03ba	-0.4590128
134	0x3d907c21	0.07054926
135	0x3ea7a617	0.32743904
136	0xbd5a3ea0	-0.05328238
137	0xbf99205e	-1.1963003
138	0x3c032a52	0.008005695
139	0x3eac64d9	0.3367069
140	0xbebb961a	-0.36637956
141	0x3e04c2ea	0.12964979
142	0xbce9bd06	-0.028532516
143	0xbd049dff	-0.03237724
144	0x3e0fffd7	0.14062439
145	0x3db00e66	0.08596496
146	0xbf03da13	-0.5150463
147	0xbe072fdf	-0.13201855
148	0x3f16aa40	0.5885353
149	0xbe9205af	-0.2851996
150	0x3f4e4bfa	0.8058468
151	0x3e883d67	0.26609346
152	0xbbe85a07	-0.00709081
153	0x3e2a8b95	0.16654809
154	0xbe85eadd	-0.2615575
155	0x3e0525d3	0.1300271
156	0x3e029b3d	0.12754531
157	0x3ef4ba8e	0.4779858
158	0xbf8cc17a	-1.0996544
159	0xbda16b02	-0.07881738
160	0x3da25cfd	0.07927892
161	0x3d8a0a2c	0.067402214
162	0xbf0bba33	-0.5458099
163	0xbeb06301	-0.34450534
164	0xbef274db	-0.4735478
165	0x3d88334c	0.06650409
166	0x3cbc9fbb	0.023025384
167	0x3df7b68e	0.120953664
168	0xbf01267e	-0.5044936
169	0xbecedebe	-0.40404314
170	0xbf09f857	-0.5389456
171	0x3eef0a3b	0.46687493
172	0x3c8a12a1	0.016854586
173	0xbd9e1734	-0.077192694
174	0x3e2bf599	0.16792907
175	0x3df714c5	0.12064508
176	0xbddca58c	-0.10773763
177	0xbe69c706	-0.22829828
178	0x3d57b154	0.052659348
179	0x3e5733a0	0.21015787
180	0x3efb26ec	0.49053133
181	0x3d0a711c	0.033799276
182	0xbeae3d25	-0.34031025
183	0xbdcc07eb	-0.09962448
184	0x3d1dd81e	0.038536184
185	0xbcca4bca	-0.024694342
186	0x3ea5a784	0.32354367
187	0x3dc4f56c	0.09617123
188	0xbe19dd2d	-0.15025778
189	0x3e374af1	0.17899682
190	0xbe4ab621	-0.19796039
191	0x3eb6dac9	0.35713795
192	0x3f26a5fa	0.6509701
193	0x3eff08f5	0.4981152
194	0xbcfb7a8e	-0.030698087
195	0xbf10b13a	-0.56520426
196	0xbcd6feb2	-0.026244495
197	0x3e6b8cc2	0.23002914
198	0x3f7ec5a3	0.9952032
199	0xbd513bcb	-0.051082414
200	0xbed4641f	-0.41482636
201	0x3ec4a664	0.38408196
202	0xbf0dfa6e	-0.5546025
203	0xbf206d47	-0.62666744
204	0x3cdc0950	0.02685991
205	0xbe2425eb	-0.1603009
206	0x4006b3ae	2.1047168
207	0xbeb67613	-0.35636958
208	0xbec686fb	-0.38774857
209	0x3eb364c7	0.35037825
210	0x3eb3616d	0.35035267
211	0xbe4fa07e	-0.20276067
212	0xbee241fd	-0.4419097
213	0xbe6a634f	-0.22889446
214	0xbf8bf7d0	-1.0935001
215	0xbe213729	-0.15743698
216	0xbea7fe42	-0.3281117
217	0x3e9df394	0.30849898
218	0xbf1c8fa1	-0.6115666
219	0x3e919bde	0.2843923
220	0x3edf56bd	0.43620864
221	0x3e472714	0.19448501
222	0xbd21c4a5	-0.039494175
223	0xbf2b9cce	-0.6703614
224	0x3e288b39	0.16459359
225	0x3f69f379	0.91387135
226	0xbc645b10	-0.013937727
227	0x3e8be39a	0.27322084
228	0xbdd56754	-0.10420099
229	0x3ecf6a07	0.4051058
230	0xbde6f94f	-0.112780206
231	0x3ee1701d	0.44030848
232	0x3d6109a2	0.054940827
233	0xbfb0c5ac	-1.3810325
234	0x3e361c51	0.1778424
235	0x3eea5f79	0.45775965
236	0xbf02e34f	-0.51128095
237	0xbf38ebe6	-0.7223495
238	0xbaff25ca	-0.0019466218
239	0x3ebaf7e0	0.3651724
240	0x3df99f40	0.12188578
241	0xbeebf138	-0.46082473
242	0xbeaddd18	-0.33957744
243	0xbf24a1b9	-0.6430927
244	0x3ecaeeae	0.39635223
245	0x3eed9d43	0.46409044
246	0xbf7f2ef6	-0.9968103
247	0xbc83b4b3	-0.016077375
248	0xbe1a6a0a	-0.15079513
249	0x3e0c41ba	0.13696948
250	0xbe885cae	-0.2663321
251	0xbc6912c9	-0.01422567
252	0xbd12a967	-0.035806086
253	0xbe28ec7d	-0.16496463
254	0x3d880095	0.06640736
255	0xbed2add0	-0.41148233

fc2.bias f4 [300]
0	0x3d17e572	0.03708405
1	0x3db49118	0.08816737
2	0xbdb0f0c5	-0.08639673
3	0x3d7aba73	0.061212968
4	0x3d10e480	0.035374165
5	0xbe6ab799	-0.229216
6	0xbd8b801a	-0.06811543
7	0x3d80474d	0.062635995
8	0x3c7379f3	0.014860618
9	0x3dac4142	0.084108844
10	0xbdb61584	-0.088908225
11	0x3ca7e8d9	0.020496773
12	0x3e08863e	0.1333246
13	0xbdaf8dd1	-0.08571971
14	0xbe00b09e	-0.12567374
15	0x3e142a87	0.14469348
16	0xbd2b7402	-0.04185868
17	0x3e048eee	0.12945148
18	0x3c1b9a9a	0.009497309
19	0xbbb5c705	-0.0055474066
20	0x3d93efcd	0.07223473
21	0xbde28a7f	-0.11061572
22	0xbdfefe7d	-0.124508835
23	0xbd511a3f	-0.05105042
24	0x3d0be121	0.034150247
25	0x3b2270e6	0.002478653
26	0x3db7334a	0.089453295
27	0x3c25de12	0.0101237465
28	0xbdd2613f	-0.102724545
29	0x3a0f3097	0.00054622575
30	0x3ccb93b5	0.024850706
31	0xbc159545	-0.009129827
32	0xbd8d8239	-0.069096036
33	0xbe5f90cb	-0.21832578
34	0x3e1b46c9	0.15163721
35	0x3d59fff7	0.053222623
36	0xbe07d5a5	-0.13265093
37	0xbe1517e5	-0.14559896
38	0xbd560b74	-0.052257016
39	0x3ce4b4c3	0.027918225
40	0x3d56bd6c	0.05242674
41	0xbdbcb817	-0.092148
42	0xbbc8e638	-0.00613096
43	0x3d324a62	0.04352797
44	0xbb5b83f9	-0.003349541
45	0xbd84759c	-0.06467745
46	0xbda3944c	-0.0798727
47	0x3e04df92	0.1297591
48	0x3e45cb6e	0.19315884
49	0xbe15f06d	-0.14642496
50	0xbdcced53	-0.100062035
51	0xbe074180	-0.1320858
52	0x3e25ceae	0.16192123
53	0x3e336f1d	0.17522855
54	0xbd35be1c	-0.044370756
55	0xbe4c9eaa	-0.199824
56	0xbdddd356	-0.10831325
57	0x3d7ce5e7	0.06174269
58	0x3e1c22d2	0.15247658
59	0xbe1236c2	-0.14278701
60	0xbbfb8573	-0.0076758205
61	0x3e55c598	0.20876157
62	0x3e30cd07	0.17265712
63	0xbda239d5	-0.07921187
64	0x3dce0eb0	0.10061395
65	0x3e8e05a6	0.27738684
66	0x3d40810f	0.04699808
67	0x3baaf2ad	0.0052169175
68	0xbd8b6cb4	-0.06807843
69	0x3e7beb21	0.24601413
70	0x3b3db7a2	0.0028948565
71	0x3d04d8d2	0.03243334
72	0x3d3763a1	0.044772748
73	0x3e06c5fa	0.1316146
74	0xbe031686	-0.12801561
75	0x3b4cee71	0.0031270052
76	0x3d513a81	0.051081184
77	0xbd4f8da4	-0.05067219
78	0xbd9576dc	-0.07298061
79	0xbe0b322d	-0.1359336
80	0xbc15f5f0	-0.009152874
81	0x3e1b2591	0.15151049
82	0x3dda4192	0.10657038
83	0x3e4264a3	0.18983702
84	0x3da09e4b	0.07842692
85	0xbdc7a088	-0.09747416
86	0x3d16eaca	0.036845006
87	0xbdcfa895	-0.10139576
88	0x3d72ca8a	0.059275188
89	0x3dbb3e8c	0.09142789
90	0xbcc251bc	-0.023720615
91	0x3daffa37	0.085926466
92	0x3e721219	0.23639716
93	0xbda56b83	-0.08077147
94	0xbe1b9428	-0.15193236
95	0xbd5dccfa	-0.05415056
96	0x3e029938	0.12753761
97	0x3e3a3265	0.18183286
98	0x3db7028b	0.08936032
99	0x3e4ee0c3	0.20202927
100	0xbdd8611a	-0.10565396
101	0xbdbf36ea	-0.09336646
102	0xbdcd1e80	-0.10015583
103	0xbe2f1268	-0.17096865
104	0xbdceffc1	-0.10107375
105	0x3d12499e	0.035714738
106	0x3e1f65e5	0.15566213
107	0xbda9bbad	-0.082877494
108	0x3e04e317	0.12977253
109	0x3d6da65f	0.058019992
110	0xbdca69ad	-0.09883437
111	0x3dce7587	0.1008101
112	0x3e2a8155	0.16650899
113	0x3e400a67	0.18753968
114	0xbcad151e	-0.021128234
115	0x3e8267d8	0.25469851
116	0x3d46faf1	0.04857916
117	0x3ddab439	0.10678906
118	0xbdacd0a3	-0.08438232
119	0x3d041b71	0.032252733
120	0xbe0f69a3	-0.14005141
121	0xbbe0cb25	-0.006860154
122	0x3e33d510	0.17561746
123	0xbe575bec	-0.21031159
124	0x3e6f2cb3	0.23356895
125	0xbd867402	-0.065650955
126	0x3e94712a	0.28992587
127	0x3e24afd1	0.16082694
128	0xbda44aa0	-0.08022046
129	0x3cf19386	0.02948929
130	0x3d47a3bd	0.048740137
131	0x3e290693	0.16506414
132	0x3d629cb4	0.055325225
133	0xbd407fa0	-0.046996713
134	0x3d82f09c	0.06393549
135	0x3d2718b7	0.040795054
136	0xbe2947dc	-0.16531318
137	0x3d85312c	0.065035194
138	0x3cbe741a	0.02324872
139	0x3e1015ac	0.14070767
140	0x3c758b38	0.014986806
141	0x3cb1585e	0.021648582
142	0x3d3712e5	0.044695754
143	0x3da39cfc	0.07988927
144	0x3cc7149c	0.02430182
145	0xbcb3b9ce	-0.021939185
146	0x3e42f270	0.19037795
147	0xbd7f9946	-0.062402032
148	0x3a25a8df	0.0006319414
149	0x3d9e7582	0.077372566
150	0x3e0c1396	0.13679346
151	0xbdc01539	-0.09379048
152	0x3e2b1d9e	0.16710517
153	0x3e866c8b	0.26254687
154	0xbd256ecc	-0.040388867
155	0x3d45e0c2	0.04831005
156	0xbe2a30b8	-0.16620147
157	0xbdc56ae2	-0.09639527
158	0xbcf21df8	-0.029555306
159	0x3d26d8a2	0.04073394
160	0xbcf05ffb	-0.029342642
161	0x3c50a14d	0.01273377
162	0x3c78f797	0.015195749
163	0x3cb73dab	0.022368273
164	0x3d751dfc	0.05984305
165	0xbde407a2	-0.11134268
166	0x3d80293b	0.06257864
167	0xbe2814a4	-0.16414124
168	0xbe85ef21	-0.26159003
169	0x3d1a4f5d	0.037673343
170	0xbd58f383	-0.052966606
171	0x3de6353c	0.112406224
172	0x3e129392	0.14314106
173	0x3d7e9acd	0.06215935
174	0xbd1d9e19	-0.03848085
175	0xbd658af0	-0.056040704
176	0x3dc7b42e	0.097511634
177	0x3d141432	0.036152072
178	0x3e40974c	0.18807715
179	0xbe83f0dc	-0.257697
180	0xbd491e2b	-0.049101036
181	0x3d9d232f	0.07672726
182	0xbdc9bf76	-0.098509714
183	0xbe8cd307	-0.2750475
184	0x3e1360c9	0.1439239
185	0xbe02f4a3	-0.12788634
186	0x3e007b6d	0.12547083
187	0xbe9aa460	-0.30203533
188	0xbbc7c249	-0.0060961586
189	0xbc49d5f3	-0.012319076
190	0xbcaa64c7	-0.020800008
191	0x3cc312e8	0.023812726
192	0x3e6dc6f6	0.23220429
193	0xbc47baf0	-0.0121905655
194	0x3dd20b34	0.10256043
195	0xbd23f883	-0.04003192
196	0x3dacc2a4	0.08435562
197	0x3e4e46f0	0.20144248
198	0x3e02ba8f	0.12766479
199	0xbdfb95d0	-0.12284434
200	0x3c0e99d4	0.008703668
201	0xbe4fd9be	-0.20297906
202	0x3c89b0fa	0.016808022
203	0x3df2e2cb	0.118596636
204	0xbda91936	-0.08256762
205	0xbe33a771	-0.17544343
206	0x3e2c9bb8	0.16856277
207	0xbca90ace	-0.020635035
208	0x3e1c8ecd	0.15288849
209	0xbdb2becf	-0.087278
210	0x3df25e76	0.11834423
211	0x3e411f91	0.18859698
212	0xbd76ae7c	-0.060224995
213	0x3e4d114b	0.20026128
214	0xbc22c1ae	-0.009933872
215	0x3d52864e	0.051397614
216	0x3dc7361c	0.097271174
217	0xbdc64df5	-0.09682838
218	0x3e292566	0.16518173
219	0x3e3e6a33	0.185952
220	0xbdfcb5b3	-0.12339344
221	0x3e816e0c	0.25279272
222	0x3e18d226	0.14923915
223	0xbd888c76	-0.06667416
224	0xbd51ad7e	-0.051190846
225	0x3a74afd6	0.0009334063
226	0x3c6c6405	0.014428143
227	0x3e653d9a	0.2238678
228	0x3d8f36f4	0.06992903
229	0xbc5e4bc7	-0.013567871
230	0x3cff35b1	0.031153532
231	0xbca96b8c	-0.020681165
232	0x3d395be9	0.045253668
233	0xbeb51479	-0.35367182
234	0x3e9c34e0	0.3050909
235	0x3e3d4faa	0.1848742
236	0xbc8ffa52	-0.017575417
237	0xbd0e1d4f	-0.03469592
238	0x3d7352df	0.059405204
239	0x3d9a3495	0.075295605
240	0x3d98c5ae	0.074595794
241	0xbd565835	-0.052330215
242	0x3e1f1ebb	0.15539066
243	0x3e706134	0.2347458
244	0xbda948d1	-0.08265842
245	0xbd93ecd6	-0.07222907
246	0x3dbb2530	0.09137952
247	0xbd911a64	-0.07085112
248	0xbded833b	-0.11597296
249	0x3e5b6090	0.21423554
250	0x3cf3b125	0.029747555
251	0x3e0850ba	0.13312045
252	0xbcc5677b	-0.024097195
253	0xbbc3b2c4	-0.0059722383
254	0x3e1c08d2	0.1523774
255	0x3c7f1892	0.015569823

bn2.weight f4 [300]
0	0x40262a91	2.596348
1	0x3fe47725	1.784886
2	0x3edf0f0a	0.4356616
3	0x401f7065	2.491235
4	0x3f431e99	0.76218563
5	0x40443db8	3.066267
6	0x3f5d378e	0.86412895
7	0x3f31351d	0.6922167
8	0x3ea20b69	0.3164933
9	0x3f4a3f60	0.7900295
10	0x3f8f5eed	1.1200844
11	0x3f0a0fc5	0.5393031
12	0x3f885ff4	1.0654283
13	0x3f0cf0df	0.5505504
14	0x3f785417	0.9700331
15	0x3f676497	0.9038786
16	0x3f3888b0	0.7208357
17	0x40459c7d	3.0876763
18	0x402c124e	2.6886172
19	0x3fcfccfb	1.623443
20	0x3efa5538	0.48893142
21	0x3f13c91b	0.5772874
22	0x3fee8df6	1.8637073
23	0x4008e98c	2.1392546
24	0x40178941	2.3677523
25	0x400aec53	2.170674
26	0x3fd03ef6	1.6269214
27	0x3f158d3c	0.5841863
28	0x4002aa22	2.041634
29	0x3faa1e3f	1.329048
30	0x3f233142	0.63747036
31	0x3fb6823f	1.4258498
32	0x3f88b1d2	1.0679266
33	0x3fbf8c31	1.4964658
34	0x4052358c	3.2845182
35	0x3fa72f5f	1.3061332
36	0x4049b514	3.1516771
37	0x406365a2	3.5530782
38	0x3f64ec85	0.894234
39	0x3f4cda9a	0.8002106
40	0x3f8c9877	1.0984029
41	0x3f80a000	1.0048828
42	0x3ecf4083	0.40478906
43	0x3fabeee7	1.3432282
44	0x40395acb	2.8961666
45	0x4019f7cf	2.40575
46	0x4021692b	2.522044
47	0x401becf6	2.436338
48	0x3f5c5c3a	0.86078227
49	0x3f3fe295	0.7495511
50	0x3f54866b	0.83017606
51	0x4025ee5d	2.5926735
52	0x4009f29e	2.1554332
53	0x3e3eddf5	0.18639357
54	0x3fbda074	1.4814591
55	0x400c8296	2.1954703
56	0x3f314e2f	0.69259924
57	0x3fb1dbbb	1.3895181
58	0x4037554a	2.8645806
59	0x3e8dc276	0.27687424
60	0x3fcec8a7	1.6154984
61	0x4052ccab	3.293742
62	0x4049716a	3.1475472
63	0x3f47e934	0.78090215
64	0x3fa032df	1.2515525
65	0x3faeaced	1.3646523
66	0x3fd49161	1.6606866
67	0x3fe1f01c	1.76514
68	0x3f77b19e	0.967554
69	0x3f379b28	0.71721125
70	0x3fc39d0f	1.5282305
71	0x3ea12093	0.31470165
72	0x3f662fa5	0.8991645
73	0x3fa7222d	1.3057305
74	0x3fcab7bc	1.5837321
75	0x3f6370a1	0.88843733
76	0x3fd40001	1.6562501
77	0x3fbde515	1.4835535
78	0x4027c0a0	2.621132
79	0x3fe46f35	1.7846438
80	0x3f2ebdd0	0.6825838
81	0x3dd60f88	0.10452181
82	0x4015278c	2.3305387
83	0x3e5851aa	0.21124902
84	0x3fc257e5	1.5183073
85	0x4009a761	2.150841
86	0x3fae7840	1.3630447
87	0x3f53f18d	0.8279045
88	0x3f95a547	1.1691064
89	0x402110d3	2.5166519
90	0x3e527d75	0.2055567
91	0x3fe65109	1.799348
92	0x3f4bbc40	0.7958412
93	0x3fdca7eb	1.7238744
94	0x4024168f	2.5638769
95	0x3faee65c	1.366405
96	0x3f64f0e8	0.89430094
97	0x402b52d0	2.6769295
98	0x3faeeeb5	1.3666598
99	0x3e72ee40	0.23723698
100	0x3f381f2f	0.7192258
101	0x3fddc351	1.7325231
102	0x3fdde28f	1.7334765
103	0x3f97f692	1.1872122
104	0x3f213cfa	0.6298367
105	0x3f9fb11e	1.2475927
106	0x3fbfc0c1	1.4980699
107	0x3fe5700f	1.7924823
108	0x3f8936bb	1.0719827
109	0x3fb9225f	1.4463614
110	0x3fe4757f	1.7848357
111	0x4002ca42	2.0435948
112	0x3f5ad91c	0.8548753
113	0x3fa2a765	1.2707335
114	0x3f2fd1cb	0.68679494
115	0x3fd2e130	1.6474972
116	0x3fa05c8c	1.2528243
117	0x3f84cec7	1.0375603
118	0x403b44fd	2.9260857
119	0x401fb7f5	2.4956028
120	0x400283f0	2.0393028
121	0x3ff45bb1	1.9090482
122	0x3fd14384	1.6348729
123	0x3f8f463e	1.1193311
124	0x3f2fcb88	0.6866994
125	0x4009b9f9	2.1519759
126	0x3f4376d4	0.7635319
127	0x3f285450	0.6575365
128	0x3fd0d444	1.6314778
129	0x3fd74ed9	1.6820937
130	0x3fb17253	1.3863014
131	0x3ffa68f1	1.9563276
132	0x3fe2021e	1.7656896
133	0x3fa2c692	1.2716849
134	0x3fc7dedf	1.561489
135	0x3f85b66c	1.0446296
136	0x3f2e5a35	0.68106395
137	0x3fac87f5	1.3478991
138	0x3fdb9bfa	1.7156975
139	0x3f998c7b	1.1995996
140	0x3fcf19d6	1.617976
141	0x3f7de634	0.9917939
142	0x3f855baa	1.0418599
143	0x3fd3a4bc	1.6534648
144	0x3f40ddca	0.75338423
145	0x3f142849	0.5787397
146	0x4020dac0	2.5133514
147	0x4044f86b	3.0776622
148	0x3fb84bc8	1.4398127
149	0x3fec4cc6	1.8460929
150	0x3f953d45	1.1659323
151	0x3f94c443	1.1622394
152	0x3f6409fd	0.8907774
153	0x3fd91e51	1.6962377
154	0x3f584214	0.8447583
155	0x4007120b	2.1104763
156	0x3f971ba2	1.1805308
157	0x3fbf170c	1.4928908
158	0x3fb9da8f	1.4519824
159	0x3fa952bf	1.3228377
160	0x402d26c6	2.7054915
161	0x3f4c7d07	0.79878277
162	0x400910ca	2.1416497
163	0x3f328fa5	0.69750434
164	0x3f4bcaa8	0.79606104
165	0x3f7f9a54	0.9984486
166	0x3fe42f8f	1.7827014
167	0x3f9550dc	1.1665301
168	0x401207f3	2.2817352
169	0x3fbf7b38	1.4959478
170	0x3faf3558	1.3688154
171	0x3e7933be	0.24336144
172	0x3f488d75	0.78340846
173	0x40148bae	2.3210254
174	0x403bc545	2.9339154
175	0x3e550a58	0.20804727
176	0x3fcd1bd0	1.6024113
177	0x3fdccf3b	1.7250742
178	0x400df291	2.21793
179	0x4010a0d3	2.259816
180	0x3fb8e81b	1.4445833
181	0x3f9f7929	1.245885
182	0x3e9875cc	0.29777372
183	0x406f1c0f	3.7360876
184	0x3fdd5d52	1.7294104
185	0x3fa37e5c	1.2772937
186	0x3fd70f1e	1.6801488
187	0x40565210	3.3487587
188	0x3f80f7b9	1.0075599
189	0x3ff11b1b	1.8836397
190	0x3fb7de50	1.4364719
191	0x3fbbb1e5	1.4663664
192	0x4002ecf2	2.045712
193	0x3ff66130	1.9248409
194	0x3fa3015d	1.2734791
195	0x3f824d6d	1.0179878
196	0x3fa73db5	1.3065706
197	0x3f40f0ea	0.75367606
198	0x3fd1b4e3	1.6383327
199	0x40092633	2.1429565
200	0x3f10cf06	0.5656589
201	0x403b447e	2.9260554
202	0x4004c832	2.074719
203	0x3fbf2417	1.4932889
204	0x40449e65	3.0721676
205	0x3fe55d4f	1.79191
206	0x3fab428b	1.3379682
207	0x3f062ecc	0.52415156
208	0x3fa82940	1.3137589
209	0x3faf9f46	1.3720481
210	0x3fb177a5	1.3864638
211	0x3fdb2f86	1.7123878
212	0x3fb99371	1.449812
213	0x3e4d4199	0.20044555
214	0x3ec415ba	0.38297826
215	0x3ff633bd	1.9234539
216	0x3f828a2a	1.0198414
217	0x3ee3ae17	0.44468758
218	0x3f744e8f	0.9543237
219	0x3d8cf472	0.06882562
220	0x3f497f4d	0.7870987
221	0x3f73219f	0.94973177
222	0x3ef15406	0.47134417
223	0x3f39265d	0.7232416
224	0x3ea9fdaa	0.33201343
225	0x40292733	2.6430175
226	0x3fcdc2d2	1.607508
227	0x3f8cf7f1	1.1013166
228	0x3fa800f3	1.312529
229	0x3f0cda8d	0.5502098
230	0x40212dbe	2.518417
231	0x404217bb	3.0326984
232	0x3fa210d5	1.2661387
233	0x40311aa0	2.76725
234	0x3f6453cb	0.8919036
235	0x40398aca	2.899096
236	0x3fd78d9f	1.6840094
237	0x3f6c2673	0.9224617
238	0x3f9296d0	1.1452274
239	0x403efd3f	2.984207
240	0x3fca2757	1.5793256
241	0x400cf94d	2.202716
242	0x3e8bb6b3	0.27287826
243	0x3f997f42	1.1991961
244	0x3fe53a1c	1.7908359
245	0x3ee0b49d	0.43887797
246	0x3f6b51e9	0.9192186
247	0x3ff02077	1.8759907
248	0x3f636fe7	0.88842624
249	0x3f55eca8	0.83564234
250	0x3f7ffb06	0.99992406
251	0x3fb123dd	1.383907
252	0x3f7db1fb	0.990997
253	0x3fd6d417	1.6783475
254	0x3fb94333	1.4473633
255	0x4021e2f2	2.5294766
