experiments/LunarLanderContinuous-v2/luna_v2/saves/target_pi_network.pth (torch_old, 505222 bytes, 10 tensors)

fc1.weight f4 [400, 8]
0.040264554 0.027203713 -0.036399443 -0.009375293 0.047930796 0.051849872 0.053057835 -0.004338485
0.094593346 -0.0323572 0.077752195 -0.018568894 -0.08260281 -0.05761941 -0.041554324 0.04215958
-0.027930152 -0.00278954 -0.13824143 0.0077422825 0.032939263 -0.09098354 -0.08308754 0.003239521
0.01738635 0.030163996 -0.07505023 0.074560866 0.10736444 0.009930066 0.053066798 0.0318296
0.051279575 0.042833425 -0.02207192 -0.013248548 0.05620001 0.05869524 0.0003279842 -0.010962708
-0.10801256 0.06449394 -0.0015592815 -0.026212737 0.11423123 0.055053588 0.047526933 -0.13875921
-0.012171714 0.061396156 -0.010013633 0.04473162 0.06536989 -0.034036037 0.06295023 -0.041818872
-0.04577246 0.018221596 -0.1141001 0.13604403 0.16354153 -0.00495313 -0.1173533 -0.009420875
-0.0076261978 0.02779931 0.05065249 0.03558978 0.014473512 -0.047974404 -0.055369202 0.044353005
0.043265224 0.16177937 0.029765932 -0.05064659 -0.01605957 0.07023549 0.061148103 -0.0317742
-0.029389532 -0.058294002 -0.083320156 0.13474277 0.019156467 -0.01495562 -0.046094447 0.13385642
-0.028046004 0.054447994 0.0154198855 0.03345985 0.04423425 0.07264883 0.021310633 0.010328457
-0.04800166 0.045975566 -0.089614436 0.17577055 0.014504234 0.07962351 -0.110719725 0.015478056
0.05358939 -0.012699818 0.01064485 0.18141076 -0.1102147 -0.14538816 0.04561171 -0.15499417
0.06198155 0.05152463 0.046918612 -0.01747573 -0.05141546 -0.022514025 -0.026629316 0.08956594
0.040429834 -0.053058337 -0.03326963 -0.0073583284 -0.20024066 -0.112209015 -0.009357783 0.0064996975
-0.0015106569 0.028875928 0.0103999125 -0.0014255618 -0.24631941 -0.097691216 -0.041961998 0.086040474
0.023817193 0.11605525 -0.0013375704 -0.028373493 0.008948139 0.06417254 0.105941355 -0.025941735
-0.08123264 0.036585912 -0.020562215 -0.021155596 -0.10968127 -0.011616098 -0.061472725 0.032236546
-0.0076669822 -0.048902296 -0.13520181 -0.01968805 -0.012224439 0.10493623 0.0006339319 0.0883933
0.00930932 0.015850365 0.07746711 -0.034139525 -0.012218407 -0.048397657 -0.043978915 0.0022906384
0.092025094 -0.005256465 0.027915765 -0.059701994 0.03316382 -0.030195322 -0.13523607 0.016631378
0.06878253 -0.040977776 0.04380381 -0.046849933 -0.06642277 -0.08669112 0.029126998 0.056928042
-0.08374443 -0.026551653 0.111592114 0.020882258 -0.12223354 -0.0784328 0.019620778 0.009875856
-0.04046802 0.026892731 -0.09435683 0.009558309 0.052666683 0.035950515 0.1128228 -0.03115782
-0.013159691 -0.0365171 0.05529549 -0.040374115 0.063184984 0.11444565 0.05252296 0.0102785025
-0.029435758 0.050541367 0.039820325 0.0099111125 0.014034672 -0.056490205 0.10106765 0.010243298
0.029649898 0.0047077904 -0.044000104 0.19076335 -0.11234664 -0.07290995 0.0061726365 0.03593479
-0.08223395 -0.054283034 -0.03819255 -0.045783024 0.1543921 0.080126785 -0.047975283 0.0005532487
0.043014985 0.01953299 0.041622512 -0.007107994 -0.13725203 -0.06645169 -0.06047225 -0.11748799
0.07629329 0.05994124 -0.021660784 0.019276178 -0.08508278 -0.19260643 -0.041458942 0.060615554
-0.0044944654 -0.11873415 0.019268526 -0.020890975 0.03422436 -0.06364652 -0.013657927 0.08289633
00000000: 72ec 243d 52da de3c 9517 15bd d49a 19bc
00000010: 1553 443d 8860 543d 2c53 593d da29 8ebb
00000020: 28ba c13d fc88 04bd 8b3c 9f3d cb1d 98bc
00000030: a92b a9bd 5502 6cbd de34 2abd 86af 2c3d
00000040: c6cd e4bc b7d0 36bb 298f 0dbe f9b2 fd3b
00000050: 52eb 063d 9455 babd cd29 aabd 254e 543b
00000060: d26d 8e3c 7c1a f73c efb3 99bd 5eb3 983d
00000070: e3e1 db3d b7b1 223c 925c 593d c15f 023d
00000080: 880a 523d 1a72 2f3d 2cd0 b4bc 7010 59bc
00000090: fb31 663d 6c6a 703d 4bf5 ab39 ee9c 33bc
000000a0: b035 ddbd 6615 843d ce60 ccba 18bc d6bc
000000b0: 10f2 e93d df7f 613d 9aab 423d e516 0ebe
000000c0: de6b 47bc 897a 7b3d 3910 24bc 8138 373d
000000d0: a6e0 853d 5f69 0bbd 0dec 803d 444a 2bbd
000000e0: e77b 3bbd 7545 953c 50ad e9bd 204f 0b3e
000000f0: 6e77 273e de4d a2bb ed56 f0bd 045a 1abc
00000100: 2fe5 f9bb 61bb e33c fc78 4f3d 97c6 113d
00000110: 4f22 6d3c cf80 44bd d1ca 62bd 7fab 353d
00000120: e036 313d 7ea9 253e afd7 f33c cc72 4fbd
00000130: 5c8f 83bc a0d7 8f3d 6f76 7a3d aa25 02bd
00000140: 51c2 f0bc b1c5 6ebd c2a3 aabd 02fa 093e
00000150: 06ee 9c3c 6b08 75bc 88cd 3cbd a811 093e
00000160: bcc0 e5bc dc04 5f3d b0a3 7c3c 320d 093d
00000170: f92e 353d e9c8 943d a393 ae3c b038 293c
00000180: 639d 44bd e050 3c3d c687 b7bd 32fd 333e
00000190: 2ba3 6d3c a711 a33d 06c1 e2bd ac97 7d3c
000001a0: 8c80 5b3d e612 50bc bd67 2e3c bec3 393e
000001b0: 3fb8 e1bd a2e0 14be 58d3 3a3d cbb6 1ebe
000001c0: 5ee0 7d3d 7e0b 533d bb2d 403d 4329 8fbc
000001d0: 0499 52bd 556f b8bc b925 dabc 596e b73d
000001e0: c199 253d b353 59bd bc45 08bd 221e f1bb
000001f0: e30b 4dbe d7cd e5bd 6351 19bc 6afb d43b
00000200: 3c01 c6ba 368d ec3c 6564 2a3c ebd9 baba
00000210: 283b 7cbe 5512 c8bd 58e0 2bbd fd35 b03d
00000220: 461c c33c 60ae ed3d 6a51 afba 876f e8bc
00000230: 379b 123c e56c 833d c8f7 d83d c383 d4bc
00000240: 4c5d a6bd 1cdb 153d 1772 a8bc 804e adbc
00000250: 93a0 e0bd 7251 3ebc d3ca 7bbd 780a 043d
00000260: 4f3b fbbb c64d 48bd 5872 0abe d548 a1bc
00000270: 0349 48bc cee8 d63d 732e 263a 8c07 b53d
00000280: 1e86 183c a0d8 813c 13a7 9e3d e3d5 0bbd
00000290: b72f 48bc 9f3c 46bd 3c23 34bd 891e 163b
000002a0: a777 bc3d 6d3e acbb 9aaf e43c 148a 74bd
000002b0: c9d6 073d 2e5c f7bc 537b 0abe 873e 883c
000002c0: dbdd 8c3d 50d8 27bd a06b 333d b7e5 3fbd
000002d0: a908 88bd 1d8b b1bd be9b ee3c 612d 693d
000002e0: 3382 abbd da82 d9bc 688a e43d 4511 ab3c
000002f0: 9455 fabd 60a1 a0bd c1bb a03c 58ce 213c
00000300: cbc1 25bd 254e dc3c 273e c1bd 749a 1c3c
00000310: 05b9 573d d940 133d a40f e73d af3e ffbc
00000320: bf9b 57bc f492 15bd 867d 623d 545f 25bd
00000330: 2167 813d 7b62 ea3d 5122 573d 2a67 283c
00000340: 4223 f1bc 7704 4f3d a31a 233d 3862 223c
00000350: aef1 653c 4662 67bd 8efc ce3d 81d3 273c
00000360: 58e4 f23c cf43 9a3b 7439 34bd 7857 433e
00000370: ff15 e6bd d051 95bd d443 ca3b 5c30 133d
00000380: 466a a8bd e357 5ebd cb6f 1cbd fb86 3bbd
00000390: f618 1e3e 8319 a43d bb81 44bd e407 113a
000003a0: 7b30 303d a603 a03c 5e7c 2a3d 2dea e8bb
000003b0: cc8b 0cbe d317 88bd c0b1 77bd 8b9d f0bd
000003c0: a83f 9c3d f284 753d f571 b1bc 13e9 9d3c
000003d0: e13f aebd 9f3a 45be dad0 29bd 0448 783d
000003e0: 4f46 93bb e42a f3bd 07d9 9d3c 8d23 abbc
000003f0: d82e 0c3d 1b59 82bd 7fc5 5fbc 8dc5 a93d

fc1.bias f4 [400]
0.043438554 0.022852603 -0.0042650052 -0.03747379 0.041779645 0.017398415 -0.05911517 0.051296707
0.03430311 0.1955077 0.03322282 0.01144985 -0.026263358 -0.03588918 0.058144107 0.022052413
0.03397573 0.124478325 -0.044299144 0.04333251 0.048498575 0.013492818 0.034498498 -0.01991871
-0.04991421 0.027603764 0.088792555 0.033539444 0.022081513 0.030191999 -0.01794362 0.049232136
0.018595643 0.020985903 -0.035335913 0.031904582 0.015003808 0.019043492 0.05950988 -0.010024495
0.01685622 -0.07647401 0.0066717095 0.0056420686 -0.013899427 0.022835122 -0.006108095 0.029630529
-0.041790213 0.0070684785 -0.026790265 -0.06464605 0.028764347 0.036871653 0.026364973 -0.015663061
0.17705873 -0.03266545 -0.035087153 -0.026345924 -0.025428379 -0.02085834 -0.031601463 -0.011974602
-0.06645692 0.014505883 0.042094134 0.04305031 -0.00453487 0.0067936955 -0.021009058 -0.0042638425
0.04316742 0.0041437806 0.05485006 -0.030599324 -0.030099075 0.026575081 -0.022411272 -0.007015623
0.025282694 0.008319821 0.086858094 -0.04890275 0.003527237 0.035889305 0.19777569 0.03490363
0.013039327 -0.016414922 0.009311473 0.042831097 0.018421527 0.0016970176 0.03773582 0.04187396
0.045419395 0.051623896 0.00097646884 0.013127207 0.032423913 -0.013076904 0.019889224 0.022984475
0.040853407 0.0011670344 0.02557348 0.008784639 0.011856555 0.0046488517 -0.011458449 0.08420594
0.09026796 0.0115568815 0.027563326 -0.02588747 0.01389556 0.037998825 0.0509498 0.032153204
-0.010572091 0.073938414 0.017978601 0.05257707 -0.00623406 -0.014897137 0.048151605 -0.10222377
0.041124724 0.055742003 -0.0002947213 0.038712263 0.11768463 0.043366197 0.045592874 -0.010103859
0.0005475355 0.011749536 0.036538284 -0.04632119 -0.017183244 -0.029296892 -0.054927886 -0.031102879
-0.001131922 0.030363683 -0.03530499 -0.03519668 0.022556629 0.006572148 0.04885967 -0.0796742
0.04040596 0.00037462733 0.038262166 -0.055716507 0.03446227 -0.0065603214 0.051912617 -0.0032779763
0.035377104 -0.05325677 -0.0028057636 0.024430925 0.029152632 0.018736418 0.015286067 -0.023109384
0.02682075 0.029124111 -0.049809583 0.013822442 0.031115334 0.016908046 0.08756834 0.12900549
0.019266965 0.04322472 0.024910089 0.1050308 -0.014094295 -0.005533317 0.06128888 -0.032752242
0.05497749 0.043162387 -0.007113994 0.0951366 0.044079177 0.05131058 0.025908293 0.027037097
0.017548949 -0.03935425 0.05199976 -0.02599636 0.06377413 -0.02374054 0.048771713 0.037888262
0.063531674 0.02262639 0.04761344 0.045457978 -0.031922266 0.009510189 -0.021324173 -0.015280481
0.011094098 -0.04717501 -0.016694136 0.019745037 -0.015924694 0.008049547 -0.05655166 0.03498671
-0.031814106 -0.022094853 -0.02897372 0.10540879 0.07654647 0.018107563 0.030318636 0.04746934
0.058827985 0.017301727 -0.013906034 0.013265102 0.025601119 -0.012263485 -0.052049864 -0.008054133
0.038383905 -0.0147666205 0.024046019 -0.01636148 -0.029912673 0.010537076 0.037822276 -0.0018742352
0.042723253 0.00058102683 0.09542495 0.043577228 -0.06536953 0.09645325 0.055202737 0.07221588
0.036259335 -0.02991833 0.012971371 0.0042382525 -0.04023942 0.07864584 0.02818436 -0.0060569984
00000000: a0ec 313d 6235 bb3c 75c1 8bbb 1e7e 19bd
00000010: 2221 2b3d 1f87 8e3c c022 72bd 7f1c 523d
00000020: 6b81 0c3d 2c33 483e a714 083d 2798 3b3c
00000030: 4126 d7bc 8800 13bd 8428 6e3d 43a7 b43c
00000040: 232a 0b3d 7eee fe3d 0573 35bd 6e7d 313d
00000050: 71a6 463d fb10 5d3c 4c4e 0d3d 902c a3bc
00000060: d872 4cbd 4a21 e23c dfd8 b53d a860 093d
00000070: 4ae4 b43c 3655 f73c 80fe 92bc a3a7 493d
00000080: e455 983c a1ea ab3c 64bc 10bd 61ae 023d
00000090: 88d2 753c 1901 9c3c a2c0 733d c83d 24bc
000000a0: 0e16 8a3c 689e 9cbd 5b9e da3b 1ae1 b83b
000000b0: 6cba 63bc b910 bb3c 6a26 c8bb b9bb f23c
000000c0: 372c 2bbd b29e e73b 4277 dbbc 2665 84bd
000000d0: 35a3 eb3c bb06 173d 5bfb d73c d24f 80bc
000000e0: e24e 353e 35cc 05bd 8cb7 0fbd 68d3 d7bc
000000f0: 2d4f d0bc 1cdf aabc 8970 01bd 1f31 44bc
00000100: 911a 88bd 15aa 6d3c e66a 2c3d 8655 303d
00000110: 3f99 94bb a69d de3b 301b acbc b4b7 8bbb
00000120: 52d0 303d 8dc8 873b 75aa 603d 6fab fabc
00000130: 5692 f6bc fcb3 d93c d897 b7bc 50e3 e5bb
00000140: a71d cf3c dc4f 083c a8e2 b13d 404e 48bd
00000150: 3829 673b aa00 133d b685 4a3e 1cf7 0e3d
00000160: e7a2 553c 9678 86bc 268f 183c a96f 2f3d
00000170: bee8 963c 766e de3a e090 1a3d 0884 2b3d
00000180: b009 3a3d 9473 533d b7f9 7f3a 7f13 573c
00000190: f0ce 043d 8340 56bc baee a23c f049 bc3c
000001a0: e755 273d 2df7 983a 7a7f d13c 72ed 0f3c
000001b0: ff41 423c 6555 983b 38bc 3bbc 2a74 ac3d
000001c0: 69de b83d 1359 3d3c 7ccc e13c f611 d4bc
000001d0: 34aa 633c a8a4 1b3d bdb0 503d 14b3 033d
000001e0: 9036 2dbc 066d 973d dc47 933c 0e5b 573d
000001f0: 1647 ccbb 1f13 74bc 9e3a 453d b25a d1bd
00000200: 6672 283d ba51 643d d384 9ab9 c090 1e3d
00000210: a404 f13d c1a0 313d 98bf 3a3d a88a 25bc
00000220: 7c88 0f3a 2081 403c 2ba9 153d 4abb 3dbd
00000230: e0c3 8cbc 0900 f0bc 10fc 60bd 77cb febc
00000240: 005d 94ba 42bd f83c f79b 10bd 652a 10bd
00000250: aec8 b83c 2c5b d73b 1421 483d 3a2c a3bd
00000260: b880 253d a169 c439 cab8 1c3d fe36 64bd
00000270: 4f28 0d3d f7f7 d6bb 53a2 543d 51d3 56bb
00000280: 95e7 103d c523 5abd e7e0 37bb 5d23 c83c
00000290: 80d1 ee3c 1e7d 993c 6972 7a3c e44f bdbc
000002a0: 31b7 db3c b095 ee3c 2205 4cbd 8677 623c
000002b0: 96e5 fe3c be82 8a3c 0857 b33d 041a 043e
000002c0: c1d5 9d3c 670c 313d 3e10 cc3c 631a d73d
000002d0: c2eb 66bc d450 b5bb 0c0a 7b3d 3727 06bd
000002e0: 1430 613d 0bcb 303d 821c e9bb fad6 c23d
000002f0: 5e8c 343d 0b2b 523d a13d d43c e77c dd3c
00000300: d0c2 8f3c ec31 21bd b3fd 543d 52f6 d4bc
00000310: 039c 823d 857b c2bc d9c4 473d b930 1b3d
00000320: e51c 823d fb5a b93c 4f06 433d 2532 3a3d
00000330: ecc0 02bd a0d0 1b3c 08b0 aebc fc5a 7abc
00000340: 05c4 353c 953a 41bd 24c2 88bc 58c0 a13c
00000350: 8174 82bc 3fe2 033c b7a2 67bd 394e 0f3d
00000360: 824f 02bd 4400 b5bc 4b5a edbc 90e0 d73d
00000370: 65c4 9c3d 5056 943c ca5e f83c 366f 423d
00000380: 9df5 703d 5abc 8d3c 22d6 63bc df55 593c
00000390: 70b9 d13c c9ec 48bc 3d32 55bd 7bf5 03bc
000003a0: 7138 1d3d b2ef 71bc 28fc c43c 8308 86bc
000003b0: 6c0b f5bc b3a3 2c3c 88eb 1a3d e6a8 f5ba
000003c0: 94fe 2e3d 0d50 183a 286e c33d 097e 323d
000003d0: 76e0 85bd 4889 c53d 441c 623d ebe5 933d
000003e0: ab84 143d 4917 f5bc e085 543c 0ae1 8a3b
000003f0: 17d2 24bd 1211 a13d e3e2 e63c c979 c6bb

bn1.weight f4 [400]
0.63417107 1.0981675 0.9748312 1.1725118 0.6342579 0.83535665 1.1321651 0.95332694
0.72230464 0.25610378 1.2138205 0.81253964 1.1168714 1.3863789 0.529296 1.1469324
1.0051478 0.44266912 1.1335964 0.95030886 0.7677645 0.9963337 0.9189436 1.1551007
1.0404406 1.0078189 0.5526576 1.0955547 0.98621136 0.82162064 0.9964834 1.1352986
0.9033013 1.1047577 1.1833483 0.85013306 0.94646853 1.1696402 0.56695205 0.97292924
1.0186968 1.3295887 0.93386704 1.0555393 1.1814897 1.2482706 0.9291599 1.135831
1.1683973 1.1889826 0.91217774 1.0959626 0.89718556 1.1294259 0.8486696 1.2572874
0.37374926 1.0405917 1.2700934 1.0824059 1.1426767 0.9499427 1.2972586 1.1848667
1.3334868 1.1373637 0.65487355 0.62600857 1.3607441 1.1693845 1.2125427 0.8793519
0.64424527 0.6739726 0.5269958 1.0374287 1.121951 0.8790818 1.1290153 1.0998902
0.84925884 1.139622 0.41075438 1.1425552 1.0789074 1.0578214 0.22789024 1.0128452
0.95374745 1.1592245 1.1059391 0.8466876 1.0655109 1.0177029 1.0403239 0.6885455
0.6249065 1.0865201 1.0724328 1.0780742 0.9477062 1.0605221 0.9246256 1.0839113
0.7360635 1.1817615 0.9935642 1.1146408 0.9653669 1.0883373 1.0630529 0.47296304
0.49321866 1.2675751 1.0296701 1.2329396 1.1670085 1.0194088 1.1255361 1.0316937
1.0265615 0.42974293 1.1004683 0.5990054 1.0707027 1.0108011 0.6198329 1.476967
0.7573809 0.53137785 1.1112608 1.0815979 0.42229936 0.83234584 0.7370835 1.098515
1.0616171 1.1114037 0.83791226 1.2376941 1.2993481 1.1198204 1.0762305 0.9560143
1.1733264 0.9575562 1.2500077 0.9484322 0.9417687 0.90313673 0.9277748 1.1939349
0.803849 1.2602768 0.6514311 1.1120661 1.0608627 1.0357566 0.6505426 1.0741996
0.8558019 1.1685631 0.99724644 0.85892695 0.7036675 1.0797874 1.076254 1.4139538
1.0072714 0.75446844 1.2450987 0.96438164 0.9769462 1.2454102 0.45364544 0.3570761
1.1514871 0.7064502 0.94533944 0.36849663 1.0470892 0.9648653 0.48966867 1.0600865
0.8666048 0.9603587 0.94573605 0.45332834 0.75595385 0.53870577 1.1630387 0.81603456
1.0007764 0.9466966 0.5948467 1.0937368 1.0367681 0.8489893 0.56393564 0.7751687
0.46193033 1.0718802 0.80775374 0.58406544 1.132225 0.9217217 1.1595184 1.2344527
0.8989828 0.93904406 1.0652683 1.0565326 1.1631976 0.8845785 1.3198254 0.91003376
1.2693323 1.2715304 1.0795689 0.37475613 0.45303336 0.9044056 0.7789438 0.6556319
1.0060053 0.8978226 0.9252502 1.0343838 0.79373884 0.9786197 1.4034078 0.9006431
0.80332327 1.1518909 1.2297229 1.2456788 0.8205131 1.098762 1.0080813 1.0338793
0.8962446 1.2240973 0.43268508 0.9332101 1.2238716 0.43169022 1.0541385 0.5105848
0.89372957 1.2202244 0.88219345 1.0122797 1.0114137 0.43955687 0.74208015 1.147196
00000000: 0959 223f c190 8c3f 8a8e 793f de14 963f
00000010: ba5e 223f efd9 553f c9ea 903f 3c0d 743f
00000020: f5e8 383f 0920 833e 785e 9b3f 9902 503f
00000030: a4f5 8e3f dd74 b13f f17f 073f aece 923f
00000040: afa8 803f 87a5 e23e b019 913f 7147 733f
00000050: 378c 443f ba0f 7f3f e33f 6b3f 57da 933f
00000060: 282d 853f 3600 813f f87a 0d3f 233b 8c3f
00000070: 5978 7c3f bb55 523f 8919 7f3f 7751 913f
00000080: c13e 673f b368 8d3f f577 973f 52a2 593f
00000090: c34b 723f c5b6 953f c523 113f e411 793f
000000a0: a864 823f f62f aa3f e911 6f3f e91b 873f
000000b0: 0e3b 973f 55c7 9f3f 6cdd 6d3f e962 913f
000000c0: 0b8e 953f 9530 983f 7b84 693f 8148 8c3f
000000d0: f4ad 653f 0791 903f 6942 593f cbee a03f
000000e0: 105c bf3e 1c32 853f 6c92 a23f 478c 8a3f
000000f0: 3b43 923f 722f 733f 920c a63f b6a9 973f
00000100: b2af aa3f 2295 913f cba5 273f 1942 203f
00000110: dd2c ae3f 64ae 953f 9934 9b3f 351d 613f
00000120: 42ed 243f 7889 2c3f 32e9 063f 77ca 843f
00000130: 179c 8f3f 810b 613f 9383 903f 34c9 8c3f
00000140: 0769 593f 22df 913f 664e d23e 403f 923f
00000150: a319 8a3f b166 873f 0f5c 693e e9a4 813f
00000160: cb28 743f 7861 943f 6a8f 8d3f 85c0 583f
00000170: a962 883f 1744 823f 5529 853f 8544 303f
00000180: dff9 1f3f 1713 8b3f 7a45 893f 56fe 893f
00000190: e09c 723f 30bf 873f 43b4 6c3f 9bbd 8a3f
000001a0: a86e 3c3f f643 973f 395a 7e3f 8dac 8e3f
000001b0: 4922 773f a34e 8b3f 1e12 883f 3628 f23e
000001c0: 2887 fc3e e73f a23f 3bcc 833f f7d0 9d3f
000001d0: 8960 953f fd7b 823f 9111 903f 8a0e 843f
000001e0: 5e66 833f 4407 dc3e 25dc 8c3f 6b58 193f
000001f0: c90c 893f ee61 813f 5ead 1e3f 410d bd3f
00000200: b7e3 413f 6108 083f cb3d 8e3f cd71 8a3f
00000210: 9f37 d83e 9e14 553f 81b1 3c3f 249c 8c3f
00000220: 12e3 873f 7a42 8e3f 6b81 563f c36c 9e3f
00000230: 0a51 a63f 4656 8f3f ecc1 893f 5abd 743f
00000240: 8f2f 963f 6722 753f 4100 a03f 74cc 723f
00000250: c117 713f f833 673f a682 6d3f dcd2 983f
00000260: 0cc9 4d3f c050 a13f 30c4 263f 2f58 8e3f
00000270: 59ca 873f ac93 843f f689 263f 5f7f 893f
00000280: d515 5b3f 7a93 953f 8b4b 7f3f a3e2 5b3f
00000290: 8e23 343f 7936 8a3f b1c2 893f 70fc b43f
000002a0: 45ee 803f d824 413f 655f 9f3f b7e1 763f
000002b0: 2519 7a3f 9a69 9f3f 3744 e83e aed2 b63e
000002c0: ee63 933f ecd9 343f c401 723f 97ab bc3e
000002d0: 0507 863f 6a01 773f dab5 fa3e eab0 873f
000002e0: d0d9 5d3f 11da 753f c21b 723f a71a e83e
000002f0: 3186 413f 9fe8 093f 74de 943f a4e7 503f
00000300: 7119 803f b55a 723f e047 183f 91ff 8b3f
00000310: d1b4 843f 5d57 593f 165e 103f 7571 463f
00000320: 2282 ec3e 5f33 893f f3c8 4e3f 5085 153f
00000330: c0ec 903f f4f5 6b3f 196b 943f 8c02 9e3f
00000340: bd23 663f 3165 703f b65a 883f 763c 873f
00000350: a9e3 943f bd73 623f 0af0 a83f f9f7 683f
00000360: 7b79 a23f 82c1 a23f 502f 8a3f 09e0 bf3e
00000370: fdf3 e73e 2087 673f dc68 473f 7ed7 273f
00000380: c8c4 803f b4d7 653f 32dd 6c3f b066 843f
00000390: 7832 4b3f d286 7a3f dea2 b33f 8c90 663f
000003a0: 98a6 4d3f 2971 933f 8f67 9d3f 6772 9f3f
000003b0: 260d 523f 3ca4 8c3f cf08 813f 2856 843f
000003c0: 4970 653f 38af 9c3f e688 dd3e dbe6 6e3f
000003d0: d3a7 9c3f 8006 dd3e 03ee 863f afb5 023f
000003e0: 76cb 643f 5030 9c3f 6ed7 613f 6292 813f
000003f0: 0176 813f 990d e13e f7f8 3d3f 52d7 923f

bn1.bias f4 [400]
-0.35802472 -0.047931217 -0.1963826 -0.048201766 -0.33310458 -0.21715471 -0.082169704 -0.13680142
-0.26980817 -0.71491605 -0.07353244 -0.2295609 -0.047979727 -0.015799858 -0.45397395 -0.05468033
-0.03996131 -0.53378856 -0.076095544 -0.12182917 -0.26865906 -0.084943436 -0.13024627 -0.077304825
-0.11257603 -0.105488054 -0.46184695 -0.04970853 -0.15213792 -0.18091834 -0.03165312 -0.018922672
-0.12365975 -0.028248852 -0.019295882 -0.18536118 -0.12432916 -0.15617818 -0.40049908 -0.051680364
-0.07432799 -0.007398492 -0.10371417 -0.10196964 -0.069940604 -0.02968193 -0.09208425 -0.0047325063
-0.08471509 -0.005335369 -0.20663531 -0.09468133 -0.13073954 -0.020363543 -0.20023267 -0.043769073
-0.60521126 -0.1861058 -0.05009406 -0.038596723 -0.11117676 -0.22628519 0.02202377 -0.022956606
-0.10620547 -0.03345571 -0.35723293 -0.3258665 -0.0065635513 -0.016454186 0.0032289154 -0.19517195
-0.3668851 -0.34126836 -0.43383867 -0.05859499 -0.084546335 -0.1593556 -0.02236097 -0.037468083
-0.16489139 -0.07063501 -0.5379328 -0.065270595 -0.029938675 -0.024753474 -0.7235502 -0.055504702
-0.11810107 -0.15049495 -0.06200671 -0.1406418 0.01524672 -0.11415613 -0.049506344 -0.3288462
-0.37653205 0.0037552777 -0.07673527 -0.031478144 -0.07303733 -0.09501003 -0.06841438 -0.13848491
-0.28252962 -0.05969696 -0.13853958 0.0010934399 -0.11871117 0.004183485 -0.044973563 -0.5493161
-0.47762442 -0.021568518 -0.05907023 -0.031424847 -0.09226 -0.034901977 -0.08685171 -0.035631925
-0.07331883 -0.55160475 0.0073871347 -0.42308494 -0.03908417 -0.026616694 -0.41284603 -0.023312626
-0.2411738 -0.49504825 -0.031691298 0.027158573 -0.5737091 -0.24907508 -0.2543145 -0.058052775
-0.065771945 -0.07579926 -0.21461433 -0.10983942 0.037636187 -0.13177502 -0.06528552 -0.13948809
-0.0074249287 -0.077159524 -0.062704146 -0.12001284 -0.10178275 -0.20262226 -0.054477103 -0.10762441
-0.22350504 -0.011829947 -0.31699196 -0.103201926 0.00976667 -0.070490636 -0.3352629 -0.011675737
-0.17648831 -0.076445684 -0.101909615 -0.15471528 -0.29361165 -0.07328372 -0.099815525 -0.053215675
-0.088363 -0.27227136 -0.13591176 -0.04010821 -0.10263535 -0.0063658124 -0.5399799 -0.59213
-0.012011425 -0.31650633 -0.05997386 -0.6159142 -0.042013828 -0.09215815 -0.47588333 -0.01441264
-0.16741867 -0.06277315 -0.107867904 -0.53138614 -0.2697055 -0.46854627 0.04560925 -0.26466852
-0.021756811 -0.20288423 -0.41605204 -0.031647444 -0.025423395 -0.1744837 -0.3939286 -0.24566397
-0.52416605 -0.021200959 -0.23888427 -0.4185972 -0.020879315 -0.07865753 -0.07515629 -0.06736822
-0.1099628 -0.09866989 -0.069886364 -0.03146675 -0.034036763 -0.18193465 -0.07621913 -0.10681716
0.027980512 -0.112300254 -0.07372549 -0.5983946 -0.5302156 -0.09631699 -0.2319255 -0.3582866
-0.01534096 -0.15800717 -0.15041974 -0.052341446 -0.23367554 -0.07232268 0.0072449045 -0.1203141
-0.22190006 -0.13455793 -0.038372688 -0.06585793 -0.21679229 -0.026721787 -0.023155449 -0.062502764
-0.11384797 -0.068536915 -0.57103443 -0.14500228 -0.05847998 -0.52682376 -0.039019927 -0.45090285
-0.13856883 -0.06456491 -0.17460483 -0.103759676 -0.03670352 -0.5432362 -0.29852942 -0.029417967
00000000: 044f b7be 8653 44bd 8518 49be 376f 45bd
00000010: af8c aabe ce5d 5ebe 9748 a8bd ac15 0cbe
00000020: 4c24 8abe bd04 37bf 2d98 96bd 0312 6bbe
00000030: 6486 44bd b46e 81bc 466f e8be 7bf8 5fbd
00000040: 78ae 23bd 5ea6 08bf fbd7 9bbd 9281 f9bd
00000050: ae8d 89be d3f6 adbd 475f 05be fe51 9ebd
00000060: 438e e6bd 1f0a d8bd 3477 ecbe 2c9b 4bbd
00000070: 0bca 1bbe a842 39be b4a6 01bd b803 9bbc
00000080: 5341 fdbd 236a e7bc 6612 9ebc 52cf 3dbe
00000090: 49a0 febd 2ced 1fbe 370e cdbe caae 53bd
000000a0: 4639 98bd 0d6f f2bb 1868 d4bd 75d5 d0bd
000000b0: 053d 8fbd 8527 f3bc ab96 bcbd 2413 9bbb
000000c0: 1b7f adbd 52d4 aebb 3598 53be 49e8 c1bd
000000d0: 96e0 05be 72d1 a6bc cb09 4dbe 3347 33bd
000000e0: 20ef 1abf 8592 3ebe 6e2f 4dbd 9917 1ebd
000000f0: a4b0 e3bd 4eb7 67be 316b b43c 7e0f bcbc
00000100: 4182 d9bd db08 09bd 3ce7 b6be f9d7 a6be
00000110: 0f13 d7bb eeca 86bc 369c 533b 28db 47be
00000120: 5dd8 bbbe baba aebe 1a20 debe 4d01 70bd
00000130: a126 adbd 1d2e 23be 5a2e b7bc 2278 19bd
00000140: 4ad9 28be 17a9 90bd f7b5 09bf 97ac 85bd
00000150: f441 f5bc ccc7 cabc 963a 39bf e658 63bd
00000160: f9de f1bd 591b 1abe bffa 7dbd 6704 10be
00000170: 61cd 793c b0ca e9bd 2ac7 4abd 875e a8be
00000180: cfc8 c0be 1b1b 763b 6227 9dbd 3aef 00bd
00000190: 9894 95bd 9e94 c2bd d71c 8cbd fdce 0dbe
000001a0: b9a7 90be cd84 74bd 52dd 0dbe c151 8f3a
000001b0: d81e f3bd 9e15 893b 3336 38bd fb9f 0cbf
000001c0: 308b f4be 76b0 b0bc a0f3 71bd 57b7 00bd
000001d0: d0f2 bcbd 60f5 0ebd 4fdf b1bd c8f2 11bd
000001e0: 2f28 96bd f835 0dbf c70f f23b 979e d8be
000001f0: b916 20bd 410b dabc 8e60 d3be 1ffa bebc
00000200: 44f6 76be f776 fdbe bcce 01bd a87b de3c
00000210: 99de 12bf 8a0d 7fbe 8335 82be bfc8 6dbd
00000220: 71b3 86bd a43c 9bbd dcc3 5bbe 7df3 e0bd
00000230: 6728 1a3d 08f0 06be 6ab4 85bd f7d5 0ebe
00000240: d14c f3bb d005 9ebd 086b 80bd 4bc9 f5bd
00000250: 7973 d0bd 367c 4fbe 6223 5fbd 306a dcbd
00000260: 81de 64be 65d2 41bc c54c a2be 885b d3bd
00000270: 6204 203c 655d 90bd 94a7 abbe 974b 3fbc
00000280: 5ab9 34be 8e8f 9cbd fdb5 d0bd af6d 1ebe
00000290: 4454 96be c615 96bd 156c ccbd aef8 59bd
000002a0: a9f7 b4bd 2767 8bbe 742c 0bbe 8248 24bd
000002b0: 7b32 d2bd 4e98 d0bb 1f3c 0abf d595 17bf
000002c0: 91cb 44bc 1e0d a2be 26a7 75bd 8eac 1dbf
000002d0: b116 2cbd 6abd bcbd fba6 f3be fe22 6cbc
000002e0: cd6f 2bbe 368f 80bd d9e9 dcbd ec08 08bf
000002f0: d716 8abe 4ce5 efbe c4d0 3a3d a282 87be
00000300: 573b b2bc e2c0 4fbe c604 d5be c0a0 01bd
00000310: b944 d0bc dbab 32be 02b1 c9be 568f 7bbe
00000320: bf2f 06bf a2ad adbc 149e 74be 5f52 d6be
00000330: 190b abbc 3317 a1bd 8aeb 99bd 59f8 89bd
00000340: 2d34 e1bd 7013 cabd 9520 8fbd 47e3 00bd
00000350: 226a 0bbd 144d 3abe c618 9cbd f5c2 dabd
00000360: 6337 e53c adfd e5bd 64fd 96bd 6330 19bf
00000370: 36bc 07bf d841 c5bd e17d 6dbe 5771 b7be
00000380: a658 7bbc a2cc 21be a207 1abe fc63 56bd
00000390: a448 6fbe ea1d 94bd aa66 ed3b 3d67 f6bd
000003a0: c539 63be 8ec9 09be ae2c 1dbd 86e0 86bd
000003b0: ccfe 5dbe a6e7 dabc 7fb0 bdbc 7301 80bd
000003c0: 2029 e9bd 155d 8cbd 502f 12bf 7a7b 14be
000003d0: b488 6fbd ecdd 06bf 5cd3 1fbd bddc e6be
000003e0: fde4 0dbe 9c3a 84bd 9ccb 32be f47f d4bd
000003f0: 6e56 16bd 8711 0bbf d9d8 98be f3fd f0bc

fc2.weight f4 [300, 400]
0.050673798 0.06883802 0.013804435 0.069260284 0.06026367 0.056871243 -0.014983642 0.026006805
0.07569356 -0.017280703 -0.017859107 0.017285792 -0.017103633 0.22006042 0.018956395 -0.006685356
-0.1235504 0.038216762 0.2575732 0.023717321 -0.05132544 0.016065305 0.005377424 -0.1247355
0.042583283 0.02432043 -0.009388497 0.025170898 0.022301305 -0.03452973 -0.023166848 0.084437445
0.004743301 -0.021692 0.13812523 0.045565274 -0.014079696 0.20610052 -0.041228186 0.026204696
-0.09660262 -0.037188202 0.042494655 0.19636685 0.13672616 -0.06280489 0.018438729 0.040477913
-0.053490553 -0.12085233 0.109051734 0.06767999 -0.022889614 -0.16108151 -0.032412514 0.35001728
0.032514412 -0.15789172 -0.07658827 -0.038377352 0.0725735 -0.013494955 0.20537958 -0.028672328
0.21882133 0.014006947 -0.01866581 -0.021016069 -0.18119575 -0.07337121 -0.07420155 -0.033471476
0.00858325 -0.031917382 -0.024583379 -0.012071061 0.058593486 -0.0646179 0.15153135 0.023390766
-0.007548074 -0.0004880811 -0.018565072 0.24918072 -0.049692452 -0.09044913 -0.030834636 -0.053458475
0.026296051 -0.07446667 0.04510977 -0.010716364 0.061761025 0.059169967 -0.080525704 -0.031710953
-0.029897552 0.08793988 -0.011905888 -0.13041696 -0.04862022 0.06954917 -0.1139621 0.022977768
-0.020871028 -0.106631935 -0.06862462 -0.12008973 -0.07674904 0.10068351 -0.14877142 0.07118106
-0.0437914 0.10191843 0.0015237222 -0.11429165 -0.054651458 -0.050299473 0.19730948 -0.043162294
-0.06621747 -0.0023505725 -0.015845174 -0.043441 0.11289636 -0.11721146 -0.057204418 0.059859134
-0.019425374 -0.05453078 0.004333843 -0.03123878 0.008377383 -0.10564252 0.019213183 0.037703633
0.014872847 0.004587412 -0.018443357 0.16415848 -0.11144258 0.18262626 -0.123496786 0.04410333
-0.01095664 -0.010525758 -0.077803075 0.028074943 -0.021983437 -0.019489232 -0.009795688 0.13694605
0.035709392 -0.046269324 -0.03273725 -0.020155113 -0.0034915088 -0.058505386 0.047631286 0.009216914
-0.043679807 -0.26889035 0.049801704 0.04320949 0.020464938 -0.06535437 -0.10525359 -0.36714926
-0.19036788 -0.02436075 -0.054976646 0.07805866 0.062374957 0.0047000917 0.036730524 -0.00739365
0.0071589607 0.011343926 0.06045159 0.03092524 0.022076434 -0.09852472 0.004689638 0.0017740211
0.0318739 -0.09993197 0.038872324 0.017201034 0.01954993 -0.0018401695 0.11325722 -0.12132899
-0.035201713 0.047429144 -0.04560517 0.046546694 -0.10126608 -0.04461889 -0.013575035 0.018499937
0.079735935 -0.0892719 -0.010033932 -0.029529333 -0.12349887 -0.00028949845 0.07538605 -0.24520168
-0.03405499 0.02186096 0.02678735 -0.017303748 0.07180268 0.10571661 -0.1733221 -0.02389001
-0.1345932 -0.10637453 0.049043592 -0.008025947 0.0099419495 -0.06851816 -0.05654536 -0.002116438
-0.072149 -0.011348741 0.028322795 0.057943955 0.06688277 -0.096232176 0.2702339 -0.00028387166
0.019359447 0.36181054 -0.067893915 0.10518578 -0.007741077 -0.0012703243 0.046100553 -0.008026044
0.0029354424 -0.17520528 -0.027111702 0.09222066 0.17974207 0.03177873 -0.034509372 0.035890494
-0.027348215 -0.15561627 0.017506901 0.071627095 0.022309784 -0.04337124 -0.057199713 -0.028319914
00000000: 548f 4f3d f3fa 8c3d ff2b 623c 56d8 8d3d
00000010: 0ad7 763d d2f1 683d f37d 75bc 390c d53c
00000020: 3a05 9b3d 4390 8dbc 434d 92bc ef9a 8d3c
00000030: eb1c 8cbc 8557 613e 714a 9b3c d510 dbbb
00000040: fe07 fdbd 2e89 1c3d a2e0 833e d44a c23c
00000050: a03a 52bd 639b 833c 1a35 b03b 5375 ffbd
00000060: cf6b 2e3d a33b c73c 36d2 19bc 3333 ce3c
00000070: 3ab1 b63c 0c6f 0dbd 67c8 bdbc 8aed ac3d
00000080: b16d 9b3b 6cb3 b1bc b370 0d3e a7a2 3a3d
00000090: 86ae 66bc 040c 533e e3de 28bd 3bab d63c
000000a0: 98d7 c5bd a852 18bd e00e 2e3d 6414 493e
000000b0: f101 0c3e da9f 80bd d10c 973c 2bcc 253d
000000c0: e918 5bbd 6d81 f7bd 8456 df3d ce9b 8a3d
000000d0: 0083 bbbc 8df2 24be fcc2 04bd 7735 b33e
000000e0: d52d 053d 5eae 21be 50da 9cbd 9231 1dbd
000000f0: 6aa1 943d f219 5dbc 064f 523e 3be2 eabc
00000100: b312 603e 657d 653c 0ae9 98bc e429 acbc
00000110: 618b 39be a543 96bd fbf6 97bd 6319 09bd
00000120: c3a0 0c3c cdbb 02bd 1563 c9bc b3c5 45bc
00000130: b9ff 6f3d 6456 84bd 092b 1b3e fe9d bf3c
00000140: d555 f7bb 23e5 ffb9 c715 98bc 3b29 7f3e
00000150: 508a 4bbd 653d b9bd eb98 fcbc 46f7 5abd
00000160: d16a d73c fb81 98bd 06c5 383d b093 2fbc
00000170: 21f9 7c3d 355c 723d a9ea a4bd 58e3 01bd
00000180: b6eb f4bc d319 b43d ea10 43bc 068c 05be
00000190: ff25 47bd cc6f 8e3d f664 e9bd df3b bc3c
000001a0: b8f9 aabc d861 dabd 118b 8cbd 9bf1 f5bd
000001b0: 9a2e 9dbd 2833 ce3d 8957 18be 60c7 913d
000001c0: 9c5e 33bd 9cba d03d a2b7 c73a be11 eabd
000001d0: 35da 5fbd d206 4ebd 7f0b 4a3e f2ca 30bd
000001e0: 069d 87bd 100c 1abb bdcd 81bc 31ef 31bd
000001f0: 3536 e73d 900c f0bd 2e4f 6abd da2e 753d
00000200: f621 9fbc ab5b 5fbd e902 8e3b 78e8 ffbc
00000210: 4b41 093c 1b5b d8bd f764 9d3c 206f 1a3d
00000220: 3ead 733c 0052 963b 8616 97bc 2919 283e
00000230: 023c e4bd 6102 3b3e e2eb fcbd b1a5 343d
00000240: 7b83 33bc 3b74 2cbc 3857 9fbd 6cfd e53c
00000250: 9c16 b4bc e2a7 9fbc 187e 20bc 963b 0c3e
00000260: 0344 123d e784 3dbd 7f17 06bd 561c a5bc
00000270: ccd1 64bb 58a3 6fbd 0619 433d 8a02 173c
00000280: 99e9 32bd ffab 89be dffc 4b3d 6ffc 303d
00000290: 16a6 a73c 83d8 85bd 328f d7bd fdfa bbbe
000002a0: ccef 42be 3290 c7bc 312f 61bd 38dd 9f3d
000002b0: e27c 7f3d 3a03 9a3b bf72 163d 6e46 f2bb
000002c0: b795 ea3b e0db 393c 169c 773d ee56 fd3c
000002d0: a3d9 b43c 54c7 c9bd 89ab 993b 4586 e83a
000002e0: 358e 023d 22a9 ccbd 9638 1f3d 2fe9 8c3c
000002f0: 2d27 a03c d831 f1ba 67f3 e73d 557b f8bd
00000300: ac2f 10bd 1045 423d 7dcc 3abd bfa7 3e3d
00000310: 9764 cfbd 4cc2 36bd d369 5ebc 2e8d 973c
00000320: 984c a33d 30d4 b6bd 5c65 24bc 80e7 f1bc
00000330: faec fcbd d3c7 97b9 0064 9a3d 2616 7bbe
00000340: 3f7d 0bbd c215 b33c 2571 db3c 97c0 8dbc
00000350: 490d 933d f381 d83d 597b 31be fbb4 c3bc
00000360: cdd2 09be e4da d9bd efe1 483d 437f 03bc
00000370: 8fe3 223c 4053 8cbd 1b9c 67bd f0b3 0abb
00000380: dbc2 93bd 12f0 39bc 3505 e83c a456 6d3d
00000390: d5f9 883d 6015 c5bd 195c 8a3e 9cd4 94b9
000003a0: b497 9e3c 3b3f b93e f70b 8bbd a46b d73d
000003b0: dca8 fdbb 0381 a6ba efd3 3c3d ab7f 03bc
000003c0: 8d60 403b 0369 33be 5c19 debc 2fde bc3d
000003d0: 4e0e 383e 6a2a 023d b359 0dbd e901 133d
000003e0: 5d09 e0bc df59 1fbe a26a 8f3c 3ab1 923d
000003f0: 02c3 b63c 0ba6 31bd 3f4a 6abd 2aff e7bc

fc2.bias f4 [300]
0.03149919 -0.019720728 -0.03642002 -0.048423253 -0.06395923 0.0012035683 -0.0145188505 -0.03237495
-0.040491313 0.027549049 -0.018242007 0.028658021 0.018385153 0.014581253 0.029394744 -0.004124308
0.022199325 -0.043904036 0.043154113 -0.042319994 0.0352328 0.01990645 -0.023564477 0.0015558546
0.02916575 -0.038024817 -0.009233483 0.036624413 -0.046007816 -0.0014471777 -0.018151725 0.035828397
0.009025457 0.011054896 0.01244192 0.02780316 -0.019333601 -0.037457414 0.04483537 0.022407174
-0.048353314 -0.023280283 -0.017211374 -0.040496137 0.011955041 0.0036057266 0.033787068 0.040263038
0.043577265 0.056178648 -0.017148858 0.027353955 0.03275992 0.014751194 -0.028569216 -0.03792754
-0.042585835 -0.05231839 0.046703115 -0.029430252 0.01491581 -0.020096872 -0.0335077 0.04600968
-0.043201365 -0.044054538 -0.034932513 0.0005346209 -0.022536473 0.04786482 -0.026828019 0.019895704
0.048847124 0.032203328 0.04118632 0.02516342 0.024359386 0.04212486 -0.03158225 -0.06305881
-0.0013299601 -0.038143363 -0.009631199 0.059595447 0.05036777 0.033595845 0.037694454 0.05207901
0.039618596 0.018641604 0.0019589283 0.013655194 0.03159979 0.024083922 0.022940429 0.003425696
0.018731292 -0.014685487 -0.04080247 0.03412441 -0.052024104 0.013015135 0.021077752 0.036924377
-0.042602 -0.029873872 -0.052975975 -0.03277571 -0.015543226 0.029700138 0.033269476 0.0643904
-0.04430908 0.008815009 0.017707024 -0.02772362 0.02221193 0.02089329 0.031689934 -0.057451997
-0.034783136 -0.02292315 -0.022491518 -0.03163641 -0.048516653 0.021785632 -0.043612227 -0.013401088
0.035901014 -0.03682791 0.053723004 -0.019863136 0.035539452 0.033068396 -0.017128916 0.036197457
0.014617473 -0.04355816 0.031013232 0.026074197 0.025718119 0.053823117 0.04742842 -0.0063108006
0.00888189 -0.0388925 -0.0368606 0.01837099 0.023578625 -0.048922777 0.05002112 -0.03318717
0.0061969305 -0.05281872 0.044606764 0.015619192 0.039486635 0.018761143 -0.05677557 -0.002147481
-0.02607833 -6.454101e-05 -0.02107095 -0.0065621627 -0.0051385867 -0.04119092 0.036188185 0.026635591
0.023753565 0.044979382 -0.033903807 0.03523437 -0.004006607 -0.041738413 -0.019634075 0.024030665
0.0011222289 -0.01604599 0.003000975 -0.0194743 -0.018458638 0.006500759 -0.03436111 -0.012083575
0.024159867 -0.009757141 -0.008863163 0.007828376 0.053357355 0.018640831 0.018871035 -0.025345627
0.01985288 -0.011172734 0.012275985 0.05991949 0.036260173 -0.044149153 0.03229983 -0.039160132
0.035965778 -0.024844836 0.02863416 0.065332524 -0.034042947 0.03740341 -0.022288144 -0.051679853
-0.017517654 -0.020922335 -0.018527985 -0.0068072816 -0.030556876 0.007974382 0.000650474 -0.04238386
0.016960772 -0.022190895 -0.01857847 0.03718857 -0.00730495 -0.024403995 0.023944637 0.0013474472
-0.03878105 -0.048814412 0.033698507 0.051570944 -0.0141730765 0.053165186 -0.04188259 -0.011474089
-0.033610746 0.04724602 0.030809065 0.03209965 -0.06480973 -0.023243332 0.014674317 -0.03510003
0.01271555 0.030459141 -0.015676577 -0.051073063 -0.040190134 -0.035570502 -0.0489034 0.030248253
-0.04899029 0.0469185 0.0035481344 -0.007827439 -0.026215311 -0.022659695 -0.024245206 -0.01279906
00000000: 4b05 013d 5d8d a1bc 292d 15bd 7657 46bd
00000010: 0ffd 82bd 0dc1 9d3a 79e0 6dbc 989b 04bd
00000020: 38da 25bd 8bae e13c 4370 95bc 3ac4 ea3c
00000030: 769c 963c 35e6 6e3c 3fcd f03c 3425 87bb
00000040: 5cdb b53c b8d4 33bd 5ec2 303d bb57 2dbd
00000050: 4550 103d da12 a33c 4a0a c1bc d1ed cb3a
00000060: 03ed ee3c e9bf 1bbd 0948 17bc 7b03 163d
00000070: b172 3cbd 3aaf bdba edb2 94bc ccc0 123d
00000080: 83df 133c 981f 353c 32d9 4b3c 74c3 e33c
00000090: 8061 9ebc f26c 19bd 4ba5 373d 408f b73c
000000a0: 200e 46bd 4bb6 bebc defe 8cbc 47df 25bd
000000b0: 14df 433c 0e4e 6c3b 4f64 0a3d dbea 243d
000000c0: 137e 323d 951b 663d c37b 8cbc 6715 e03c
000000d0: 442f 063d feae 713c fd09 eabc e859 1bbd
000000e0: 7c6e 2ebd cf4b 56bd c44b 3f3d b617 f1bc
000000f0: 7161 743c 32a2 a4bc 5f3f 09bd a574 3c3d
00000100: eaf3 30bd 8872 34bd 6515 0fbd cd25 0c3a
00000110: 699e b8bc e70d 443d 6fc6 dbbc 51fc a23c
00000120: ec13 483d a3e7 033d fdb2 283d 8423 ce3c
00000130: 568d c73c 1e8b 2c3d 645c 01bd fa24 81bd
00000140: 0e52 aeba 373c 1cbd 2dcc 1dbc 5b1a 743d
00000150: 6f4e 4e3d cc9b 093d 8065 1a3d cd50 553d
00000160: 1c47 223d 47b6 983c 5d61 003b 09ba 5f3c
00000170: c86e 013d a54b c53c 91ed bb3c a481 603b
00000180: 5e72 993c 669b 70bc 7e20 27bd 0ac6 0b3d
00000190: 3a17 55bd 6f3d 553c 40ab ac3c 043e 173d
000001a0: 6f7f 2ebd 0dba f4bc 56fd 58bd d33f 06bd
000001b0: 04a9 7ebc b44d f33c 9345 083d 1ddf 833d
000001c0: 707d 35bd d46c 103c 520e 913c a51c e3bc
000001d0: cbf5 b53c 6828 ab3c 4ecd 013d c952 6bbd
000001e0: c378 0ebd 54c9 bbbc 2240 b8bc 2e95 01bd
000001f0: 66b9 46bd c877 b23c bca2 32bd 3d90 5bbc
00000200: f10c 133d ddd8 16bd a70c 5c3d 04b8 a2bc
00000210: d191 113d ba72 073d f151 8cbc c943 143d
00000220: 207e 6f3c 0b6a 32bd 760f fe3c 8e99 d53c
00000230: ceae d23c a175 5c3d 4e44 423d d5ca cebb
00000240: 5985 113c be4d 1fbd 24fb 16bd c27e 963c
00000250: f627 c13c 4063 48bd f2e2 4c3d 45ef 07bd
00000260: 9f0f cb3b 7158 58bd 95b5 363d a4e7 7f3c
00000270: bdbc 213d f8b0 993c 808d 68bd c1bc 0cbb
00000280: 39a2 d5bc 315a 87b8 fc9c acbc 6907 d7bb
00000290: 9761 a8bb cfb7 28bd 103a 143d e232 da3c
000002a0: d696 c23c 4d3c 383d b8de 0abd ea51 103d
000002b0: db49 83bb e6f5 2abd a4d7 a0bc f5db c43c
000002c0: c117 933a e172 83bc 01ac 443b 9188 9fbc
000002d0: 9236 97bc 5204 d53b 3cbe 0cbd 30fa 45bc
000002e0: eaea c53c 6adc 1fbc cd36 11bc 9742 003c
000002f0: 3e8d 5a3d a8b4 983c 6e97 9a3c a2a1 cfbc
00000300: 82a2 a23c d80d 37bc 3721 493c 246e 753d
00000310: 8c85 143d bed5 34bd d44c 043d 6066 20bd
00000320: da50 133d 6687 cbbc 3092 ea3c 0fcd 853d
00000330: 9e70 0bbd 5134 193d a095 b6bc 41ae 53bd
00000340: 2f81 8fbc 5165 abbc 00c8 97bc 9e0f dfbb
00000350: 6a52 fabc fba6 023c 9284 2a3a b39a 2dbd
00000360: 51f1 8a3c aec9 b5bc e031 98bc 0b53 183d
00000370: 5d5e efbb e3ea c7bc 8b27 c43c d39c b03a
00000380: e1d8 1ebd 9ff1 47bd 7207 0a3d 0e3c 533d
00000390: 3136 68bc bdc3 593d 148d 2bbd d1fd 3bbc
000003a0: 6cab 09bd 0b85 413d 4b63 fc3c ec7a 033d
000003b0: f7ba 84bd cd68 bebc 8c6c 703c 0dc5 0fbd
000003c0: e254 503c 7385 f93c 2a6c 80bc fd31 51bd
000003d0: 699e 24bd 60b2 11bd ee4e 48bd 2fcb f73c
000003e0: 0baa 48bd 9d2d 403d d187 683b a93e 00bc
000003f0: 7ec1 d6bc d3a0 b9bc e29d c6bc 26b3 51bc

bn2.weight f4 [300]
0.60356456 0.51271355 0.58683205 0.6081068 0.87075967 0.8642847 0.47912455 0.65267754
1.0207537 0.5331855 0.5594532 0.9254318 0.5184877 0.6015056 0.7262368 0.52403027
0.67951655 0.5550155 0.6943354 0.5001629 0.6557757 0.62256086 0.70068294 0.76161104
0.7237804 0.5952831 0.80587465 0.73457104 0.8066842 0.6165361 0.58180434 1.0650632
0.5898791 1.0675529 0.66159195 0.7117542 0.3801901 0.6239156 0.5657296 0.5865123
0.81322044 0.48157492 0.6778137 0.6435991 1.1089613 0.4857926 0.5836983 0.43742043
0.6123863 1.008648 0.43350738 0.58569837 0.45489484 0.578866 0.806392 0.9710256
0.6513798 0.6296326 0.48201242 1.0282879 0.53738815 0.7156871 0.7563894 1.0275679
0.6262901 0.62780315 0.46210918 0.5616709 1.0891051 0.67010736 0.57647437 0.66296875
0.9480129 0.6538285 0.64853114 0.925589 0.7727918 0.6551486 0.80037326 1.0597116
0.91246974 0.60853416 0.49657243 0.7127249 0.7219292 0.36563364 0.675155 0.55670273
1.117365 0.7893872 0.47304934 0.6376217 0.6965503 0.8128494 0.43023476 0.5163718
0.54086405 0.6294836 0.33674976 0.59526163 0.68337667 0.5956844 0.61545646 0.5609065
0.75573134 0.4981757 0.4554605 0.7039534 0.5514178 0.73700094 0.53833413 0.5897289
0.9628889 0.90380585 0.6456672 0.9582741 0.5774973 0.57912004 0.54673713 0.72061926
0.65633494 0.68098533 0.49675447 0.62457913 0.92352563 0.7263398 0.7718552 1.0272454
0.69086 0.7977569 0.6962907 0.67846817 0.7484034 0.64104676 0.49239627 0.72010326
1.0429217 0.7310609 0.7279599 0.86517215 0.42686886 0.99258775 0.6931992 0.8103234
0.8770072 0.5848664 0.9409046 0.55920583 0.6692692 0.9741523 0.85774755 0.7671329
0.9029206 0.51899505 0.50307894 0.43516567 0.64941716 0.42973334 0.49143636 0.6920172
0.76941156 0.53706306 0.99035305 0.66830593 1.0676047 0.64935625 0.8322744 0.64188576
0.4969195 0.6979885 0.6259886 0.5874308 0.52693415 0.7380977 0.68555015 0.7482832
0.59466994 0.81267625 0.5304118 0.5246696 1.0335974 0.94991034 0.6701251 0.8452455
0.7283909 0.7719619 0.77831894 0.92320526 0.5695155 0.96795374 0.8896145 0.6606007
0.7849987 0.54289645 0.9771803 0.72341233 0.5452614 0.92335176 0.8596148 0.8478236
0.5566021 0.5810394 0.49800953 0.56877106 0.674959 0.56467885 0.5164613 0.51418054
0.50066054 0.7125665 0.8554837 0.99625474 0.75492173 0.42473635 1.0170705 0.5226078
0.7751203 0.68266314 0.55288994 0.85612565 0.7545519 0.5945466 0.5725659 0.5540041
0.5048831 0.70414186 0.7502339 0.7160654 0.5816199 0.64186627 0.6198983 0.4360368
0.74594635 0.7914955 0.6587943 0.654961 0.41664684 0.71670693 0.7855552 0.65638894
0.9885068 0.6714136 0.5902611 1.0053815 0.9291481 0.69332826 0.7861807 0.53214324
0.76995516 0.73167443 0.7136319 1.0288229 1.0511519 0.49739787 0.9881839 0.81400144
00000000: 3583 1a3f 3241 033f a03a 163f e3ac 1b3f
00000010: 1bea 5e3f c341 5d3f d04f f53e e015 273f
00000020: 0fa8 823f d87e 083f 5338 0f3f 19e9 6c3f
00000030: 9cbb 043f 45fc 193f a8ea 393f d926 063f
00000040: ccf4 2d3f 7f15 0e3f f7bf 313f ad0a 003f
00000050: ebe0 273f 2660 1f3f f55f 333f f1f8 423f
00000060: ac49 393f 7964 183f cd4d 4e3f d90c 3c3f
00000070: db82 4e3f 4fd5 1d3f 21f1 143f fe53 883f
00000080: 5102 173f 93a5 883f 175e 293f 8635 363f
00000090: 47a8 c23e efb8 1f3f a8d3 103f ac25 163f
000000a0: 372f 503f fd90 f63e 3385 2d3f e9c2 243f
000000b0: 72f2 8d3f cfb9 f83e 406d 153f 92f5 df3e
000000c0: 59c5 1c3f 611b 813f aef4 dd3e 54f0 153f
000000d0: fae7 e83e 9030 143f b56f 4e3f 2295 783f
000000e0: d4c0 263f 9a2f 213f 55ca f63e f09e 833f
000000f0: 4592 093f 4537 373f bca2 413f 5887 833f
00000100: 8c54 203f b5b7 203f 9399 ec3e aac9 0f3f
00000110: cc67 8b3f 288c 2b3f d393 133f 52b8 293f
00000120: f9b0 723f 4e61 273f 2306 263f 67f3 6c3f
00000130: afd5 453f d2b7 273f 43e5 4c3f a1a4 873f
00000140: 9e97 693f e5c8 1b3f be3e fe3e 2475 363f
00000150: 5ad0 383f 5534 bb3e f5d6 2c3f 1284 0e3f
00000160: d105 8f3f 4815 4a3f 8633 f23e 2d3b 233f
00000170: 1f51 323f e616 503f bb47 dc3e f130 043f
00000180: 1176 0a3f d625 213f 776a ac3e 1163 183f
00000190: c6f1 2e3f c67e 183f 8e8e 1d3f 9297 0f3f
000001a0: 9c77 413f e310 ff3e 1e32 e93e 4a36 343f
000001b0: b829 0d3f 18ac 3c3f 44d0 093f 79f8 163f
000001c0: e37f 763f d25f 673f 724a 253f 7451 753f
000001d0: ddd6 133f 3641 143f f7f6 0b3f 817a 383f
000001e0: 9105 283f 0e55 2e3f 9a56 fe3e 6be4 1f3f
000001f0: 2d6c 6c3f 68f1 393f 4d98 453f c77c 833f
00000200: 33dc 303f cc39 4c3f 1b40 323f 17b0 2d3f
00000210: 5d97 3f3f a41b 243f 5d1b fc3e b058 383f
00000220: 757e 853f cf26 3b3f 945b 3a3f ec7b 5d3f
00000230: 8e8e da3e 3b1a 7e3f 8175 313f 5b71 4f3f
00000240: 8b83 603f ceb9 153f 20df 703f 1d28 0f3f
00000250: 3a55 2b3f 0c62 793f 5895 5b3f d262 443f
00000260: ce25 673f dcdc 043f c8c9 003f 09ce de3e
00000270: 3440 263f 0206 dc3e 8c9d fb3e 0a28 313f
00000280: 28f8 443f f77c 093f c787 7d3f 1916 2b3f
00000290: 45a7 883f 363c 263f ef0f 553f a052 243f
000002a0: 3c6c fe3e 60af 323f ca40 203f dd61 163f
000002b0: 28e5 063f f9f3 3c3f 3780 2f3f 7d8f 3f3f
000002c0: 4a3c 183f 8d0b 503f 11c9 073f bf50 063f
000002d0: eb4c 843f 532d 733f 528d 2b3f 0262 583f
000002e0: d377 3a3f 4c9f 453f e93f 473f 2e57 6c3f
000002f0: c5cb 113f d1cb 773f c7bd 633f 211d 293f
00000300: adf5 483f 43fb 0a3f 7d28 7a3f 8d31 393f
00000310: 4096 0b3f c860 6c3f b70f 5c3f f80a 593f
00000320: 7a7d 0e3f 00bf 143f 1bfb fe3e fb9a 113f
00000330: 1dca 2c3f cb8e 103f cf36 043f 56a1 033f
00000340: 4a2b 003f c26a 363f fb00 5b3f 8d0a 7f3f
00000350: 8d42 413f 0b77 d93e 5e2f 823f a0c9 053f
00000360: 496e 463f 03c3 2e3f 328a 0d3f 0d2b 5b3f
00000370: 502a 413f 3534 183f ae93 123f 36d3 0d3f
00000380: 0540 013f a442 343f 540f 403f 1050 373f
00000390: 0be5 143f 5951 243f a8b1 1e3f 3740 df3e
000003a0: 57f6 3e3f 739f 4a3f bea6 283f 86ab 273f
000003b0: bc52 d53e 1b7a 373f 251a 493f 1b09 283f
000003c0: c80e 7d3f c3e1 2b3f 5a1b 173f 57b0 803f
000003d0: a6dc 6d3f f67d 313f 2343 493f 8a3a 083f
000003e0: c81b 453f 044f 3b3f 95b0 363f 78b0 833f
000003f0: 258c 863f efaa fe3e 9ff9 7c3f 6662 503f

bn2.bias f4 [300]
-0.07965693 -0.14501366 0.27440804 0.17487207 0.18570557 -0.2264745 0.25140682 -0.03085966
-0.042745914 0.29523808 0.29742566 -0.21040472 0.13459712 0.21530539 -0.22435015 0.08210285
0.12971148 -0.095538184 0.16827567 0.05307164 0.13266659 0.24369825 -0.22701296 -0.20040092
-0.10690526 0.2427891 -0.1498883 0.19828455 0.24629065 -0.23250806 -0.3348325 -0.00050082675
0.11301309 0.23935665 0.13643534 0.2211736 -0.39995337 -0.16167769 -0.24432121 -0.17004898
0.25453585 0.21897206 -0.08469491 -0.3783596 0.016281579 -0.17113644 0.19337067 -0.17098257
-0.21469633 0.015746156 0.33105844 -0.16159901 -0.14113697 0.27965283 0.21868764 -0.11178483
-0.078376025 0.2073536 -0.15924914 -0.08566398 0.05454564 0.31729883 0.25307125 -0.08247037
0.22457056 0.19301865 0.32182944 0.26426288 0.0138705745 -0.15891296 -0.08056288 0.25713706
0.21459337 -0.22957876 0.21535505 -0.13830456 -0.15204524 0.08763769 0.24976422 0.21805106
0.20910522 0.2335185 0.14105922 -0.1262399 -0.17108293 0.04206212 -0.23465 0.063227594
0.22292936 0.06713335 -0.2554288 0.3287173 0.2508493 -0.13751507 0.18957907 -0.25602096
0.33557117 0.07452561 0.38419557 -0.23203522 0.055909626 -0.2543368 0.06550312 0.14366181
-0.28420368 -0.3747764 0.26417965 0.15127178 0.32430023 -0.04204852 -0.32812536 0.28376368
-0.07080648 0.09897934 -0.27019697 -0.1700795 -0.2908865 0.3966724 -0.15302996 -0.005542209
-0.22184326 0.19920911 0.40790594 0.2532043 -0.23226419 -0.14579351 0.24647099 -0.010646462
-0.06971241 -0.075492814 0.1162906 -0.14801224 -0.20448835 0.25790128 0.03514887 -0.31293473
-0.13248949 -0.097848795 0.075907424 -0.029838806 0.2918753 0.043324616 -0.19759363 -0.14442301
-0.24083482 0.22685452 -0.1650524 0.1957213 -0.24123502 -0.020529706 -0.18261269 0.24317308
0.09442043 0.2700604 0.04393928 -0.034858216 0.046963286 -0.15544176 -0.34916773 0.06205392
-0.04444751 -0.2493242 -0.16100562 0.21972765 0.016850475 0.08997421 -0.1647832 0.24014565
0.3996049 -0.01657793 0.14667204 0.17333469 -0.24181919 0.2176452 0.21232584 0.12997027
-0.16992505 0.23505817 -0.14228918 -0.168528 -0.20465997 0.2123915 -0.027009413 -0.06700859
-0.18847454 0.19666944 0.23051973 0.07554471 -0.17084293 -0.022566136 0.19307618 0.1975388
-0.08647595 -0.2432821 -0.21763085 0.13254625 0.3196709 -0.08868932 -0.12498287 0.07239974
0.23160844 0.25497872 0.26294124 -0.044287473 -0.25076112 -0.29169944 -0.15329458 -0.23482022
0.2995288 0.29076275 -0.09135019 0.09467798 0.15887536 0.13297218 -0.14428613 0.22694132
0.21399797 -0.27196252 -0.2397851 0.038571484 -0.019113947 -0.035839964 -0.2277816 0.15645167
-0.3402863 0.07589511 -0.24409847 -0.096926786 0.28788596 0.19478314 0.09955191 0.07863636
-0.19813398 0.07882927 0.098263904 0.16781071 -0.040668156 0.25718433 -0.0184757 -0.29305902
-0.18095285 0.13671654 -0.22253583 0.0068349885 -0.00022993752 0.31536624 -0.1164874 0.31489813
-0.1259536 0.1351152 -0.20468315 0.20528209 0.19882905 -0.17156613 0.16248961 -0.174846
00000000: 2c23 a3bd 767e 14be 367f 8c3e aa11 333e
00000010: 9a29 3e3e eee8 67be 65b8 803e 66cd fcbc
00000020: 5716 2fbd 7229 973e 2d48 983e 5674 57be
00000030: d4d3 093e 0479 5c3e 0cbc 65be 8a25 a83d
00000040: 16d3 043e 86a9 c3bd 7550 2c3e a661 593d
00000050: c0d9 073e 098c 793e 1676 68be e635 4dbe
00000060: 25f1 dabd b59d 783e 527c 19be 1b0b 4b3e
00000070: 9e33 7c3e 9816 6ebe 2a6f abbe ea49 03ba
00000080: 6873 e73d e919 753e b5b5 0b3e 557b 623e
00000090: b0c6 ccbe d68e 25be 572f 7abe 5221 2ebe
000000a0: 8652 823e 363a 603e 8674 adbd 59b8 c1be
000000b0: f260 853c 643e 2fbe f602 463e 0e16 2fbe
000000c0: 5bd9 5bbe 15fe 803c 7e80 a93e 367a 25be
000000d0: 3686 10be a82e 8f3e a7ef 5f3e 72ef e4bd
000000e0: 9c83 a0bd 8154 543e 3512 23be 9970 afbd
000000f0: 406b 5f3d fe74 a23e 8e92 813e 3ae6 a8bd
00000100: d3f5 653e aea6 453e d4c6 a43e 774d 873e
00000110: 6841 633c 14ba 22be 27fe a4bd 78a7 833e
00000120: 5dbe 5b3e b216 6bbe 0986 5c3e b69f 0dbe
00000130: bfb1 1bbe 647b b33d 31c2 7f3e c748 5f3e
00000140: ae1f 563e 791f 6f3e d471 103e 0845 01be
00000150: 5d30 2fbe 5449 2c3d 1748 70be 787d 813d
00000160: 9847 643e 367d 893d 90c7 82be a24d a83e
00000170: 526f 803e c0d0 0cbe 0421 423e 2e15 83be
00000180: fccf ab3e e2a0 983d 48b5 c43e a49a 6dbe
00000190: 7e01 653d 6f38 82be 8026 863d 151c 133e
000001a0: 2583 91be b1e2 bfbe 8e42 873e fde6 1a3e
000001b0: ae0a a63e 123b 2cbd 0c00 a8be 7949 913e
000001c0: fd02 91bd aeb5 ca3d 4257 8abe 5229 2ebe
000001d0: 13ef 94be a518 cb3e e3b3 1cbe 6b9b b5bb
000001e0: e12a 63be 79fd 4b3e 0cd9 d03e fea3 813e
000001f0: aad6 6dbe e54a 15be e462 7c3e 806e 2ebc
00000200: 61c5 8ebd fa9b 9abd c429 ee3d 8590 17be
00000210: 6565 51be a30b 843e 43f8 0f3d fb38 a0be
00000220: 53ab 07be f364 c8bd 5a75 9b3d 8370 f4bc
00000230: ae70 953e 2775 313d fc55 4abe a0e3 13be
00000240: 679d 76be 8d4c 683e 7f03 29be 2a6b 483e
00000250: 5006 77be ea2d a8bc d2fe 3abe 5d02 793e
00000260: 805f c13d 5b45 8a3e adf9 333d 7dc7 0ebd
00000270: 935c 403d 202c 1fbe 1dc6 b2be 402c 7e3d
00000280: 980e 36bd d84e 7fbe a8de 24be 4900 613e
00000290: 020a 8a3c 6644 b83d edbc 28be bee8 753e
000002a0: 0399 cc3e 70ce 87bc 3231 163e a67e 313e
000002b0: 739f 77be 62de 5e3e f26b 593e ed16 053e
000002c0: d500 2ebe 17b3 703e 41b4 11be 9b92 2cbe
000002d0: 6292 51be 287d 593e d842 ddbc cd3b 89bd
000002e0: 78ff 40be b763 493e 5d0d 6c3e 2fb7 9a3d
000002f0: 73f1 2ebe 9edc b8bc c3b5 453e 9c47 4a3e
00000300: 4e1a b1bd f11e 79be 9fda 5ebe 34ba 073e
00000310: e7ab a33e bfa2 b5bd 05f7 ffbd 5146 943d
00000320: c32a 6d3e 928c 823e 3ca0 863e c866 35bd
00000330: c363 80be a159 95be 41f9 1cbe b674 70be
00000340: d75b 993e dbde 943e cf15 bbbd 87e6 c13d
00000350: 39b0 223e dc29 083e bebf 13be 4e63 683e
00000360: 4922 5b3e ac3e 8bbe 3a8a 75be 22fd 1d3d
00000370: da94 9cbc edcc 12bd 943f 69be de34 203e
00000380: 023a aebe e56e 9b3d f3f4 79be 8d81 c6bd
00000390: ca65 933e 3b75 473e dfe1 cb3d 1a0c a13d
000003a0: a2e3 4abe 3e71 a13d 963e c93d 92d6 2b3e
000003b0: a793 26bd aaad 833e 5a5a 97bc d50b 96be
000003c0: b44b 39be 6cff 0b3e 6fe0 63be 0af8 df3b
000003d0: 621b 71b9 af77 a13e f290 eebd 543a a13e
000003e0: fbf9 00be a45b 0a3e 7698 51be 7835 523e
000003f0: d899 4b3e 08af 2fbe ad63 263e d40a 33be
