experiments/luna_v2/saves/q_network.pth (torch_old, 507906 bytes, 11 tensors)

fc1.weight f4 [400, 8]
000000 40 84 cd be b4 fa 31 be e0 4b 14 bf ca 6a 0f bc
       -0.4013996 -0.17380792 -0.57928276 -0.008753488
000010 7d f4 c4 3e b3 55 26 bd 1a 97 99 3e f9 81 a3 3d
       0.3846778 -0.040609073 0.29998094 0.07983775
000020 d6 d1 b1 3c 2a 59 24 3e 6b 74 2a 3e ff 62 22 3e
       0.021706503 0.16049638 0.16645972 0.15858077
000030 cf 84 4e 3f e3 34 c9 be 7c cc 9a 3d cc 8b f1 3d
       0.806714 -0.39298162 0.075585335 0.11794242
000040 57 9b 95 3e c8 90 88 3e 43 54 0c bf e4 08 e4 be
       0.29220077 0.2667296 -0.54816073 -0.44538033
000050 12 2e 97 3d ca 5d 11 bf e7 96 27 3f a4 6d 6d bd
       0.07381834 -0.56783736 0.65464634 -0.05796589
000060 42 44 0d 3e b7 55 c1 3e 43 a7 21 bf 6b f8 44 3e
       0.1379557 0.37760708 -0.63145846 0.19235389
000070 18 5b 39 3e 39 65 bf be aa 92 be 3e fb c8 e2 3e
       0.18101156 -0.37381914 0.3722127 0.4429396
000080 86 e6 3d 3c 4d 73 3d bf 94 63 53 bd 79 78 fe 3e
       0.011590606 -0.7400406 -0.051608637 0.49701288
000090 74 49 0a 3f db 33 eb be 8c 76 17 be 91 e4 bd 3e
       0.5401833 -0.45938 -0.14791316 0.37088445
0000a0 bf b9 9f bc af 5f 3d 3e df e9 52 3f b6 29 f9 3c
       -0.01949775 0.18493532 0.8238811 0.030415397
0000b0 25 c2 aa 3e fc 4a 1e 3c 95 60 27 be fc c8 38 3e
       0.33351246 0.009661432 -0.16345437 0.1804542
0000c0 7d 96 93 3c a4 04 a8 3e 8a 8f dc be db d8 37 bf
       0.018016094 0.3281604 -0.43078262 -0.7181527
0000d0 c8 10 1f bf 0d 20 c6 3e 5f 00 e6 3e 19 82 8e 3e
       -0.6213498 0.38696328 0.44922158 0.27833632
0000e0 b4 ec 77 be b1 1f e4 be 26 47 48 3b 50 ad 88 be
       -0.24211389 -0.4455543 0.0030559986 -0.26694727
0000f0 f2 08 4d 3f bb 18 35 bf 11 57 4a 3e 11 d9 92 bd
       0.80091774 -0.7074086 0.19759776 -0.071703084
000100 e1 e8 40 be 72 01 3e 3e 6b 52 d5 bd 85 d9 2c bf
       -0.18838836 0.18555239 -0.104161106 -0.6751941
000110 be 5b c5 be 6f 50 ec 3e 10 50 0b 3f 60 72 2f 3e
       -0.38546556 0.46155116 0.5441904 0.17133474
000120 bb 85 bd be 64 e2 81 3d df 1f 5a be 73 7b 85 be
       -0.3701609 0.06342009 -0.2130122 -0.26070747
000130 d1 48 4f bf ae c2 97 3c 75 e6 b4 3e 80 3c 2e 3e
       -0.80970484 0.018525448 0.35332075 0.17015266
000140 f9 50 43 bd 2e ee a3 3e a4 ea a4 bd db c5 ff be
       -0.047684643 0.32017654 -0.08052567 -0.4995564
000150 ad 69 0d 3e 76 2b 50 3f 7f 78 a3 bc 4f 27 65 3d
       0.13809843 0.81316316 -0.019954918 0.05594569
000160 6e 32 bf 3e 4c 61 33 bf 21 89 45 3d f8 fe 37 3f
       0.37343162 -0.7007034 0.04822648 0.71873426
000170 ec be 1c 3c e9 3b a1 bd d4 ad 8e 3e 54 1e d8 3d
       0.009567004 -0.07872755 0.27866995 0.1055266
000180 ab 8b 88 be 69 f9 77 3e 59 3b c2 3d b8 0f 41 bb
       -0.26669058 0.24216236 0.09483976 -0.0029458832
000190 55 39 27 bf 0e 30 14 3f 0b d9 94 3e aa 8f b3 3d
       -0.65321857 0.57885826 0.2907184 0.08767636
0001a0 0d ce 8d be 18 04 ab 3e df 9f bb be cc 79 35 3f
       -0.27696267 0.3340156 -0.3664541 0.7088897
0001b0 8c e2 8d 3e 4f 1d 97 3e 65 e4 b1 3c 2f d4 8d 3d
       0.27711904 0.29514548 0.021715352 0.069252364
0001c0 6e 6d 16 be bf 4b cb bc 23 47 1d 3e 00 96 19 3d
       -0.14690182 -0.024816392 0.15359168 0.037496567
0001d0 3c 0c f5 3e 72 6d a1 3e 05 9d 92 3e 53 87 cb 3a
       0.47860897 0.31528813 0.2863542 0.0015528001
0001e0 ca 19 46 bc 3d 1a 00 bf ca 34 c7 3e 1e 12 53 3c
       -0.0120911095 -0.50040036 0.38907462 0.012882737
0001f0 cc 37 e3 be c3 05 13 3f 44 b4 ea 3e 46 e5 16 be
       -0.44378507 0.57430667 0.45840657 -0.14735898
000200 c7 5e 73 3e c0 e5 e4 3e 99 fc bb bc de 90 d1 be
       0.23766623 0.44706535 -0.022947596 -0.40930837
000210 3a 57 fc 3c d8 7c 1e 3e b3 28 20 3f 6d dd be 3e
       0.030803312 0.15477312 0.625621 0.3727831
000220 e0 ca 24 bf 65 a3 82 be 3f 8c c4 3d 26 2f 4f bf
       -0.6437206 -0.25515285 0.09597062 -0.8093132
000230 4d 9e 75 be 41 26 a7 be 58 20 ac bc 38 77 ff bb
       -0.23986168 -0.32646373 -0.021011516 -0.0077961944
000240 e7 c3 aa be 12 c1 ef 3e 22 d0 cd 3e 88 03 90 bd
       -0.33352587 0.46826988 0.40197855 -0.070319235
000250 80 7e 2c bf 73 8e 86 be b2 3b 66 3e 43 de 93 3e
       -0.67380524 -0.26280555 0.2248371 0.2888051
000260 7d c3 82 bd cc 5a 01 be fb f3 77 bc 42 a0 7e bf
       -0.06384943 -0.12632293 -0.015133853 -0.99463284
000270 ed e5 d5 3d 5b b2 a3 be f6 55 6b 3e ca 44 af 3e
       0.104442455 -0.31972012 0.2298201 0.3423217
000280 9c 6a 18 bf 10 30 78 3e bb 37 32 3f c3 fd b4 be
       -0.59537673 0.24237084 0.6961629 -0.35349855
000290 b0 b1 0f 3f 90 34 82 3e 17 f8 67 3e 0d fa d7 3e
       0.56130505 0.25430727 0.22653233 0.4218296
0002a0 38 9d d7 bd 51 7a 5e 3e fe e2 7e 3e 49 d0 33 3f
       -0.10528034 0.21726348 0.24891278 0.7023969
0002b0 d2 0e 51 3f ad a6 f2 be b4 aa 00 be 62 fc d0 3d
       0.8166324 -0.4739279 -0.12565118 0.10204388
0002c0 3a bb 5f 3e 3f 4b 85 3e 6b cb 89 bd 24 ac 3a bf
       0.21848765 0.2603397 -0.06728252 -0.72918916
0002d0 ce d0 69 3d e5 eb f7 bd 0f 73 f2 3e 93 37 f1 3e
       0.057083897 -0.1210554 0.47353408 0.47112712
0002e0 86 8c eb 3e 1b a3 06 3e b5 8c 0f be 56 0b 4a be
       0.46005648 0.13148157 -0.14018519 -0.19730887
0002f0 5c fb 84 bd dc 2b 19 3f 64 f2 16 3f 0f 85 af be
       -0.064932555 0.5983255 0.5896361 -0.34281203
000300 23 5c 17 3f 34 b5 b0 bb 9b 86 80 3e c1 46 28 bb
       0.59124964 -0.005392695 0.25102696 -0.0025676938
000310 40 72 3f be b0 7a d6 3e 43 b8 68 3e 3c 91 74 3d
       -0.18695927 0.41890478 0.2272654 0.05970882
000320 31 ca 57 be eb 7d 97 3e 01 7f a3 be c1 31 1d bf
       -0.21073224 0.29588255 -0.31932834 -0.61404043
000330 6a 0f fd be 53 15 2e be 5f c6 85 3e 5c f7 74 be
       -0.49425822 -0.17000322 0.26127908 -0.23922485
000340 b6 6d 10 bb 80 db 7d 3e 28 74 38 be 59 d9 00 bf
       -0.002203805 0.24790764 -0.1801306 -0.50331646
000350 40 de 9a 3c 87 32 00 3f b2 eb fd 3e 0e a9 d4 3e
       0.018904805 0.500771 0.49593884 0.41535228
000360 f5 5f 5c be 82 3d a5 3e e2 41 dd bd 2e 20 79 3f
       -0.2152098 0.3227349 -0.10803582 0.9731473
000370 a2 eb e3 3e 08 15 b6 be 60 44 8c 3e 18 ae 26 3c
       0.4451571 -0.3556292 0.27395916 0.010173343
000380 89 eb 70 3d ab 52 a6 3d 93 e2 48 3d e1 cf 98 bd
       0.058818374 0.081212364 0.049044203 -0.07461525
000390 2a 3c f0 bd db 8e f2 3d 08 b2 c7 3d cc ad aa 3c
       -0.117302254 0.11843654 0.09750754 0.020834826
0003a0 94 c5 83 3d 3a 75 1a bf 0c 17 28 be ef 5f 5b bf
       0.064341694 -0.60335124 -0.16415042 -0.8569326
0003b0 7b 57 7d be 2b 0f 17 bf 93 7c 28 be ca cf 20 3e
       -0.24740402 -0.5900752 -0.16453771 0.15704265
0003c0 3a c4 71 be da 54 0f bf 8c 2c a4 be d3 7d c6 be
       -0.2361001 -0.5598885 -0.32065237 -0.3876787
0003d0 81 f6 38 3e 9d 87 1c be 14 50 f5 3e 55 25 d4 be
       0.18062784 -0.15286107 0.47912657 -0.41434732
0003e0 da 9e 39 3e e7 ce 43 be c0 84 90 3e f0 c6 f8 3e
       0.18127003 -0.19121896 0.2822628 0.48589277
0003f0 ba 4d 01 bf 3f 7a 37 be 61 a1 92 3e 82 f0 11 3d
       -0.50509226 -0.17917727 0.28638747 0.035629757

fc1.bias f4 [400]
000000 4e 89 10 bc 50 7a 57 be df ab bf 3e 68 aa 15 3d
       -0.0088217985 -0.21042752 0.37435815 0.036539465
000010 73 c8 5a bc 04 87 ae 3e 17 81 37 3e 5d 26 4a bd
       -0.013353455 0.34087384 0.17920338 -0.049352992
000020 0f f7 88 3e 29 48 81 be 23 c7 8d 3d 3d 59 d4 3e
       0.2675099 -0.25250366 0.06922748 0.41474333
000030 70 53 96 3d ab 1a 18 3d 75 86 de 3d c3 e9 aa bc
       0.07340133 0.037134808 0.108654894 -0.02086342
000040 54 45 ac 3e d4 5a 05 be fe 06 5c be 5a 7a 8a bc
       0.33646643 -0.1302293 -0.21487042 -0.016904045
000050 12 20 cf 3c b6 00 8a 3b 90 c1 f0 3e 71 3c 3c be
       0.025283847 0.0042115105 0.47022676 -0.18382432
000060 ef 40 c8 be a1 4c c4 3d 9e ad 0c 3f e2 7c 87 3d
       -0.3911204 0.09584928 0.5495242 0.066156164
000070 7e 9f 40 3f 37 32 8c 3d cf 31 d5 3d ad 7f 09 3f
       0.75243366 0.06845515 0.10409891 0.5371044
000080 42 b4 8b 3d ef 8f 9d bd 76 e6 b8 be 2a 11 2c be
       0.06821491 -0.07693469 -0.36113328 -0.16803423
000090 8c a1 28 3f 7c 5d 2d be 4a d9 83 3e cf 5b a8 3d
       0.658715 -0.16930193 0.25751716 0.08220636
0000a0 82 5c a3 3e e5 02 31 3d a4 7f e8 3d d1 a5 3b be
       0.31906515 0.04321565 0.113524705 -0.18324973
0000b0 f7 bf a0 3e 52 78 73 3e 8d e4 bb be 3b 3e 40 bd
       0.31396458 0.23776367 -0.36697808 -0.046934348
0000c0 33 a8 28 3f 6e f7 f0 3e f2 16 29 3d f9 19 b5 3d
       0.6588165 0.47063774 0.041281648 0.088428445
0000d0 9d 8a 66 3e 80 2e 82 3e 19 5e d3 b9 b2 a3 2b 3e
       0.22513814 0.25426102 -0.00040315164 0.16761664
0000e0 fe 7b 24 bc 85 c0 ae 3e 90 6f 95 3e 88 25 6d be
       -0.010039328 0.34131256 0.29186678 -0.23158848
0000f0 eb 48 d3 3d 74 70 1f 3f 04 5f a4 3d b4 70 1b 3e
       0.103166424 0.62280965 0.08025935 0.15179712
000100 49 83 39 3e 51 3d 06 3f fa 1f ef 3c 0f 30 eb 3e
       0.18116488 0.5243731 0.029190052 0.45935103
000110 c7 7a 8d bd 1b f3 81 bd 93 ba e5 3d 49 2a 38 3f
       -0.069081835 -0.06345197 0.11217227 0.7193952
000120 75 76 bc 3e 58 93 2e 3e 36 66 12 3f d1 5d 0d 3d
       0.36809126 0.17048395 0.5718721 0.0345133
000130 bd 2f 17 3e 96 52 ad 3e fb cf 3d 3e 41 07 62 be
       0.14764304 0.3385207 0.1853637 -0.2207308
000140 b7 8e cd 3d 03 90 9e bd ac 13 91 3d 6b 3c 1f 3f
       0.10036986 -0.07742312 0.0708383 0.62201566
000150 6f ee 81 3e 4c 13 16 3f 67 46 74 3e 34 03 27 3e
       0.25377223 0.58623195 0.23854981 0.16309816
000160 b1 ba 87 3e 8a 2a 6b 3e dd 13 bf 3e bc 4b 72 be
       0.26509622 0.22965446 0.37319842 -0.23661703
000170 51 f3 30 be 86 77 f3 3d 2a 73 41 bd a5 d2 dd 3e
       -0.17280318 0.11888032 -0.04722897 0.43324772
000180 80 7d 4c 3e cd 49 ac 3e 40 02 5e 3e 6e 68 f3 bd
       0.1996975 0.33650056 0.21680546 -0.11885153
000190 4a 0a 10 3f d3 55 cd 3e e8 9d ae bc cd 27 82 3e
       0.562657 0.4010454 -0.02131553 0.2542099
0001a0 c1 b8 d5 3e 84 e0 3d 3f b4 ec 65 bd 56 18 38 be
       0.4174252 0.7417071 -0.05613394 -0.17978033
0001b0 ce f0 c5 3e f5 30 bd 3e b7 c8 30 3e 2c b1 7e 3e
       0.38660282 0.36951414 0.17264067 0.24872273
0001c0 16 d6 69 3e 97 b5 ef 3e b4 41 a7 be c3 fa cb 3e
       0.22835574 0.4681823 -0.32667315 0.39839754
0001d0 d7 b6 8f 3e 52 b9 a6 3d 9c 97 87 be 79 d5 3e 3e
       0.28069183 0.08140816 -0.26482856 0.18636121
0001e0 a9 38 5b 3d 21 0c db bd 46 86 2d 3f b2 b8 62 bd
       0.053520832 -0.10695673 0.6778301 -0.05535192
0001f0 5a 18 ff 3d fc e8 71 be 01 fc 22 3f 9d b9 cb bb
       0.124558166 -0.23624033 0.6366578 -0.006217195
000200 de d6 16 3f ba 4c 2e 3f 39 ba b7 be ca 64 a9 3e
       0.5892161 0.68085825 -0.35884264 0.33084708
000210 20 68 07 be 00 d9 cc 3e 86 00 b9 3d be d1 fc bd
       -0.13223314 0.40009308 0.09033303 -0.12344693
000220 34 f5 c6 3e 35 cf 1d 3e e3 81 78 3e cf 89 54 be
       0.3885895 0.15411074 0.24268298 -0.20755695
000230 ae 8b 0b 3e 8e 5c f3 3d 18 4f e1 bd 1f 04 44 3e
       0.13627502 0.11882888 -0.11001414 0.19142197
000240 c2 c9 49 3e 4f 88 ff bc 17 37 11 3e ea a6 1f 3f
       0.19705871 -0.031192927 0.14181171 0.62364066
000250 c1 9b 69 3e a6 55 33 3f fa e4 46 3e 2e e3 20 3f
       0.22813322 0.70052564 0.19423285 0.6284665
000260 66 e3 d6 3e a8 af 80 bd 8f c0 76 3d 3a ed 4b 3e
       0.41970366 -0.06283504 0.060242232 0.19914714
000270 23 ac 79 be f2 d8 68 3e 3a 29 08 3f f4 2c e9 3e
       -0.24382071 0.22739008 0.53187907 0.4554211
000280 0f 9e 1d 3f b0 eb 6b 3e 83 b1 48 be 9d 6c 9d 3e
       0.61569303 0.23039126 -0.19598965 0.30746928
000290 5b 7e 51 be e4 a4 c9 3d e3 d9 15 3f 73 b7 b7 3e
       -0.20458357 0.098459035 0.58535594 0.35882148
0002a0 4c 6e 8d bd 4d 2c 28 be 18 ee 61 bd 92 e5 ab bd
       -0.06905803 -0.1642315 -0.055158705 -0.083933964
0002b0 5e 0f cf bc 42 5c d6 3d 9e b2 f9 3e 74 d8 17 3f
       -0.025275882 0.104668155 0.48769087 0.59314656
0002c0 c7 7d 7d 3e 94 42 97 3e c0 01 df 3b 4c 88 ed 3e
       0.24755011 0.29542983 0.0068056285 0.4639305
0002d0 ce 0c 06 3f 84 11 1d 3f b1 47 3e bb 43 3e ab 3e
       0.5236329 0.6135485 -0.002903443 0.3344594
0002e0 b8 5b 2d be a9 97 7b 3d e3 48 31 3f a7 ca b5 3e
       -0.16929519 0.06142393 0.6925184 0.35506174
0002f0 26 56 0d 3f 7a 00 ed 3e 33 ff 7c be c7 87 39 3f
       0.5520958 0.46289426 -0.24706726 0.72472805
000300 ba ae 8e 3e c3 57 e4 3e 88 fe 30 3f 4f b4 c2 be
       0.2786768 0.44598207 0.69138384 -0.3802819
000310 03 45 72 3e e7 98 3c 3c 67 27 60 3e 59 1c 3f bd
       0.23659138 0.011511064 0.21890031 -0.046657894
000320 4f f3 de 3d 60 3f f0 3e 89 66 d7 be 05 83 9c 3e
       0.10886251 0.4692335 -0.42070416 0.3056871
000330 f6 5c a3 3e cb ba b3 3e fe 65 09 bf 1a 45 51 be
       0.3190686 0.3510345 -0.5367125 -0.20436516
000340 89 0b ea 3e a2 0a 69 bd 48 4e 49 3e c4 21 62 3e
       0.45711926 -0.056894906 0.19658768 0.22083193
000350 1e fb a7 3d 2c 32 62 bd 39 c5 dd 3d 14 61 dc 3e
       0.08202194 -0.05522363 0.10828633 0.43042815
000360 14 1f c1 3e 47 1c 85 3e 79 3e 8e be 7e db 07 3f
       0.37719023 0.25998136 -0.27782038 0.53069293
000370 ef 46 98 3e f8 1a 1b 3f 80 0f 16 3f 80 e9 11 be
       0.29741618 0.60588026 0.586174 -0.1424923
000380 e4 b4 04 3f 8e fe d8 3e 19 63 18 3e dd f2 c1 bc
       0.5183852 0.4238171 0.14881553 -0.023675377
000390 e9 4a 80 be d6 12 9e 3e 75 f3 81 3d 97 7e 10 3f
       -0.25057152 0.30873746 0.06345264 0.5644316
0003a0 b3 d9 28 3f fd d3 15 3e 30 6e c5 3e ca f8 2c 3d
       0.6595718 0.14631648 0.3856063 0.04222945
0003b0 55 11 bf bc c0 18 82 3e fb aa 23 3f 84 00 0a be
       -0.023323694 0.25409508 0.6393277 -0.13476759
0003c0 ec 22 fb 3e d9 a6 84 3d d3 11 74 3e 88 2c 2d be
       0.4905008 0.06477136 0.23834924 -0.16911519
0003d0 a6 d4 9e 3e d9 a3 8e bd 6a 46 ef 3e 3d 1d 83 be
       0.31021613 -0.06964845 0.4673341 -0.25608245
0003e0 a5 0f 9b 3e a0 64 a3 3e ea 77 c2 3e e6 aa 16 3f
       0.30285373 0.31912708 0.37982112 0.5885452
0003f0 c2 7a 1f 3f 18 75 11 3f 6e a0 e4 3d 7e 6f 62 3e
       0.6229669 0.56819296 0.11163412 0.22112843

bn1.weight f4 [400]
000000 31 d1 a4 3f 46 cd 92 3f 63 74 f9 3e f1 56 4b 3f
       1.287634 1.1468894 0.4872161 0.7942954
000010 2e 50 da 3f cb 7a 33 3f a9 e2 08 3f 18 e1 ce 3f
       1.7055719 0.7010924 0.53470856 1.6162443
000020 f6 ef f1 3e 72 5c c8 3f 20 05 2c 3f 7e 5d 7a 3f
       0.47253388 1.5653212 0.6719532 0.9779891
000030 6c d9 34 3f 04 b0 96 3f 00 62 51 3f a0 75 ba 3f
       0.7064426 1.1772466 0.8179016 1.4567146
000040 83 8f c9 3e c7 5f b1 3f 5b 3b 66 3f ca d7 4f 3f
       0.39367303 1.3857354 0.8993432 0.8118864
000050 92 54 72 3f 4f d2 ac 3f 30 53 9a 3e 68 fa 7d 3f
       0.94660294 1.3501681 0.30141592 0.99210215
000060 f3 26 ff 3f f0 52 2c 3f d9 dc c5 3e a8 dd 86 3f
       1.9933761 0.6731405 0.38645056 1.0536394
000070 97 a3 22 3f b2 db a5 3f 5b 7f 7d 3f b1 d5 81 3f
       0.6353087 1.2957671 0.99022454 1.0143338
000080 9d 97 69 3f d3 21 c3 3f 7b e5 dc 3f 0b 37 8a 3f
       0.9124697 1.5244697 1.7257532 1.0798048
000090 79 85 93 3e 83 4d 8c 3f 15 46 06 3f 34 2a 78 3f
       0.2881277 1.0961155 0.52450687 0.96939397
0000a0 14 b6 a1 3f 0b 90 66 3f 69 57 7d 3f 19 bd 8e 3f
       1.2633691 0.9006354 0.989615 1.1151458
0000b0 66 01 01 3f ee 99 e7 3e b7 2b 08 40 04 63 ad 3f
       0.5039276 0.45234627 2.1276681 1.3545842
0000c0 3e 23 88 3e d2 39 68 3f ef df 23 3f a3 1a 4c 3f
       0.26589388 0.90713227 0.6401357 0.79728144
0000d0 84 98 67 3f fa 8e 8a 3f 6e b3 42 3f ba 2b 96 3f
       0.90467095 1.0824883 0.7605504 1.1732094
0000e0 c2 24 9c 3f ee 60 37 3f 3f c5 cc 3e 14 9b fb 3f
       1.2198718 0.7163228 0.39994237 1.9656701
0000f0 92 ef 60 3f 3b 2d 27 3f 07 47 82 3f 2d f3 26 3f
       0.87865555 0.6530339 1.0177926 0.65214807
000100 b3 04 5f 3f 53 cb b7 3e 36 bb 66 3f b2 4e b5 3e
       0.87116545 0.35897312 0.9012941 0.35411602
000110 b2 b2 42 3f 96 32 87 3f 03 79 48 3f fb ed 80 3e
       0.7605392 1.0562313 0.7830965 0.25181565
000120 0a de 42 3f 85 07 70 3f 74 7a aa 3e 56 62 67 3f
       0.76120055 0.93761474 0.3329655 0.90384424
000130 b4 87 46 3f 7d 12 5d 3f 61 6e 6e 3f 07 4e 7e 3f
       0.77550817 0.86356336 0.93137175 0.9933781
000140 6b 21 17 3f a8 a8 54 3f 61 c7 2c 3f a7 82 a2 3e
       0.59035367 0.8306985 0.6749173 0.31740305
000150 96 67 08 3f 6a 12 27 3f ba 08 b0 3f e5 ff a8 3f
       0.5328306 0.6526247 1.3752663 1.3203093
000160 c6 69 10 3f 93 10 14 3f 8f b5 e1 3e 49 c0 8a 3f
       0.564114 0.5783779 0.4408383 1.0839931
000170 22 53 81 3f 50 21 74 3f 16 0c 97 3f d6 36 5a 3f
       1.0103495 0.9536333 1.1800563 0.85239923
000180 22 f5 82 3f 00 6f 05 3f cb 5d 3d 3f 38 bf b4 3f
       1.0231059 0.521225 0.7397124 1.4120855
000190 5f b6 89 3e 63 bd 57 3f d5 af b7 3f 7d d5 01 3f
       0.2689695 0.84273356 1.4350535 0.5071638
0001a0 e2 76 af 3e e8 f2 ec 3e a2 33 53 3f 0f 03 98 3f
       0.34270388 0.46279073 0.8250066 1.1875933
0001b0 32 f3 cd 3e 70 41 f5 3e ff 21 7c 3f e7 74 10 3f
       0.40224606 0.47901487 0.98489374 0.5642838
0001c0 8d 71 68 3f 7e 6a 2d 3f dd 8c 00 40 e4 84 1b 3f
       0.90798265 0.6774062 2.0085976 0.6074965
0001d0 7e 60 0b 3f f6 a2 9e 3f 54 c1 8f 3f d6 31 38 3f
       0.5444411 1.2393482 1.1230874 0.71951044
0001e0 e8 15 ab 3f 2f 2f a6 3f b2 aa 60 3e 84 75 f6 3f
       1.336606 1.2983149 0.21940115 1.9254613
0001f0 da 04 51 3f c5 1c 95 3f fb 69 9f 3e 2f b5 74 3f
       0.8164803 1.1649405 0.31135544 0.95588964
000200 f3 0a 8d 3e 35 8e 95 3e 99 6a fe 3f 8e 4c 15 3f
       0.27547416 0.29210058 1.9876281 0.5831994
000210 bb 5e 86 3f 7d e6 58 3f 50 45 87 3f 01 1e 97 3f
       1.049766 0.847267 1.0568027 1.1806031
000220 b7 d3 9b 3e 9e 38 b2 3f 0c b5 ce 3e be e2 a0 3f
       0.30434963 1.3923528 0.40372503 1.2569196
000230 33 da 6a 3f 9e 75 95 3f 08 94 23 3f 35 f7 9a 3f
       0.91739196 1.1676519 0.6389775 1.2106692
000240 7b ac 92 3f 39 4e 8b 3f 8c c9 09 3f 05 2b 8e 3e
       1.1458887 1.0883247 0.5382316 0.27767196
000250 e8 81 60 3f 93 7e c1 3e 6e a9 9d 3f a8 91 86 3e
       0.8769822 0.3779188 1.2317331 0.26283002
000260 07 2d ce 3e e7 e5 54 3f ad 9c 79 3f f9 74 33 3f
       0.40268728 0.83163303 0.97504693 0.7010036
000270 32 9a e2 3f 1c 85 ce 3f 72 03 33 3f 0c af e7 3e
       1.7703307 1.6134372 0.6992713 0.45250738
000280 11 a3 c7 3e 98 d1 25 3f 6f 5f e8 3f 5a 7b 0c 3f
       0.38991597 0.6477294 1.8154124 0.5487572
000290 80 32 c3 3f 2b 3b 29 3f 95 d4 bb 3e 70 1e f6 3e
       1.5249786 0.6610591 0.36685625 0.48070097
0002a0 e7 63 a0 3f eb 80 63 3f b9 00 a4 3f 8c ef 6b 3f
       1.2530488 0.8886859 1.281272 0.92162395
0002b0 2f 66 cc 3f 99 d5 49 3f 18 16 ad 3e d0 cb a2 3e
       1.5968684 0.7884155 0.3380592 0.31796122
0002c0 d8 f2 0d 3f a8 ed 79 3f 50 a6 93 3f be b6 40 3f
       0.55448675 0.9762826 1.153513 0.7527884
0002d0 b4 f4 d6 3e 21 6f 88 3e 21 75 73 3f 3c 0e 0c 3f
       0.4198357 0.26647285 0.951006 0.5470922
0002e0 a4 ed d3 3f 58 3e 24 3f 51 2f dc 3e 06 f5 0f 3f
       1.6556897 0.6415763 0.4300485 0.5623325
0002f0 34 d8 b1 3e 16 32 0a 3f dc 42 64 3f 6c 3d 08 3f
       0.34735262 0.53982675 0.8916452 0.5321872
000300 ef ee 73 3f 64 df f1 3e a3 58 e0 3e ff 9a ff 3f
       0.9528646 0.47240746 0.43817624 1.9969176
000310 3d 77 83 3f 0e f8 9c 3f e4 82 98 3f 23 7a 1b 3f
       1.0270764 1.22632 1.1914945 0.6073324
000320 4c fc 60 3f 9b 06 a9 3e 85 15 02 40 ea 51 7e 3f
       0.87884974 0.33012852 2.0325634 0.9934374
000330 6c 2b d2 3e 63 f9 2d 3f 69 ea ce 3f cf bb ce 3f
       0.41048753 0.6795866 1.6165286 1.6151065
000340 13 ff c5 3e c8 b5 52 3f 90 23 5f 3f c9 dd 04 3f
       0.3867117 0.82308626 0.8716364 0.5190092
000350 a8 92 e4 3f d4 92 f7 3f 31 7c a7 3f 3f 10 eb 3e
       1.7857256 1.9341683 1.3084775 0.45910832
000360 23 c6 09 3f 5d 5d 00 3f 47 b1 b3 3f 5a 64 b6 3e
       0.5381796 0.5014246 1.4038476 0.35623437
000370 7c 47 84 3f 07 a6 ab 3e 90 da 8e 3e 3d f3 a0 3f
       1.0334315 0.33525106 0.27901125 1.257423
000380 b6 63 a9 3e 48 f2 84 3f 2e 9f 15 3f c7 a7 59 3f
       0.33083886 1.0386438 0.58446014 0.8502163
000390 d6 92 8c 3f 09 2a b9 3f 9f e8 4a 3f be 66 01 3f
       1.0982311 1.4465953 0.792612 0.505474
0003a0 e3 7f 87 3e 19 19 bc 3f 7c 2f 9f 3f 59 43 98 3f
       0.26464757 1.4695159 1.2436366 1.1895553
0003b0 6d 60 39 3f 9d be 45 3f 2f 4d f7 3e c4 53 bb 3f
       0.7241276 0.7724398 0.48301074 1.4634938
0003c0 b2 85 a5 3e 00 83 cd 3f a5 c1 34 3f d4 de 14 40
       0.32328564 1.6055603 0.7060798 2.3261003
0003d0 90 93 03 3f 0c d0 4c 3f 98 cc e6 3e 75 1d 9f 3f
       0.5139704 0.80004954 0.45077968 1.2430865
0003e0 fd 70 24 3f 66 d4 f7 3e b9 eb f7 3e 85 a8 a0 3e
       0.64234906 0.48404235 0.4842203 0.3137857
0003f0 5c 86 9a 3e d4 b3 32 3f 92 b6 93 3f d3 24 26 3f
       0.30180633 0.69805646 1.1540091 0.6489994

bn1.bias f4 [400]
000000 48 18 b4 bd bd c4 e3 be 4b 16 2c bf 73 79 f9 be
       -0.08793694 -0.44486037 -0.67221516 -0.4872547
000010 ba ce 03 be 1b ef ed be 92 66 17 bf a5 a2 3b be
       -0.12871829 -0.46471485 -0.59140885 -0.18323763
000020 a4 26 1d bf 72 a0 a6 be 08 9c 0e bf ee a1 83 be
       -0.61387086 -0.32544285 -0.55706835 -0.2570948
000030 fc 9d e5 be 7f 66 10 3c 9f 0a 8b be 46 a4 6c be
       -0.44847095 0.0088134995 -0.2715654 -0.2310954
000040 11 63 30 bf a8 2e c4 be 15 6c 0f bf 75 8e df be
       -0.68901163 -0.38316846 -0.56024295 -0.43663374
000050 4b a0 d2 be 98 7a ab be 52 b7 26 bf 90 04 77 be
       -0.4113792 -0.3349197 -0.65123475 -0.24122834
000060 15 f2 26 be f5 10 c9 be b5 2e 40 bf b5 af 39 be
       -0.16303284 -0.3927075 -0.7507127 -0.18133433
000070 f3 33 20 bf 06 81 c8 be a7 c6 00 be 75 4d d8 be
       -0.6257927 -0.39160937 -0.1257578 -0.42246595
000080 40 0c e5 be 99 e7 fc bd a7 bb fa bd 08 bc 7a be
       -0.44735909 -0.12348861 -0.12242823 -0.2448579
000090 1d cf 56 bf 9b 0b 33 be a0 e8 13 bf 36 30 ad be
       -0.8390978 -0.17484896 -0.5777683 -0.33825845
0000a0 aa be 87 be 46 64 e0 be 52 8a 9b 3d f9 8b d0 be
       -0.26512653 -0.43826503 0.07594742 -0.4073179
0000b0 70 fe d4 be 45 30 0f bf 5c 96 5e bd c5 21 81 be
       -0.4160037 -0.5593303 -0.054342613 -0.25221077
0000c0 d0 68 50 bf 89 26 95 be 79 93 cf be b4 1a 0a bf
       -0.8140993 -0.29130962 -0.405422 -0.53946996
0000d0 97 f5 bd bd ad 2b bb bd 68 3c 91 be 77 b9 7b be
       -0.09275358 -0.0913919 -0.283664 -0.24582468
0000e0 31 8b d3 be ee 1a 6a be d3 33 ab be e5 7f 2f be
       -0.41317132 -0.22861835 -0.33437976 -0.17138632
0000f0 4c 89 fb be b8 f9 e8 be 28 e8 12 be ad 3d 31 bf
       -0.49128187 -0.4550302 -0.14346373 -0.69234735
000100 06 fe 43 be f5 0c 14 bf e1 ab 04 bf 4a 0b 47 bf
       -0.19139871 -0.5783227 -0.51824766 -0.777516
000110 e1 48 78 be 94 f6 d6 be dd e7 a6 be 08 b8 41 bf
       -0.24246551 -0.41985 -0.32598773 -0.75671434
000120 eb 01 b9 3d 38 0a ed be 5a ad 2b bf dd 6d 1b bf
       0.09033569 -0.4629686 -0.6706139 -0.60714513
000130 43 c8 39 bf ea 39 cd be 57 5a 72 be c1 b7 cb be
       -0.725712 -0.40083247 -0.23667274 -0.3978863
000140 f1 35 24 bf 3b 88 a1 be 62 54 0e bf ed 1d 4d bf
       -0.6414481 -0.31549248 -0.5559751 -0.8012379
000150 50 3c 11 bf 6c a5 18 bf 91 f3 40 bd 9d d4 c1 bd
       -0.56732655 -0.59627414 -0.047107283 -0.09464381
000160 f2 2e 00 bf da d0 46 bf 3f 5a 42 bf 13 51 7a be
       -0.5007163 -0.7766243 -0.75918955 -0.2444499
000170 5f 47 b0 be dc 18 1b be f8 87 d0 be 13 bc 00 be
       -0.34429452 -0.15146202 -0.40728736 -0.12571745
000180 bf 9e 39 be a4 e3 1e bf df 99 16 bf 7c 33 ee bd
       -0.18126963 -0.620661 -0.5882854 -0.116309136
000190 2a 2f 16 bf 44 ce 8d bb 6f 30 7e be 43 c5 ed be
       -0.58665717 -0.0043275673 -0.24823163 -0.4643956
0001a0 96 de c1 be 4d 09 14 bf b6 f4 cd be 28 c7 be be
       -0.37865132 -0.5782669 -0.40225762 -0.3726132
0001b0 0f 99 46 bf 59 cd 16 bf 82 54 5e be 23 94 0c bf
       -0.775773 -0.58907086 -0.21711925 -0.5491354
0001c0 f0 4e d4 be 4f 56 c1 be 09 96 e5 bd 95 f0 22 bf
       -0.41466475 -0.3776116 -0.112102576 -0.6364835
0001d0 e0 77 11 bf 60 82 0f be 5e 1c b6 be 20 77 02 bf
       -0.5682354 -0.14014578 -0.35568517 -0.5096302
0001e0 cc 6b 63 be c6 1f 81 be fa 7d 19 bf b6 33 c4 be
       -0.2220909 -0.25219554 -0.5995785 -0.38320702
0001f0 d9 36 07 bf cd 07 b0 be 1e 00 30 bf 24 3a 67 be
       -0.52818066 -0.34380952 -0.6875018 -0.22580773
000200 7c af 19 bf f6 0e 4e bf 46 00 a5 bd e6 6d 3f be
       -0.6003339 -0.8049158 -0.08056693 -0.18694267
000210 7a bc d1 be 94 e5 1a bf 6c 69 bc bd 89 7a 80 be
       -0.4096411 -0.6050656 -0.09199795 -0.25093487
000220 90 10 ed be d6 a4 a9 be b7 01 0c bf e4 9b 6c be
       -0.463017 -0.33133572 -0.54690117 -0.23106343
000230 b4 f4 b5 be 69 d1 99 be 30 48 9f be c6 e4 c5 bd
       -0.35538256 -0.3004258 -0.31109762 -0.09662776
000240 bf f3 47 be a1 b9 8e be 2f 7a 25 bf 96 51 1b bf
       -0.19526576 -0.27876 -0.6463956 -0.60671365
000250 29 24 fd be 38 13 1b bf a5 67 04 bf 2b b9 64 bf
       -0.4944165 -0.605762 -0.5172065 -0.89345044
000260 2d 93 42 bf 0a 5d c9 be 00 cb ec be fd 5d d4 be
       -0.7600582 -0.39328796 -0.46248627 -0.41477957
000270 35 c3 35 be 3f 91 6d be b8 54 9c be ca 5a 1a bf
       -0.17750247 -0.23199938 -0.30533385 -0.60294783
000280 fa 95 35 bf 3b bd 17 bf 4d 7c 85 be bd 8d 2d bf
       -0.7093197 -0.5927312 -0.26071396 -0.677944
000290 2d 49 7e be a8 07 dd be e5 62 30 bf e7 45 42 bf
       -0.24832602 -0.43169904 -0.689009 -0.7588791
0002a0 93 1a 99 be 32 dc c0 be 65 e7 8f be 4c 32 08 bf
       -0.29903087 -0.37667996 -0.28106228 -0.53201747
0002b0 a9 82 c4 bd 5b c4 05 bf 3b 6f 25 bf f3 b3 36 bf
       -0.09595234 -0.5225274 -0.6462285 -0.7136833
0002c0 9c 24 05 bf 63 6e ea be 83 50 c4 be 2c e4 36 bf
       -0.52008986 -0.45787343 -0.38342676 -0.7144191
0002d0 2e 4c 24 bf 49 67 1e bf c9 46 d4 be 2b 30 2a bf
       -0.6417874 -0.6187635 -0.41460255 -0.6647975
0002e0 5a 83 3e be a1 db a7 be db 6a 2f bf 43 a4 25 bf
       -0.18604794 -0.3278475 -0.68522424 -0.6470377
0002f0 52 b7 2c bf fe bd 10 bf bd 79 8e be f5 8e 44 bf
       -0.67467225 -0.56539905 -0.27827254 -0.76780635
000300 d3 a3 c8 be c7 a3 28 bf 71 1d 2a bf f2 19 2e be
       -0.39187488 -0.65874904 -0.66451174 -0.17002085
000310 6d e3 a6 be b6 d7 3c be 7c 1c 0e 3c 93 f5 ea be
       -0.32595387 -0.18441662 0.008673783 -0.45890483
000320 0d cc f4 bd d3 2f 40 bf a5 db cc bd 45 64 f1 be
       -0.11952982 -0.75072974 -0.10002831 -0.47146812
000330 14 49 d5 be c7 0f 0b bf 87 64 bd be f1 8c a0 be
       -0.41657317 -0.5432095 -0.3699076 -0.3135753
000340 68 ac 20 bf 78 81 dd be d0 7d da bd d0 14 1a bf
       -0.6276307 -0.4326284 -0.10668528 -0.6018801
000350 06 0c 05 bf 5b d2 51 be ec c7 48 be 0c 52 30 bf
       -0.5197147 -0.204904 -0.19607514 -0.68875194
000360 3e 4d 3f bf 25 fd e8 be 7f 56 64 be 09 85 3c bf
       -0.7472724 -0.45505634 -0.2229862 -0.73640496
000370 23 8a b6 be 0d 8f 39 bf 06 e5 19 bf a2 bb 92 be
       -0.35652265 -0.72483903 -0.6011509 -0.28658777
000380 be c4 2d bf a1 c2 ed be f4 4b 60 be 66 89 86 be
       -0.6787833 -0.46437553 -0.21903974 -0.26276702
000390 b6 d1 7b be 33 1f a6 be 6f c8 36 be 9d 1a 12 bf
       -0.24591717 -0.32445678 -0.17849897 -0.5707186
0003a0 dc 10 2a bf 79 a1 7e be 2a 80 96 3d c8 10 45 be
       -0.66431975 -0.24866284 0.07348664 -0.19244683
0003b0 1f e0 87 be da d5 20 bf 4c 72 22 bf e0 54 69 be
       -0.26538178 -0.6282631 -0.63455653 -0.22786283
0003c0 ed 24 70 bf b4 d5 16 be 64 f4 10 bf 42 56 ba be
       -0.93806344 -0.14729959 -0.5662291 -0.36393934
0003d0 cc cd d2 be a3 e9 0e bf 93 a9 16 bf 89 45 40 be
       -0.41172636 -0.5582525 -0.588525 -0.18776526
0003e0 ab 70 ee be c6 51 73 be 82 43 2e bf f2 49 2e bf
       -0.46570334 -0.23761663 -0.6807176 -0.6808158
0003f0 95 22 2c bf a4 6e d1 be 08 4d b1 be 53 03 12 bf
       -0.6724027 -0.40904725 -0.34629083 -0.5703632

fc2.weight f4 [300, 400]
000000 08 af c7 3d 10 f2 cf bd f2 09 f8 bc 7c 6b 50 3f
       0.097501814 -0.10153592 -0.03027818 0.8141401
000010 c1 76 42 be 92 ef 82 bf 41 2c 38 3e d1 16 6d be
       -0.18990614 -1.0229361 0.17985632 -0.23153235
000020 8c 5e 3a be 64 7f 0c be a6 2c 0e 3f ea f9 8e 3e
       -0.1820013 -0.1372047 0.5553688 0.27925044
000030 0f 7a 37 3f 97 a5 bc 3e b8 c8 fa 3d 65 fc 17 bf
       0.7167062 0.36845085 0.12245315 -0.593695
000040 4c a6 ec 3c 86 ad f2 3e 3a ec cb 3e f6 4b 34 3f
       0.02888789 0.47398013 0.39828664 0.7042841
000050 57 97 56 3e e7 cb 21 be 1d 79 5b 3c 50 06 85 3b
       0.20956169 -0.15800439 0.013395575 0.0040595904
000060 ff b6 a3 3e 98 da 95 3e 82 b8 09 be 3d 58 79 be
       0.31975552 0.29268336 -0.1344929 -0.24350066
000070 1d ee 00 bf 7b 55 6d be f6 2b 89 3e 1d 8a 8d 3d
       -0.5036333 -0.2317714 0.26791352 0.06911109
000080 b9 2a 4f be 30 40 ef bd 55 ec 99 be 49 13 d5 3c
       -0.20231141 -0.11682165 -0.3006312 0.026010172
000090 80 c3 d3 bd 48 ab 09 bf 8c 67 81 3d 3e 73 26 be
       -0.10340023 -0.5377698 0.06318578 -0.16254899
0000a0 c7 60 a2 3e 81 6e 14 bf e2 52 4d bd 4c 2e 06 bd
       0.3171446 -0.57981116 -0.05012787 -0.032758996
0000b0 4a f6 a8 be f7 eb b8 3c 64 bb 9d 3a 2e 64 30 bf
       -0.33000404 0.022573454 0.0012033996 -0.6890286
0000c0 40 63 c0 be fb e7 e6 bd e4 7e 21 3e 5d 2b c9 3e
       -0.37575722 -0.112747155 0.15771061 0.39290896
0000d0 c1 ec 89 be 4b 41 d1 be 68 28 6b bd ff b0 03 bf
       -0.2693844 -0.40870127 -0.05741158 -0.5144195
0000e0 d3 b8 5e bd fd 67 01 bf 1f 26 0f 3f e3 c0 80 be
       -0.05437548 -0.505493 0.55917543 -0.2514716
0000f0 60 56 12 3f 92 a0 8a 3e 6b c3 e5 bd d8 08 16 be
       0.5716305 0.2707563 -0.11218914 -0.14651811
000100 d8 3c 42 3e ae b9 81 3e af 7b 82 be 97 73 a4 be
       0.18968523 0.25336975 -0.25484988 -0.32119438
000110 19 39 fc bd ff e9 b2 be ad 8e 15 be 44 e6 26 3e
       -0.12315578 -0.3494415 -0.14605208 0.16298777
000120 24 50 3f 3d 75 5a b2 bf c3 e0 b5 bc 28 2a 12 3e
       0.046707287 -1.3933855 -0.022201901 0.14273894
000130 64 32 d4 3e 54 20 98 3d 20 54 2b bf b9 b2 70 3d
       0.41444695 0.07428041 -0.6692524 0.058764193
000140 c6 a7 c1 3e 8c 42 8f be 57 c7 91 bd dd 78 78 3e
       0.37823313 -0.2798046 -0.07118099 0.24264856
000150 91 77 3b 3e 9c e2 21 3e 6b 82 1a 3d 2d b5 3a 3f
       0.1830733 0.15809101 0.037722033 0.729327
000160 d0 d8 9e 3d 1f 9a 2a 3c 11 b3 22 3d 22 44 b0 3e
       0.077561975 0.010412722 0.039721552 0.3442698
000170 66 16 cb 3e 2c 43 48 be 76 e5 03 bf b9 93 04 bf
       0.39665526 -0.19556874 -0.51522005 -0.51787907
000180 14 c6 20 bf e4 51 da 3e cb 78 b7 3e 24 64 27 bd
       -0.62802243 0.42640603 0.35834345 -0.040866986
000190 d5 b4 e8 3c 55 cb d8 be 51 b8 00 bf f3 77 bb 3e
       0.02840654 -0.4234263 -0.50281245 0.36614951
0001a0 17 e0 09 be b7 0c fd bc 03 b8 a3 b8 fe d8 11 3e
       -0.1346439 -0.030889852 -7.8067205e-05 0.14242932
0001b0 e8 70 0a bf 33 fa 9d 3e 4b 21 8c 3d d8 4b 00 3e
       -0.5407853 0.3085495 0.06842288 0.12528932
0001c0 69 a3 3d bd 8c 1b 17 bf 8b df f6 be 55 91 88 3e
       -0.04629842 -0.5902641 -0.48217425 0.2667338
0001d0 10 ed 1e 3e e4 06 43 3f 96 0b 32 3e 8e e3 9b 3e
       0.1552012 0.7618239 0.17387232 0.30447048
0001e0 f8 f0 3c 3f a1 23 58 bd eb c1 04 3e 34 ae 81 3e
       0.7380519 -0.052768353 0.12964599 0.2532822
0001f0 28 af 9a bd f6 1e bc 3e 2c 77 71 3d f2 05 0c bd
       -0.0755294 0.3674237 0.05895154 -0.034185357
000200 3b ac 50 be d4 4b 70 3c 87 7f 2e bf 3b f3 a8 be
       -0.203782 0.014666516 -0.6816334 -0.3299807
000210 a2 90 10 3e 51 f0 e3 be d9 32 6d 3d 44 6e aa 3e
       0.14117673 -0.44519284 0.05790982 0.3328725
000220 b8 e3 59 bd 8d 7c 97 bf 39 c6 01 3c 4f ef b0 3e
       -0.053195685 -1.1834885 0.007920795 0.34557578
000230 2e 8c af be f7 0b 04 3e 34 fe 07 bd 66 9b 17 bd
       -0.34286636 0.12895189 -0.03320141 -0.037013434
000240 f9 c4 0b 3e a6 47 e3 3d d0 fd 05 bf 89 32 07 be
       0.13649358 0.1109765 -0.5234041 -0.13202871
000250 59 4f 1b 3f 91 3a 98 be 05 2d 4e 3f 0d 3e 88 3e
       0.6066795 -0.29732183 0.80537444 0.2660984
000260 cb c3 fc bb b2 f4 29 3e 43 c9 79 be 51 f1 a6 3d
       -0.00771377 0.1659725 -0.24393182 0.08151496
000270 28 bb 0f 3e 08 19 f6 3e 46 9f 8e bf 9a 88 47 bd
       0.14036238 0.48065972 -1.1142356 -0.048714258
000280 38 60 a2 3d 63 90 a3 3d b4 17 07 bf e3 59 af be
       0.079285085 0.07986524 -0.52770543 -0.34248266
000290 e5 3c e9 be 61 7e 89 3d f6 9e bc 3c 49 0c 0c 3e
       -0.4555427 0.06713558 0.023025017 0.13676561
0002a0 57 fa f4 be 6f e0 b5 be a8 80 0d bf 88 30 e6 3e
       -0.47847244 -0.35522792 -0.5527444 0.449589
0002b0 be 96 c9 3c e7 df 94 bd 23 e2 2b 3e db 15 f7 3d
       0.024608012 -0.072692685 0.16785483 0.120647155
0002c0 c3 27 da bd c0 3b 52 be 33 c9 2b 3d 5f b1 43 3e
       -0.10652115 -0.20530605 0.041939925 0.1911063
0002d0 15 3a 04 3f 51 1d 0b 3d cd de ab be cb 85 f1 bd
       0.51651126 0.033963505 -0.3356842 -0.11793097
0002e0 f1 6e 35 3d 86 93 ed ba 7e 11 ab 3e 96 97 c7 3d
       0.044295255 -0.001812563 0.33411783 0.097457096
0002f0 83 da 19 be 90 57 35 3e 77 6d 57 be b6 73 bf 3e
       -0.15024762 0.17709184 -0.21037851 0.37392968
000300 d9 86 2d 3f f4 be 00 3f 33 cc 2a bd 2b 1a 15 bf
       0.67783886 0.5029137 -0.041698646 -0.58243054
000310 fa 15 30 bd 15 0e 5c 3e 97 ce 7e 3f 67 40 5a bd
       -0.04298971 0.21489747 0.9953398 -0.053284075
000320 4d 58 ce be d3 67 ca 3e 3a 57 0d bf 35 a6 22 bf
       -0.40301743 0.39532337 -0.5521122 -0.6353486
000330 9b 66 47 3b f7 06 24 be e6 3a 07 40 33 4e a9 be
       0.0030426148 -0.16018282 2.1129699 -0.33067474
000340 22 1f c7 be fc 25 c1 3e 78 fe b7 3e 9a a2 5b be
       -0.3889094 0.37724292 0.35936332 -0.21448746
000350 50 a1 e5 be 92 7b 85 be 79 b6 8b bf c9 77 11 be
       -0.44849634 -0.2607084 -1.0915061 -0.1420585
000360 32 0d 9b be af 98 9e 3e 79 7e 22 bf bc 9a 91 3e
       -0.30283505 0.30975863 -0.6347423 0.28438365
000370 32 46 eb 3e c7 23 47 3e 26 c4 21 bd 74 51 2c bf
       0.45951992 0.19447242 -0.039493702 -0.6731179
000380 cd 12 22 3e fb 4d 6a 3f 8e fa 12 3c f3 4b 8b 3e
       0.15827484 0.9152524 0.00897087 0.27206382
000390 1d 50 fa bd e9 f6 d5 3e 93 ae ee bd 43 8d e0 3e
       -0.12222312 0.4178994 -0.11654391 0.43857774
0003a0 56 0f 61 3d da 6a b2 bf b7 3b 3a 3e fe 89 eb 3e
       0.054946266 -1.3938859 0.18186842 0.46003717
0003b0 52 c9 01 bf 48 d5 38 bf 64 9a 86 3c 09 76 bc 3e
       -0.50697815 -0.7220044 0.016431041 0.36808804
0003c0 f5 44 fa 3d 1f 1f f1 be d9 0a af be a7 e7 1b bf
       0.12220184 -0.47094056 -0.34187964 -0.6090035
0003d0 c9 16 cb 3e 24 c2 e9 3e e7 57 81 bf 99 04 f3 bc
       0.3966582 0.4565593 -1.0104951 -0.029665278
0003e0 67 11 25 be 85 78 0a 3e 27 02 86 be cb 13 69 bc
       -0.1611992 0.13522537 -0.26173517 -0.01422591
0003f0 ba a8 12 bd cd 08 36 be 4a 50 91 3d c7 ff cb be
       -0.03580544 -0.17776795 0.07095392 -0.3984358

fc2.bias f4 [300]
000000 05 15 03 3d f5 f6 b8 3d 91 38 a3 bd bb 8f 80 3d
       0.032002468 0.09031478 -0.079697736 0.062774144
000010 4c 09 16 3d d7 38 71 be 7d f4 85 bd c6 cc 89 3d
       0.03662996 -0.23556839 -0.06540773 0.067285106
000020 40 4d bb 3c b2 47 bd 3d 70 a3 a6 bd 1d e3 08 3d
       0.022863984 0.092421904 -0.08136642 0.033419717
000030 97 e6 09 3e 2c 6b 9a bd 64 41 ef bd 8b d3 12 3e
       0.1346687 -0.07539973 -0.11682394 0.1433851
000040 da 05 06 bd 84 f7 00 3e 0c aa c1 ba 49 93 8c 3a
       -0.032720424 0.1259442 -0.0014775409 0.0010725047
000050 a7 90 b4 3d 13 db c9 bd bc 68 f2 bd 64 35 0c bd
       0.08816653 -0.09856238 -0.11836383 -0.034230605
000060 5b db d4 3c 80 a3 57 bb 3b 38 b7 3d 38 63 5f 3c
       0.025983503 -0.003290385 0.08946272 0.013634495
000070 bb 61 d3 bd 11 f8 78 3c 72 7d 19 3d 53 1e 76 ba
       -0.10321375 0.015195862 0.03747315 -0.0009388674
000080 35 89 78 bd c8 dd 5f be 57 5e 17 3e a5 95 88 3d
       -0.060677726 -0.21861947 0.14782082 0.066691674
000090 b9 0f 13 be d5 f0 13 be 72 20 3b bd de 1f 40 3d
       -0.14361466 -0.14447339 -0.04568524 0.04690539
0000a0 79 2a 6f 3d 1e 50 a8 bd 5a 45 bd 3a e7 bc 3c 3d
       0.058390114 -0.08218406 0.0014440224 0.04607859
0000b0 b1 9c 82 bc af e7 92 bd ce 48 a5 bd d3 8b 0a 3e
       -0.015943857 -0.071730964 -0.08070527 0.13529901
0000c0 f2 ce 51 3e 47 4a 0b be 16 65 c5 bd a7 d1 05 be
       0.204891 -0.13602553 -0.09638421 -0.13068257
0000d0 96 bf 20 3e dd 4d 3c 3e 08 3b 28 bd 66 4b 48 be
       0.15698084 0.18389077 -0.04107192 -0.19560012
0000e0 3c e8 c3 bd 2a ef 5c 3d b0 13 22 3e b1 05 08 be
       -0.095657796 0.053939022 0.15827823 -0.13283421
0000f0 5e c7 73 bc 20 e4 45 3e 16 63 30 3e 65 42 89 bd
       -0.014879076 0.19325304 0.17225298 -0.06702117
000100 d2 92 df 3d 75 b7 92 3e 2e 9d 40 3d 84 5b 0e 3b
       0.109166756 0.28655592 0.0470249 0.0021722028
000110 80 0c 86 bd 75 7d 7d 3e 12 ad 16 3c 39 4f 35 3d
       -0.06545353 0.2475489 0.009196537 0.044265006
000120 3d 42 65 3d be b5 15 3e 12 c8 fb bd 2d ad 3a 3c
       0.055971373 0.1462011 -0.1229402 0.011393827
000130 ac 18 83 3d 49 ec 17 bd 2d 5b a2 bd 23 e9 14 be
       0.0640119 -0.037090573 -0.07927547 -0.1454206
000140 3a b6 15 bc 96 99 20 3e 68 cd b5 3d 94 5f 4d 3e
       -0.0091376845 0.15683588 0.08877069 0.20055991
000150 9f 41 96 3d e4 36 d3 bd 7f 99 08 3d 32 91 9f bd
       0.07336735 -0.10313204 0.03334951 -0.07791366
000160 5c ce 88 3d 9f c0 ac 3d ae 45 56 bc 2c 7a 9a 3d
       0.06679985 0.08435177 -0.013078136 0.07542834
000170 e0 e6 81 3e b1 70 93 bd 45 50 22 be f7 ae 2e bd
       0.25371456 -0.071992286 -0.15850933 -0.04264733
000180 c9 2d 05 3e 59 b3 33 3e cf 96 ac 3d 0b 44 58 3e
       0.13005747 0.17548884 0.08427202 0.21119706
000190 49 43 c3 bd 3e ed ae bd a7 ce e1 bd 58 31 2c be
       -0.09534318 -0.08541344 -0.11025744 -0.16815698
0001a0 5d ae cd bd e3 5e 43 3d ac cc 26 3e a7 1c a1 bd
       -0.10043023 0.047697913 0.16289014 -0.07866793
0001b0 09 02 14 3e af 69 77 3d 23 68 ab bd 4e 49 d3 3d
       0.14453901 0.060403522 -0.08369472 0.10316716
0001c0 e0 be 36 3e 91 04 4a 3e a3 6a a0 bc 96 08 7b 3e
       0.1784625 0.19728304 -0.019582098 0.24514994
0001d0 9e cf 65 3d 0b 1a ff 3d aa 66 b2 bd 1d bd df 3c
       0.056106202 0.12456139 -0.08710988 0.027311856
0001e0 57 36 08 be 65 98 ae 3b 81 ad 30 3e 18 77 50 be
       -0.13301979 0.0053282254 0.17253686 -0.2035793
0001f0 11 95 7c 3e c7 b4 8d bd fc 70 9a 3e 02 0c 33 3e
       0.2466624 -0.06919246 0.30164325 0.1748505
000200 f5 1d b9 bd 4c a5 08 3d 2f 10 59 3d 47 0f 2f 3e
       -0.09038917 0.033360764 0.05299395 0.17095672
000210 fb 19 41 3d ac 4a 35 bd df d2 8a 3d 74 da 4d 3d
       0.047143918 -0.044260666 0.06778502 0.05025716
000220 82 aa 27 be ba 2b a2 3d f0 68 b0 3c 99 3d 1b 3e
       -0.16373637 0.079184964 0.021534413 0.15160216
000230 a7 94 d1 3c 36 b9 c7 3c 1f 99 49 3d 18 61 af 3d
       0.025583578 0.024380308 0.049218293 0.08563441
000240 b6 f0 ed 3c 0c e8 5e bc ec 30 39 3e 4a 7c 94 bd
       0.029045444 -0.013605129 0.18085068 -0.07250269
000250 8b 82 18 3b 39 64 8e 3d 6f 4e 0e 3e 69 a0 c5 bd
       0.002327117 0.0695271 0.13897108 -0.096497364
000260 0b ad 2c 3e 45 76 82 3e 6c ee 17 bd ad 33 07 3d
       0.16862886 0.25480857 -0.03709261 0.033008266
000270 9d d7 21 be cc 40 bd bd 30 da e6 bc 69 ed 51 3d
       -0.15804906 -0.09240875 -0.028180212 0.051251803
000280 7e 0e 2f bd 9b a1 b5 3c ce 12 43 3c cd 0b 8f 3c
       -0.04273843 0.022171786 0.011906339 0.017461682
000290 e1 6e 9b 3d 27 9f e6 bd cb c8 62 3d 77 1e 1d be
       0.07589508 -0.11260825 0.055367272 -0.15343653
0002a0 6d a7 89 be 3a 63 1d 3d 78 5d 0c bd e6 4c f4 3d
       -0.26885548 0.038424708 -0.034268826 0.1192873
0002b0 35 2b 1e 3e 2f 80 6f 3d c3 de 44 bd 8f 11 53 bd
       0.1544617 0.058471855 -0.048064005 -0.051530417
0002c0 d3 3c c3 3d 45 94 25 3d 5e dc 35 3e 77 4c 89 be
       0.09533086 0.040424604 0.17759845 -0.2681615
0002d0 4d 1e 1f bd 31 7f b3 3d 34 a6 b4 bd e1 24 90 be
       -0.038847256 0.08764494 -0.08820763 -0.28153136
0002e0 b8 6f 18 3e 8d d0 fc bd de bb fc 3d d6 0b 9e be
       0.14886367 -0.123444654 0.1234052 -0.30868405
0002f0 2f 05 bd 3b be a7 63 bc 70 76 9c bc 42 7e 5c 3c
       0.00576844 -0.013894973 -0.019099444 0.013457837
000300 76 50 71 3e 91 4c 7d bc 8c 8c f3 3d 6b 62 0b bd
       0.2356585 -0.015460149 0.118920416 -0.034029406
000310 e8 e4 c3 3d 72 39 61 3e e6 a4 0b 3e fd 1b fc bd
       0.09565145 0.2199457 0.13637123 -0.12310026
000320 af a3 a2 3c b6 a8 51 be 82 2f c0 3b 2c 9e fa 3d
       0.019853441 -0.20474514 0.0058650384 0.122372
000330 06 dd ae bd ad 28 37 be b5 94 1f 3e c5 e1 71 bc
       -0.085382506 -0.1788661 0.15584071 -0.0147633
000340 03 b5 25 3e 35 f4 b9 bd e9 f1 03 3e fe 42 41 3e
       0.16182332 -0.09079782 0.1288525 0.18873212
000350 bb 29 61 bd 1c 68 54 3e 0e 07 b4 3a cb 62 5a 3d
       -0.054971438 0.2074284 0.0013735013 0.053316873
000360 23 a0 e3 3d 5e eb c5 bd 94 75 31 3e 59 95 45 3e
       0.11114528 -0.09664033 0.17330009 0.19295253
000370 e1 dc e3 bd de 11 81 3e 9b 9e 21 3e ea d3 70 bd
       -0.11126114 0.25208944 0.1578316 -0.058795847
000380 96 4e 1e bd 49 36 51 bb 91 76 9c 3c 16 0c 70 3e
       -0.038649164 -0.0031923226 0.019099506 0.2344211
000390 61 2d 90 3d 7f 24 5a bb b9 40 25 3d cb ad ae bc
       0.07039905 -0.0033285914 0.040344927 -0.021323105
0003a0 57 c0 11 3d 28 d3 ae be fc 85 a3 3e 68 38 3d 3e
       0.03558382 -0.34145474 0.3193816 0.18478549
0003b0 d4 5d ba bc f9 9c ba bc bb 64 8b 3d 44 de af 3d
       -0.022749819 -0.022779929 0.06806322 0.08587316
0003c0 ba e1 9b 3d fe d1 80 bd ca 45 28 3e df ce 70 3e
       0.07611413 -0.06290053 0.16432872 0.23516415
0003d0 50 b8 b3 bd 21 0c 7f bd 1d 60 de 3d 59 a3 a0 bd
       -0.08775389 -0.062267426 0.10858176 -0.07843656
0003e0 7c d4 d9 bd 33 de 65 3e 3b 0f f9 3c 8b 0d 13 3e
       -0.10636231 0.22448044 0.03040277 0.14360635
0003f0 37 6d 88 bc 1a 7b b8 bb 8a e9 2a 3e 53 7b f6 3b
       -0.01665364 -0.005629909 0.1669065 0.0075220256

bn2.weight f4 [300]
000000 35 03 27 40 96 ff e4 3f 8d ba dc 3e bd 04 20 40
       2.6095707 1.7890499 0.43111077 2.5002892
000010 98 d6 43 3f 9d 4b 44 40 3e 0d 5e 3f b7 60 2f 3f
       0.7649932 3.067115 0.86738956 0.6850695
000020 e4 3a 9e 3e 8f e8 4b 3f 63 21 90 3f dc 72 08 3f
       0.30904305 0.7965173 1.1260189 0.5330026
000030 e6 4b 89 3f aa 42 0c 3f fe d4 77 3f ac cd 64 3f
       1.0726287 0.5478922 0.96809375 0.8937633
000040 fd a2 3b 3f 68 48 46 40 c1 c3 2b 40 eb 1f d0 3f
       0.73295575 3.0981693 2.6838229 1.625974
000050 5e fd f9 3e b8 f9 11 3f f4 cd ee 3f 6b 3c 09 40
       0.48826116 0.57021666 1.8656602 2.1443126
000060 10 47 17 40 92 b4 0a 40 d4 26 d1 3f 2a 8a 15 3f
       2.3637123 2.1672711 1.6339974 0.58413947
000070 3d b7 02 40 6f 24 aa 3f 49 f2 23 3f 3d 24 b6 3f
       2.042434 1.3292369 0.6404157 1.4229809
000080 9d 15 89 3f 3b e2 c0 3f 51 ed 52 40 15 cd a6 3f
       1.0709721 1.506904 3.2957346 1.3031336
000090 fe ee 49 40 c4 02 64 40 db c8 61 3f 4b 6e 53 3f
       3.155212 3.5626688 0.88197106 0.8259017
0000a0 be f4 8e 3f a8 d6 7f 3f 89 8a d6 3e a7 6a ac 3f
       1.1168439 0.99936914 0.4190257 1.3470048
0000b0 2f 47 3a 40 c7 f7 19 40 b2 73 22 40 37 94 1c 40
       2.9105947 2.4057481 2.5383115 2.4465463
0000c0 ac aa 5d 3f 41 cb 40 3f ce dc 54 3f 57 04 26 40
       0.8658855 0.7531014 0.8314942 2.594015
0000d0 3f f5 09 40 80 d9 3e 3e 9a 36 bd 3f 7a a6 0c 40
       2.1555936 0.18637657 1.4782288 2.197661
0000e0 06 36 2b 3f 94 a9 b0 3f a9 b7 37 40 ce b5 8d 3e
       0.6687931 1.3801751 2.8705847 0.27677768
0000f0 f0 0f cf 3f 4d bb 52 40 1b e8 49 40 2a bd 47 3f
       1.6176739 3.292682 3.1547916 0.78023016
000100 12 4c a0 3f cb 8b af 3f 9e 05 d5 3f c2 3c e2 3f
       1.2523215 1.3714536 1.6642339 1.7674792
000110 d9 b6 77 3f 9d 34 39 3f 84 f9 c3 3f 3d 1e a1 3e
       0.9676338 0.72345906 1.5310521 0.31468382
000120 66 1d 6a 3f 27 35 a6 3f 5b 9e ca 3f f3 06 61 3f
       0.9145111 1.2984971 1.5829576 0.8790123
000130 d8 3c d4 3f 52 1e be 3f 55 ce 27 40 ac ca e4 3f
       1.6581068 1.4853003 2.6219685 1.787435
000140 6c e1 2b 3f 5d 0c d6 3d 79 51 15 40 94 4d 58 3e
       0.6714084 0.10451577 2.3330977 0.21123344
000150 27 37 c2 3f 80 d8 09 40 b0 63 ae 3f 83 92 54 3f
       1.5173081 2.153839 1.3624172 0.8303606
000160 17 72 95 3f 25 75 21 40 a2 7b 52 3e f7 88 e6 3f
       1.1675442 2.522775 0.20554975 1.8010548
000170 fd 8c 4e 3f c9 8c dc 3f 57 23 24 40 3d b0 af 3f
       0.8068388 1.7230464 2.564657 1.3725659
000180 33 65 6a 3f bb f0 2b 40 01 74 b1 3f e6 eb 72 3e
       0.9156067 2.686568 1.3863527 0.237228
000190 8f 8e 36 3f 07 eb dd 3f 90 7e de 3f 49 22 98 3f
       0.7131128 1.733735 1.7382374 1.1885463
0001a0 37 e2 1d 3f 83 51 a0 3f 87 bf bf 3f 08 d7 e7 3f
       0.616733 1.2524875 1.4980325 1.8112497
0001b0 82 00 89 3f 17 ad b7 3f bb e0 e4 3f 1d e0 02 40
       1.070328 1.4349698 1.7881082 2.0449288
0001c0 bb 97 5d 3f e3 67 a2 3f eb 80 2c 3f c4 30 d2 3f
       0.8655965 1.2687954 0.67384213 1.6421132
0001d0 04 9d 9d 3f 19 dd 84 3f cc 94 3b 40 5b 77 1f 40
       1.2313542 1.0379974 2.9309568 2.4916599
0001e0 2f f6 02 40 d4 11 f5 3f fa e9 d0 3f 3e 57 90 3f
       2.0462759 1.9146066 1.6321404 1.1276624
0001f0 bc 52 32 3f cd 06 09 40 0a d6 48 3f 06 0d 2b 3f
       0.6965749 2.14104 0.784516 0.6681675
000200 55 3f d2 3f b3 e3 d7 3f fe 03 b1 3f 74 7c fa 3f
       1.6425577 1.6866363 1.3829343 1.956923
000210 1c 3c e2 3f b2 5e a2 3f 4d 9f c7 3f ba 85 86 3f
       1.7674594 1.2685149 1.559549 1.050956
000220 7b 48 30 3f fd c5 ac 3f 1a 5d dc 3f 43 9e 98 3f
       0.68860596 1.3497921 1.7215912 1.1923298
000230 b4 06 cf 3f e4 90 7d 3f aa ac 86 3f 75 41 d4 3f
       1.6173921 0.9904921 1.0521443 1.6582476
000240 df 78 44 3f 78 71 12 3f 35 51 20 40 67 d4 44 40
       0.76746935 0.5720439 2.5049565 3.075464
000250 0f fd b7 3f 64 2b ec 3f 49 06 97 3f 8b ce 94 3f
       1.4374102 1.8450742 1.1798793 1.1625532
000260 71 85 61 3f 0d d2 d7 3f 04 ba 55 3f a3 1e 07 40
       0.8809424 1.6860977 0.8348696 2.111245
000270 09 69 97 3f 1f e1 bf 3f 95 82 b9 3f cf b2 a8 3f
       1.1828929 1.4990577 1.4492975 1.3179568
000280 46 99 2c 40 90 33 4b 3f dd 2a 09 40 05 79 31 3f
       2.696855 0.79375553 2.1432412 0.69325286
000290 94 ff 4b 3f 1a 1b 80 3f 35 59 e4 3f 3e c3 94 3f
       0.79686856 1.0008271 1.7839724 1.1622083
0002a0 ff 43 12 40 e0 e6 bf 3f ba d5 ae 3f bb 30 79 3e
       2.2854002 1.4992332 1.3658974 0.24334995
0002b0 07 9e 47 3f 9c 98 14 40 43 27 3c 40 38 a8 58 3e
       0.77975506 2.3218145 2.9398963 0.2115792
0002c0 05 c0 cd 3f 72 3b dc 3f 39 f6 0d 40 4f fe 10 40
       1.6074225 1.7205641 2.2181532 2.2655218
0002d0 c8 66 b8 3f 99 65 9f 3f ac 73 98 3e 0d 82 6f 40
       1.4406366 1.245288 0.2977575 3.7423127
0002e0 7a df de 3f 18 b7 a3 3f c7 ac d5 3f 92 69 56 40
       1.741195 1.2790251 1.6693352 3.3501935
0002f0 77 24 81 3f 06 bb f0 3f d9 ce b7 3f 7b e1 bb 3f
       1.0089253 1.8807075 1.436 1.4678186
000300 89 f1 02 40 c8 c7 f6 3f 2e 1c a3 3f 74 8c 81 3f
       2.0459921 1.9279718 1.2742975 1.0120988
000310 c1 81 a7 3f c9 22 43 3f 9c 9e d1 3f 70 4e 09 40
       1.3086473 0.7622495 1.6376529 2.1454124
000320 fb ef 10 3f bf c5 3b 40 0d 01 05 40 13 c7 be 3f
       0.5661618 2.9339445 2.0781891 1.4904503
000330 fb 6e 45 40 e2 4a e6 3f 8e e1 a9 3f d9 97 0a 3f
       3.0848987 1.7991602 1.3271959 0.5413795
000340 f2 b8 a9 3f f1 c3 af 3f c3 84 b2 3f 52 88 da 3f
       1.3259566 1.3731672 1.3946766 1.7072852
000350 d3 db b9 3f 76 3d 4d 3e cc 61 c3 3e b2 f7 f5 3f
       1.452021 0.20042977 0.3816055 1.9216216
000360 1a 27 82 3f 3c a3 dc 3e c3 ed 74 3f 82 f0 8c 3d
       1.0168183 0.43093288 0.95675296 0.06881811
000370 45 27 4a 3f 97 92 75 3f c3 c8 f7 3e a6 3e 39 3f
       0.7896617 0.95926803 0.48395357 0.7236122
000380 bb 49 ae 3e 66 0c 29 40 68 11 cf 3f eb 1f 8e 3f
       0.34040627 2.6413817 1.6177187 1.110349
000390 15 e4 a7 3f 40 0f 0c 3f 47 aa 20 40 f9 35 43 40
       1.311648 0.5471077 2.510393 3.0501692
0003a0 c5 0f a2 3f 42 cc 30 40 e0 03 68 3f f9 f4 39 40
       1.2661062 2.762467 0.9063091 2.905577
0003b0 7f 5c d5 3f fe 00 6e 3f 9a cb 93 3f 10 fa 3e 40
       1.6668853 0.92970264 1.1546509 2.9840126
0003c0 51 e1 c9 3f 38 62 0d 40 5a a8 8b 3e 6f f2 9a 3f
       1.5771886 2.2091198 0.2727688 1.2105235
0003d0 4f 7f e4 3f f1 99 e4 3e 56 1d 6b 3f 41 26 ef 3f
       1.7851351 0.44648698 0.9184164 1.8683549
0003e0 2a e3 62 3f 9a 11 56 3f 99 d3 7a 3f e5 24 b2 3f
       0.88627875 0.8362061 0.9797912 1.3917509
0003f0 85 3a 7f 3f b2 85 d6 3f 67 bf b9 3f 7b e7 20 40
       0.9969867 1.675955 1.4511536 2.5141284
