experiments/luna_v1/saves/pi_network.pth (torch_old, 505222 bytes, 10 tensors)

fc1.weight f4 [400, 8]
0	0x3e980562	0.29691607
1	0x3eee2282	0.46510702
2	0xbdea3a29	-0.114368744
3	0xbeca0531	-0.39457086
4	0xbe3d1ff9	-0.18469228
5	0x3e1d7b5b	0.15379088
6	0x3eb1ab30	0.34700918
7	0x3eed3c6f	0.4633517
8	0xbe053473	-0.13008289
9	0x3f12197f	0.57070154
10	0xbdfd0dea	-0.123561695
11	0xbd8cf0ea	-0.06881888
12	0x3ecf666a	0.40507823
13	0x3f1134f4	0.56721425
14	0x3e306cd2	0.17229012
15	0x3db6fed5	0.08935324
16	0x3e877dd8	0.264632
17	0x3f8b41dd	1.0879475
18	0xbea63238	-0.3246019
19	0xbf67a597	-0.90487045
20	0x3ca5c3b7	0.020234926
21	0xbe468057	-0.19384895
22	0x3efdbccd	0.49558106
23	0x3ed8586b	0.42254958
24	0x3dc8e4b8	0.0980925
25	0x3e899407	0.26870748
26	0xbe9d47c3	-0.30718812
27	0xbed08fa3	-0.40734586
28	0x3d4b7c95	0.049679358
29	0x3d8fb624	0.070171624
30	0x3e83d91a	0.25751573
31	0x3ea6ce05	0.32579055
32	0xbededb28	-0.43526578
33	0x3eedc9c9	0.46443012
34	0xbde54c0a	-0.11196144
35	0xbf2aaa5e	-0.6666621
36	0xbd368ff4	-0.04457088
37	0x3da4401c	0.080200404
38	0x3ed83a4f	0.42231986
39	0x3f078918	0.52943563
40	0x3e9c08d0	0.30475473
41	0x3f53f4f7	0.8279566
42	0xbd84abf7	-0.06478112
43	0xbdc2e1d7	-0.09515732
44	0x3dba5b16	0.090994045
45	0xbe165463	-0.14680628
46	0x3ef01c19	0.46896437
47	0x3f07fcb7	0.5311999
48	0xbe75ce23	-0.24004416
49	0x3f28d086	0.6594318
50	0x3d26388e	0.04058128
51	0xbf477716	-0.77916086
52	0xbd72db0f	-0.05929094
53	0xbde1ee52	-0.11031784
54	0x3df949b2	0.121722594
55	0x3ecf782e	0.40521377
56	0xbe736993	-0.23770742
57	0x3f5f5796	0.8724302
58	0x3eab81f8	0.33497596
59	0xbefbb5c0	-0.49162102
60	0xbe601c5f	-0.21885823
61	0x3e2a17ee	0.16610691
62	0x3eb53bf6	0.3539731
63	0x3ed6b3b8	0.4193399
64	0xbf01371e	-0.5047473
65	0x3ef49ab3	0.47774276
66	0xbd9a6857	-0.075394325
67	0xbf238f26	-0.638903
68	0x3e1e3d30	0.15453029
69	0xbd1f8c64	-0.038952246
70	0x3ef99a5d	0.48750582
71	0x3edd3471	0.43204072
72	0x3d05fdc4	0.032712713
73	0x3fa9bd9b	1.3260988
74	0x3d8eb41c	0.06967947
75	0xbf0dfb46	-0.5546154
76	0x3e20d2d5	0.15705426
77	0x3e0ccecd	0.13750763
78	0x3f19f573	0.6014015
79	0x3f038dbc	0.51388144
80	0xbec43ef6	-0.38329285
81	0x3f6e58ea	0.9310442
82	0xbe8ebf75	-0.27880445
83	0xbf34343b	-0.703922
84	0x3de9ad67	0.11410027
85	0x3e61317f	0.21991538
86	0x3e2798cb	0.1636688
87	0x3ede44b9	0.43411806
88	0xbdfa04f4	-0.12207976
89	0x3f301335	0.6877931
90	0xbebd48ef	-0.36969706
91	0xbf19d49e	-0.60090053
92	0x3edc6b76	0.43050736
93	0x3edd6556	0.43241376
94	0x3db50a01	0.08839799
95	0x3eb1c79c	0.34722602
96	0xbf1d5141	-0.6145211
97	0x3f651eca	0.89500105
98	0xbe141494	-0.14460975
99	0xbee21fac	-0.4416479
100	0x3e583f18	0.21117818
101	0x3e8f098c	0.2793697
102	0x3ead13ef	0.3380427
103	0x3e7ddfd3	0.24792413
104	0x3da166d0	0.07880938
105	0x3ee4a214	0.44654906
106	0xbea599b8	-0.3234384
107	0xbe93d3cf	-0.28872535
108	0x3e5624fc	0.20912546
109	0xbdaf511c	-0.08560392
110	0x3e811b36	0.25216073
111	0x3dfe261d	0.12409613
112	0xbe20e6d1	-0.1571305
113	0x3f011936	0.50429094
114	0xbdad9e0d	-0.084774114
115	0xbf084e2a	-0.5324427
116	0x3e0b1654	0.13582736
117	0xbe14d835	-0.14535601
118	0x3ea5131b	0.3224114
119	0x3ee34dce	0.44395298
120	0x3e612e6b	0.21990363
121	0x3f94ba64	1.1619382
122	0x3e986f64	0.29772484
123	0xbf771987	-0.96523327
124	0xbe128c49	-0.14311327
125	0xbe6ea890	-0.23306489
126	0x3f01e876	0.5074533
127	0x3ecf00a1	0.40430167
128	0x3e402742	0.18764976
129	0x3f506386	0.8140186
130	0x3d0d2f9a	0.034469225
131	0xbf07359a	-0.52816164
132	0xbebdb8a8	-0.37054944
133	0x3dd0e6cd	0.10200272
134	0x3ed85315	0.42250887
135	0x3ee2ced3	0.4429842
136	0xbdbb1d08	-0.09136397
137	0x3fe94a44	1.8225789
138	0xbd968b89	-0.07350833
139	0xbf2905a4	-0.6602423
140	0x3e6d68d8	0.23184526
141	0xbea027e7	-0.31280443
142	0x3f39b9a7	0.7254891
143	0x3f1b5e55	0.60690814
144	0xbee1e72e	-0.4412169
145	0x3f837ec4	1.0273061
146	0xbeafac21	-0.3431101
147	0xbd8283b3	-0.06372776
148	0x3ea5c7cd	0.32378998
149	0x3e1ee193	0.15515737
150	0x3e90566a	0.2819093
151	0x3e7bd774	0.24593908
152	0xbe407d9d	-0.18797918
153	0x3f830c4e	1.023813
154	0xbe3672e1	-0.1781726
155	0xbe6a6e16	-0.22893557
156	0x3ee82a76	0.45344895
157	0x3ea225c7	0.31669447
158	0x3ea9017b	0.33008942
159	0x3e271fc6	0.16320714
160	0x3a5b1619	0.000835748
161	0x3f847ed8	1.035121
162	0x3e49c784	0.19705015
163	0x3dfa9b57	0.1223666
164	0xbde957c7	-0.11393695
165	0xbe65cf7d	-0.22442432
166	0x3e07c480	0.13258553
167	0x3f2f18ba	0.68397105
168	0xbece7ca0	-0.40329456
169	0x3f07b23d	0.53006345
170	0xbd836f3e	-0.06417702
171	0xbf26ca02	-0.6515199
172	0x3e60fa36	0.21970448
173	0x3e1e23e1	0.15443374
174	0x3e93cfcb	0.2886947
175	0x3eda4b00	0.42635345
176	0xbe57bdce	-0.21068498
177	0x3f258b57	0.6466574
178	0x3d33d57b	0.043904763
179	0xbf133ae3	-0.5751173
180	0x3df0e869	0.11763079
181	0xbe4323d6	-0.19056639
182	0x3dfd57c3	0.12370255
183	0x3ef41c95	0.47678056
184	0xbf018aa0	-0.5060215
185	0x3f634253	0.8877308
186	0xbd666e95	-0.056257803
187	0xbf23c05b	-0.63965386
188	0xbcaa7ebe	-0.020812389
189	0x3ced00e2	0.028931085
190	0x3efa79d1	0.48921064
191	0x3ea41e04	0.3205415
192	0xbe44ece9	-0.19230999
193	0x3f247b01	0.6425019
194	0xbe43ee7d	-0.19133945
195	0xbed313b1	-0.4122596
196	0x3e4af96e	0.19821712
197	0x3f117a9f	0.5682773
198	0x3e9408f8	0.28913093
199	0x3e1f9531	0.15584256
200	0xbea3aa4b	-0.3196586
201	0x3f60da50	0.8783312
202	0xbe2dca56	-0.16971716
203	0xbe816e58	-0.25279498
204	0xbe838b0a	-0.25692016
205	0xbe8ef169	-0.27918556
206	0x3ebfffb0	0.37499762
207	0x3eca09aa	0.39460498
208	0xbf0bb6c4	-0.54575753
209	0x3f133114	0.5749676
210	0x3cab3a7d	0.020901913
211	0xbeac5c61	-0.3366423
212	0x3e83602e	0.25659317
213	0x3da6d90d	0.08146868
214	0x3ec1dd40	0.37864113
215	0x3f2a86dc	0.6661203
216	0x3e349653	0.17635469
217	0x3f4d4776	0.80187166
218	0x3d9ea75e	0.077467665
219	0xbe6d6853	-0.23184328
220	0x3dea09b9	0.11427636
221	0x3e283c7c	0.16429323
222	0x3ec3f93f	0.38276097
223	0x3ebd704d	0.3699974
224	0x3ecd65b6	0.40116662
225	0x3f15cf56	0.58519495
226	0x3d56593a	0.052331187
227	0xbecbb280	-0.39784622
228	0x3d83596d	0.06413541
229	0xbe542ba5	-0.20719774
230	0x3ea7e0b9	0.32788637
231	0x3e651d15	0.22374375
232	0xbf2571b5	-0.6462663
233	0x3f6d8e3d	0.92795163
234	0xbd131503	-0.03590871
235	0xbe9b4ea5	-0.3033344
236	0x3e1c5f17	0.15270649
237	0xbda41095	-0.08010975
238	0x3f12537a	0.57158625
239	0x3eabceea	0.335563
240	0xbd38c5c6	-0.045110486
241	0x3eca5769	0.39519814
242	0x3eb6ab83	0.35677728
243	0xbefc3634	-0.49260104
244	0x3ea70e7c	0.32628238
245	0x3e804e73	0.25059852
246	0x3d93fdbb	0.072261296
247	0x3f170c00	0.59002686
248	0xbee15350	-0.44008875
249	0x3f52c728	0.8233514
250	0xbe232910	-0.15933633
251	0xbf11454b	-0.5674636
252	0xbe5d7770	-0.21627593
253	0x3bc7e9ac	0.006100854
254	0x3eabb62a	0.33537418
255	0x3ef8a607	0.4856417

fc1.bias f4 [400]
0	0x3f26d29b	0.6516511
1	0x3f312e4e	0.6921128
2	0x3fb4426c	1.408277
3	0x3f454eee	0.7707356
4	0x3f253940	0.6454048
5	0x3f3e62a5	0.7436927
6	0x3f11dbe6	0.56976163
7	0x3f1bbd62	0.6083585
8	0x3f287e4b	0.6581771
9	0x3f9a3479	1.2047263
10	0x3f4bffe0	0.7968731
11	0x3f1d14a4	0.6135962
12	0x3f1da0c6	0.61573446
13	0x3f2f76e1	0.6854077
14	0x3f361fc0	0.71142197
15	0x3fda6730	1.706274
16	0x3f153d17	0.5829634
17	0x3fea94f7	1.832671
18	0x3f7c90a1	0.98658186
19	0x3f310e86	0.69162786
20	0x3f5ce97b	0.8629376
21	0x3f206b09	0.6266332
22	0x3f253b29	0.64543396
23	0x3f87c510	1.0607014
24	0x3f5750a8	0.84107447
25	0x3f31bb92	0.69426835
26	0x3f13c4b2	0.5772201
27	0x3f7121df	0.9419231
28	0x3f1f0ef1	0.62132174
29	0x3f17f339	0.59355503
30	0x3f4d1ec3	0.80125064
31	0x3f41c841	0.7569619
32	0x3f395102	0.72389233
33	0x3f1344d3	0.5752689
34	0x3fab5a87	1.3387002
35	0x3efe28a8	0.49640393
36	0x3f1a97e1	0.60388
37	0x3f3cee86	0.7380146
38	0x3f295b0d	0.6615456
39	0x3f25d373	0.6477577
40	0x3f077973	0.5291969
41	0x4004b879	2.0737593
42	0x3f1f61a5	0.6225837
43	0x3f0e4317	0.5557112
44	0x3f1dda7b	0.616615
45	0x3f62bc2a	0.88568366
46	0x3f4cee18	0.800508
47	0x3ef015ef	0.46891734
48	0x3f284bf0	0.6574087
49	0x3f22b42e	0.6355618
50	0x3f445d89	0.76705223
51	0x3f6da5e8	0.9283128
52	0x3f80fd81	1.0077363
53	0x3f3245b9	0.6963764
54	0x3f37f7c0	0.7186241
55	0x3f3eca25	0.745272
56	0x3f10a854	0.5650685
57	0x3f2be5ab	0.6714732
58	0x3f69182c	0.9105251
59	0x3fdfa170	1.7471142
60	0x3f4f16bc	0.80894065
61	0x3f17d225	0.5930503
62	0x3f19482b	0.59875745
63	0x3f683b82	0.907158
64	0x3f4f3fb0	0.80956554
65	0x3f40ee5b	0.753637
66	0x3f49ae8f	0.7878198
67	0x3f2467d4	0.6422093
68	0x3f21870e	0.630967
69	0x3f47d3fc	0.7805784
70	0x3f6345e9	0.8877855
71	0x3f42abdc	0.76043487
72	0x3f19d9be	0.60097873
73	0x3f2b1336	0.6682619
74	0x3f12268b	0.5709006
75	0x3f28946d	0.6585148
76	0x3fb6c7f2	1.4279768
77	0x3f91418e	1.1348131
78	0x3f5290a8	0.8225198
79	0x3f2f5691	0.68491465
80	0x3f0f7169	0.56032425
81	0x3f2372fa	0.63847315
82	0x3edf5bf5	0.43624845
83	0x3f452b4a	0.7701918
84	0x3f299e70	0.6625738
85	0x3f49be4f	0.7880601
86	0x3f42e267	0.7612671
87	0x3f63748a	0.888497
88	0x3f3c111b	0.734636
89	0x3f40ba52	0.752843
90	0x3f34cd6e	0.7062596
91	0x3f3709ae	0.71499145
92	0x3f45cbda	0.7726418
93	0x3f48f084	0.78492
94	0x3fb91ee2	1.446255
95	0x3f21c8df	0.6319713
96	0x3f4f307a	0.80933344
97	0x3f9fb587	1.2477273
98	0x3f0d45ba	0.5518452
99	0x3f72f78e	0.9490899
100	0x402abc35	2.6677372
101	0x3f4f8ee9	0.8107744
102	0x3f36d531	0.71419054
103	0x3f2c4edf	0.6730785
104	0x3f359be8	0.7094102
105	0x3f25e12d	0.64796716
106	0x3f173ba0	0.59075356
107	0x3fe5160b	1.7897352
108	0x3f3979c4	0.72451425
109	0x3f379eef	0.7172689
110	0x3f3c9dcf	0.73678297
111	0x3f7aa7ef	0.97912496
112	0x3f360c07	0.711121
113	0x3f2607a1	0.6485539
114	0x3f3aab48	0.72917604
115	0x3f3b4f00	0.7316742
116	0x3f6ca473	0.9243843
117	0x3f324a80	0.6964493
118	0x3f0f2899	0.5592132
119	0x3f391688	0.72300005
120	0x3f35b6bd	0.7098196
121	0x3f57dfb2	0.84325707
122	0x3f3d50df	0.73951524
123	0x3f1619f5	0.5863336
124	0x3f389187	0.7209706
125	0x3f718735	0.94346935
126	0x3f232b1e	0.63737667
127	0x3f92154f	1.1412753
128	0x3f392247	0.7231793
129	0x3f768656	0.9629873
130	0x3f185e34	0.5951874
131	0x3fc5d7b9	1.5456458
132	0x3f24ba65	0.64346915
133	0x3f34732b	0.7048823
134	0x40294e95	2.6454213
135	0x3f14f728	0.5818963
136	0x3f35bb99	0.70989376
137	0x3f0c817b	0.5488507
138	0x3f6e6b1c	0.93132186
139	0x3f2b20f2	0.66847146
140	0x3f31a3a3	0.69390315
141	0x3f2bf5bc	0.67171836
142	0x3f443fc4	0.766598
143	0x3f22896b	0.63490933
144	0x3f59d3a5	0.8508857
145	0x3f23d450	0.6399584
146	0x3f2a774f	0.665883
147	0x3f052620	0.520113
148	0x3f292d79	0.6608501
149	0x3f181676	0.5940927
150	0x3f542052	0.82861817
151	0x3f3b33bd	0.7312582
152	0x3f387fd0	0.72070026
153	0x3f1b36a3	0.60630244
154	0x3f2d63f3	0.67730635
155	0x3f3847ed	0.7198475
156	0x3f34dd6d	0.7065037
157	0x3f6259c8	0.88418245
158	0x3f3bd8a8	0.73377466
159	0x3f1ca790	0.6119318
160	0x3f2bdb3f	0.6713142
161	0x3f49c051	0.78809077
162	0x3f133507	0.5750279
163	0x3f1dde24	0.61667085
164	0x3f279440	0.65460587
165	0x4005d5ca	2.0911736
166	0x3f32c58d	0.6983269
167	0x3f4371cf	0.76345533
168	0x3f3b4570	0.7315283
169	0x3f57caf9	0.84294087
170	0x3f1df516	0.61702096
171	0x3f295dd4	0.66158795
172	0x3f29ab17	0.6627669
173	0x3f1bcbd8	0.60857916
174	0x3faa4abc	1.3304057
175	0x3f7b7eb3	0.982402
176	0x3f1108f7	0.56654304
177	0x3f40cc42	0.7531167
178	0x3f361bc7	0.71136135
179	0x3f407d9d	0.7519167
180	0x3f520192	0.82033646
181	0x3f2be3b1	0.67144305
182	0x3f2d2911	0.6764079
183	0x3f2ae70e	0.6675881
184	0x3f3ba6fb	0.73301667
185	0x3f348f25	0.7053092
186	0x3f36431c	0.7119615
187	0x40324fac	2.7861128
188	0x402f4ec8	2.7391834
189	0x3f1751ed	0.59109384
190	0x3f0aff27	0.5429558
191	0x3f2dce55	0.6789296
192	0x3f00bbcf	0.50286573
193	0x3f4b5fc1	0.79442984
194	0x3f4e2e7f	0.805397
195	0x3f2ee705	0.6832126
196	0x3f1aeb1a	0.60514987
197	0x3f3965f5	0.724212
198	0x3f24ec63	0.644232
199	0x3f3781e0	0.7168255
200	0x3f52029a	0.8203522
201	0x3f2c277b	0.6724774
202	0x3f34b8ad	0.7059429
203	0x3f1783ae	0.591853
204	0x3f81701f	1.0112342
205	0x3f1512b5	0.5823167
206	0x3f25f32a	0.64824164
207	0x3f206ca6	0.62665784
208	0x3f299bdd	0.66253453
209	0x3f270796	0.6524595
210	0x3f4ada34	0.792392
211	0x3f10e583	0.5660021
212	0x3f224f41	0.6340218
213	0x3f4834b3	0.7820541
214	0x3f9e732a	1.2378895
215	0x3f11bbea	0.5692736
216	0x3fa17fca	1.2617123
217	0x402b49aa	2.676371
218	0x3f2f5a79	0.68497425
219	0x3f2509ad	0.6446789
220	0x3f37ed90	0.71846867
221	0x3f3ad383	0.7297899
222	0x3f55f7a5	0.83581
223	0x3f32fdb5	0.69918376
224	0x3f289efe	0.658676
225	0x3f13db8c	0.57756877
226	0x3f4c097e	0.79701984
227	0x3f9b49f7	1.2131947
228	0x3f4c9a15	0.7992261
229	0x3f452399	0.7700744
230	0x3fb5e55c	1.421062
231	0x3f5172f2	0.8181602
232	0x3f31b82c	0.6942165
233	0x3f12fa0d	0.574128
234	0x3f3c7861	0.73621184
235	0x3f43ec5f	0.7653255
236	0x3f440ad1	0.76579005
237	0x3ef7ceb1	0.4839988
238	0x3f2b4390	0.6689997
239	0x3f2872fd	0.6580046
240	0x3f2c319d	0.67263204
241	0x3f0b3fc4	0.54394174
242	0x3f17785b	0.5916802
243	0x3fa6e207	1.3037728
244	0x3f2979fe	0.6620177
245	0x3f33ff5c	0.7031152
246	0x3f50d9b2	0.81582177
247	0x3fb27274	1.3941178
248	0x3f53be00	0.8271179
249	0x3f271189	0.6526113
250	0x3f393d58	0.7235923
251	0x3f971330	1.180273
252	0x3f1df93d	0.6170843
253	0x40233c15	2.550542
254	0x3f470cfe	0.777542
255	0x3f296150	0.6616411

bn1.weight f4 [400]
0	0x401d3eef	2.4569662
1	0x3fef0fcc	1.8676696
2	0x3ecd88e9	0.40143517
3	0x3fb6d6d4	1.428431
4	0x4008e2bf	2.1388395
5	0x3fa0caa6	1.2561843
6	0x4048c84f	3.1372259
7	0x40089587	2.1341264
8	0x3fdaab92	1.7083609
9	0x3ec9dd8b	0.39426836
10	0x3f88b046	1.0678794
11	0x3fb46013	1.409182
12	0x3fad6e8c	1.3549361
13	0x3fa1ff71	1.265608
14	0x3fb99a1a	1.4500153
15	0x3e853604	0.26017773
16	0x3fbb4697	1.4630917
17	0x3e7518b0	0.23935199
18	0x3f3385b1	0.7012587
19	0x4003a021	2.0566485
20	0x3fdd1ca0	1.7274361
21	0x4029dfa9	2.6542761
22	0x3ff25bd3	1.8934273
23	0x3f38ce05	0.7218936
24	0x3f556611	0.83358866
25	0x4009d447	2.1535814
26	0x3fadcaad	1.3577477
27	0x3f7315d1	0.94955164
28	0x3fccfa06	1.6013801
29	0x3fc025a0	1.5011482
30	0x3f3dd1c4	0.741482
31	0x3f8c4cf9	1.096099
32	0x3fb9b104	1.4507146
33	0x3fd68554	1.6759439
34	0x3ee25017	0.4420173
35	0x3fca2fa3	1.5795788
36	0x3fad35db	1.353206
37	0x3fb854c0	1.4400864
38	0x3ff3d5ab	1.9049581
39	0x3fe882a2	1.8164866
40	0x402db646	2.71425
41	0x3e47ddd1	0.1951821
42	0x4003a807	2.0571306
43	0x401fe13d	2.4981225
44	0x400177b6	2.0229316
45	0x3f41ef8e	0.75756156
46	0x3fa17657	1.261424
47	0x3fac73f0	1.3472881
48	0x4002706e	2.0381122
49	0x3fc6d531	1.5533811
50	0x3f7e29c2	0.9928247
51	0x3ee43eb9	0.44579104
52	0x3f2c4ab2	0.67301476
53	0x3fcccf50	1.6000767
54	0x3fba8148	1.4570704
55	0x3fa5c94d	1.2952057
56	0x3fc2ce09	1.5219127
57	0x3fb94395	1.4473749
58	0x3f6c9fc5	0.9243129
59	0x3eab18c8	0.33417344
60	0x3fe67280	1.8003693
61	0x3ff3a8b9	1.9035865
62	0x400e08c2	2.2192845
63	0x3f4bb27d	0.79569227
64	0x3f2e34b2	0.68049157
65	0x3fb43e23	1.4081463
66	0x3f93a280	1.1533966
67	0x3fc23194	1.517138
68	0x4003018e	2.04697
69	0x3ff513a0	1.9146614
70	0x3f8618cd	1.0476319
71	0x4011fd23	2.2810752
72	0x3fee4df8	1.8617544
73	0x3fb57c01	1.4178468
74	0x3ff18fa1	1.8871957
75	0x3fa741ec	1.3066993
76	0x3ebdad6d	0.37046376
77	0x3f1c6be8	0.6110215
78	0x3f468e0d	0.775605
79	0x3fea7ff7	1.8320302
80	0x3fb4e4c0	1.4132309
81	0x3fbd5cc0	1.479393
82	0x3fb6b5d2	1.4274237
83	0x3f40e21c	0.75345016
84	0x3fcca9ed	1.5989357
85	0x3fa3d0b4	1.2798066
86	0x3f9a802a	1.2070363
87	0x3f6bca89	0.9210592
88	0x3f7d8908	0.9903722
89	0x3f91731a	1.1363251
90	0x3fa9a134	1.325232
91	0x3f9a42e1	1.205166
92	0x3f947a54	1.1599832
93	0x3fab0084	1.3359532
94	0x3ecc519c	0.39906013
95	0x3fedc59a	1.8575928
96	0x3f9c01e9	1.2188083
97	0x3ed8cee9	0.4234536
98	0x3fdb3e1f	1.7128333
99	0x3f594cc3	0.84882754
100	0x3e21004c	0.1572277
101	0x3fbc8a2b	1.4729666
102	0x3fa3ebe1	1.280636
103	0x3fbbc802	1.4670413
104	0x3ffc66c3	1.971886
105	0x3fb2b6b5	1.3962008
106	0x3fffaab2	1.9973967
107	0x3e857f96	0.26073903
108	0x3fd2663d	1.6437451
109	0x3f56dab7	0.8392748
110	0x3fd813da	1.6881058
111	0x3f18061c	0.5938432
112	0x3f8be903	1.0930485
113	0x4018d0b0	2.3877373
114	0x3fd8a295	1.6924616
115	0x3f9400b3	1.1562713
116	0x3f791231	0.9729338
117	0x3fea4e29	1.8305103
118	0x40068854	2.1020708
119	0x3f8326e1	1.024624
120	0x3fee190b	1.8601393
121	0x3f68be41	0.90915304
122	0x3fc1a594	1.5128655
123	0x3fe8c0db	1.8183855
124	0x3fc3e557	1.5304364
125	0x3f1e8627	0.6192345
126	0x3fae2107	1.3603829
127	0x3ef43cde	0.47702688
128	0x3faa57df	1.3308066
129	0x3f12040d	0.5703743
130	0x3ff5c666	1.9201171
131	0x3e9d0e5c	0.30675018
132	0x3f9ebce4	1.2401395
133	0x3fe39060	1.7778435
134	0x3e2748b8	0.16336334
135	0x3fbc2160	1.4697685
136	0x400b9dd8	2.181509
137	0x4001a4b8	2.0256786
138	0x3f8670d8	1.0503187
139	0x3fb251ed	1.3931252
140	0x400d5716	2.2084403
141	0x3fd70774	1.679915
142	0x3f81442d	1.0098931
143	0x3ffedb63	1.9910702
144	0x3f75f0ea	0.9607073
145	0x3fd5aac0	1.6692734
146	0x3fa5d361	1.2955133
147	0x408ce367	4.402759
148	0x3fac1c7b	1.3446192
149	0x3fa78a4e	1.3089082
150	0x3f863c86	1.048722
151	0x3f51b5e1	0.8191815
152	0x3fd78b5f	1.6839408
153	0x3ff4c76c	1.9123359
154	0x3fda1e50	1.7040501
155	0x3fd55b83	1.6668552
156	0x3fa2e572	1.2726271
157	0x3f5f6719	0.8726669
158	0x3fd163de	1.6358602
159	0x4031ce71	2.7782252
160	0x3ffbb637	1.9664983
161	0x3fb5fed0	1.4218388
162	0x3fdb0e01	1.7113649
163	0x3fcf4897	1.6194028
164	0x40057cb3	2.085736
165	0x3e39f155	0.18158467
166	0x3fc4e7bc	1.538322
167	0x3f85eed4	1.046351
168	0x3fc7febb	1.5624613
169	0x3fc60b6f	1.5472239
170	0x4004c60f	2.0745885
171	0x400129b1	2.0181696
172	0x401ba1dc	2.431754
173	0x404062cd	3.0060303
174	0x3ea8875a	0.32915765
175	0x3efc039d	0.49221507
176	0x3faa9823	1.3327678
177	0x3fcd4e60	1.6039543
178	0x3f5c1009	0.8596197
179	0x3fc6ab14	1.5520959
180	0x3fc88c35	1.5667788
181	0x3fdd2092	1.7275565
182	0x401b4387	2.4259965
183	0x3fc533fe	1.5406492
184	0x3fe38cf8	1.7777395
185	0x3f464589	0.7744985
186	0x4005158b	2.0794399
187	0x3dc57921	0.09642244
188	0x3e108348	0.1411258
189	0x3f6f795b	0.9354455
190	0x4018be90	2.386631
191	0x3f618219	0.8808914
192	0x40781f29	3.8769019
193	0x3f953e39	1.1659614
194	0x3fbde2c3	1.4834827
195	0x3f93da96	1.1551082
196	0x3fd6d0cf	1.6782473
197	0x3fd7891e	1.683872
198	0x3fe8547d	1.8150784
199	0x3fb47d5c	1.4100757
200	0x3f264108	0.6494298
201	0x3fde0ce0	1.7347679
202	0x3fd8e6b0	1.69454
203	0x3fa6fe46	1.3046348
204	0x3f64f31f	0.89433473
205	0x3fc55e8e	1.5419481
206	0x4000e237	2.013807
207	0x3fa4b057	1.2866315
208	0x3fbdfe96	1.4843318
209	0x3f8d346a	1.103162
210	0x3f9ae29e	1.2100408
211	0x3ff01e1e	1.8759191
212	0x3f84a3e8	1.036252
213	0x3fa478f9	1.2849418
214	0x3f029a8d	0.51017076
215	0x3ffec941	1.9905168
216	0x3eb9605f	0.36206338
217	0x3e1f5440	0.15559483
218	0x3fad1d34	1.3524537
219	0x3f5dbb98	0.8661437
220	0x3f991fc1	1.1962816
221	0x3fb98457	1.4493512
222	0x3f404e05	0.7511905
223	0x3fb82ca2	1.4388621
224	0x3fa505f4	1.2892442
225	0x3f92c85d	1.1467396
226	0x3f6c4538	0.9229312
227	0x3ecc30ef	0.39881083
228	0x3f1647ce	0.58703315
229	0x3fe6acc8	1.8021479
230	0x3ec2ca5a	0.38045007
231	0x3fb59b1d	1.4187962
232	0x3fa9022a	1.3203785
233	0x4006b56b	2.1048229
234	0x401f4cfc	2.4890738
235	0x3fbf15b0	1.4928493
236	0x3f956a9c	1.167316
237	0x400751d6	2.1143699
238	0x3fc850c0	1.5649643
239	0x3ff9a400	1.9503174
240	0x3f971287	1.1802529
241	0x400d17b3	2.2045715
242	0x4019734c	2.3976622
243	0x3efc9563	0.49332723
244	0x3faa9815	1.3327662
245	0x3f8a3120	1.0796242
246	0x3f7c9dcf	0.98678297
247	0x3ec488fe	0.38385767
248	0x3f594749	0.848744
249	0x3f8d6cef	1.1048869
250	0x400c39db	2.1910312
251	0x3f101de1	0.5629559
252	0x3fbfc3af	1.4981593
253	0x3e2df7fb	0.16989128
254	0x3fd56999	1.6672851
255	0x400529f1	2.080685

bn1.bias f4 [400]
0	0xbf2392f1	-0.6389609
1	0x3d094af4	0.033518746
2	0xbf271566	-0.65267026
3	0xbeb6016d	-0.35547963
4	0x3d167e70	0.036741674
5	0xbe9ad9aa	-0.3024419
6	0xbea3d3b9	-0.3199747
7	0x3d6042cc	0.054751202
8	0xbe04bb40	-0.12962055
9	0xbf2b1b62	-0.6683866
10	0xbed58f2f	-0.41710803
11	0xbe6934b3	-0.2277401
12	0xbe967415	-0.2938544
13	0x3e46d10a	0.1941568
14	0xbdd45c7b	-0.10369202
15	0xbf4bcc5e	-0.79608715
16	0xbe4b32bf	-0.19843577
17	0xbf438f90	-0.76390934
18	0xbf0e0663	-0.55478495
19	0x3e04c636	0.12966236
20	0x3e5aea2f	0.21378396
21	0xbd5d1886	-0.053978465
22	0xbe16dc0a	-0.14732376
23	0xbef01bdd	-0.46896258
24	0xbeea214f	-0.45728537
25	0xbe251d30	-0.16124415
26	0xbd26488e	-0.040596537
27	0xbf1880c9	-0.5957151
28	0xbea08289	-0.3134959
29	0xbdc864cf	-0.09784853
30	0xbee54e8d	-0.44786492
31	0xbeb8bf43	-0.3608342
32	0xbdea5995	-0.11442868
33	0xbc8db453	-0.0172979
34	0xbf3c5330	-0.73564434
35	0xbc143b77	-0.009047381
36	0x3cd5b6a5	0.026088068
37	0xbeed98c0	-0.46405602
38	0xbecfd9fd	-0.40596
39	0xbf03c7ba	-0.51476634
40	0xbe319f4f	-0.17345928
41	0xbf56195a	-0.83632433
42	0xbd84f02c	-0.06491122
43	0xbe210d1a	-0.15727654
44	0xbd5cd43c	-0.05391334
45	0xbf05a263	-0.5220091
46	0xbdef23a5	-0.116767205
47	0xbc4259b5	-0.011862208
48	0xbe18fc53	-0.14940004
49	0x3e373b65	0.17893751
50	0xbf0256e6	-0.50913846
51	0xbf1ad221	-0.6047688
52	0xbf12a6b0	-0.57285595
53	0xbe595fa3	-0.21227889
54	0xbe87a8bc	-0.26495922
55	0xbd861f93	-0.06548991
56	0xbd93a99b	-0.07210084
57	0xbea0a2fb	-0.31374344
58	0xbef5f7c6	-0.480406
59	0xbf397a4c	-0.72452235
60	0xbdce31d5	-0.100680985
61	0x3ea369d4	0.31916678
62	0xbe3c2068	-0.18371737
63	0xbef4c6cf	-0.4780793
64	0x3defbbc0	0.11705732
65	0xbe880943	-0.26569566
66	0xbe72571d	-0.23666044
67	0xbe3285c0	-0.17433834
68	0x3d922079	0.071351
69	0x3c9d8415	0.01922802
70	0xbf29072b	-0.6602656
71	0x3d65002b	0.055908363
72	0xbd46b4b2	-0.04851217
73	0xbed4b576	-0.41544694
74	0x3d4f16dd	0.050558913
75	0xbe2c6f3f	-0.16839312
76	0xbf39f513	-0.7263958
77	0xbefd5c65	-0.49484554
78	0xbf17fbfe	-0.59368885
79	0xbe83ca7b	-0.25740418
80	0x3da0781a	0.078354076
81	0x3e8a2fa2	0.26989466
82	0xbdca2b00	-0.09871483
83	0xbee1911e	-0.44056028
84	0x3c49f6c0	0.012326896
85	0xbed9c446	-0.42532557
86	0xbe392fa7	-0.18084584
87	0xbe94ec64	-0.29086602
88	0x3db3b4a5	0.087746896
89	0xbe77c637	-0.24196707
90	0xbd9a02dc	-0.07520077
91	0x3e7da309	0.24769224
92	0xbeb09b8a	-0.34493667
93	0xbe9b7e2b	-0.30369696
94	0xbf266fba	-0.6501423
95	0x3b4e2165	0.003145301
96	0xbe9741ac	-0.2954229
97	0xbf52f6a1	-0.82407576
98	0xbe635f1c	-0.2220425
99	0xbec664ea	-0.38748866
100	0xbf587b2c	-0.84562945
101	0xbeb06554	-0.34452307
102	0xbdc6490e	-0.09681903
103	0xbe7b4c4b	-0.24540822
104	0xbe096c6d	-0.13420267
105	0xbe8a1314	-0.2696768
106	0x3e21c0c2	0.15796188
107	0xbf411fd9	-0.7543922
108	0xbe125858	-0.14291513
109	0xbec876df	-0.3915319
110	0xbea5155b	-0.32242855
111	0xbf2e8505	-0.6817172
112	0xbe91d6c5	-0.2848417
113	0xbc9e3175	-0.019310692
114	0x3d8e0dce	0.06936227
115	0xbe4d6113	-0.20056562
116	0xbecbf0cf	-0.3983216
117	0xbeec6076	-0.46167344
118	0x399ab608	0.00029508793
119	0xbeda346b	-0.42618117
120	0xbe64a36f	-0.2232797
121	0xbe9c2ebe	-0.3050441
122	0xbe2aca51	-0.1667874
123	0xbcceb3de	-0.025232252
124	0xbe9a6606	-0.30155963
125	0xbef54348	-0.47902894
126	0xbd58e67e	-0.05295419
127	0xbf247f36	-0.6425661
128	0xbdaee5ea	-0.085399464
129	0xbf0a3e0e	-0.5400094
130	0xbd14708a	-0.036240138
131	0xbf3e8e11	-0.74435526
132	0xbd1e9c49	-0.038723264
133	0xbe456d3b	-0.1927995
134	0xbf565b13	-0.8373272
135	0xbebb7b66	-0.36617583
136	0x3d165283	0.036699783
137	0x3c29e808	0.010370262
138	0xbefb0f23	-0.49034986
139	0xbf2b3d5f	-0.6689052
140	0x3dfd6324	0.12372425
141	0xbebdd7d6	-0.37078732
142	0xbedbc759	-0.42925528
143	0xbc663439	-0.014050537
144	0x3d2f4201	0.042787556
145	0xbe949d01	-0.29026034
146	0xbdc6da55	-0.09709612
147	0xbe08a823	-0.13345389
148	0xbdc3345f	-0.09531473
149	0xbd8ad246	-0.06778388
150	0x3cfdc801	0.030979158
151	0xbe885bac	-0.2663244
152	0xbdb21c4e	-0.08696805
153	0xbee42c1b	-0.445649
154	0xbea60c76	-0.32431382
155	0xbe9b0e88	-0.30284524
156	0xbe961ffd	-0.2932128
157	0xbf369542	-0.713215
158	0xbe396e6d	-0.1810853
159	0x3baea2d4	0.005329469
160	0xbeea7105	-0.45789352
161	0xbde40979	-0.11134619
162	0xbbce2db0	-0.0062920675
163	0x3c9f22b4	0.019425727
164	0xbe72152b	-0.23640887
165	0xbf591f35	-0.84813243
166	0xbdbcd9a3	-0.092211984
167	0xbec81ea6	-0.39085883
168	0xbed2d11a	-0.41175157
169	0x3d05c4fe	0.03265857
170	0xbedd5cda	-0.43234903
171	0xbe345809	-0.17611708
172	0xbdb8a586	-0.09015946
173	0xbe97498f	-0.29548308
174	0xbf3a1839	-0.7269321
175	0xbf281dbf	-0.6567039
176	0xbd8b9201	-0.068149574
177	0xbe0162b3	-0.12635307
178	0x3ecf5b18	0.40499187
179	0xbe7a0ea3	-0.24419646
180	0xbebeb6fa	-0.37248975
181	0xbf0e75c4	-0.55648446
182	0x3e1bec73	0.15226917
183	0xbe54fa6b	-0.20798652
184	0xbe6f7419	-0.23384131
185	0x3e950780	0.29107285
186	0xbe0cb859	-0.13742198
187	0xbf5c11be	-0.8596457
188	0xbf56cf04	-0.8390963
189	0xbe8d8a15	-0.2764441
190	0xbdc5c6a9	-0.09657032
191	0xbe11e14e	-0.14246103
192	0x3e4bf118	0.19916189
193	0xbedf10fd	-0.4356765
194	0xbd3ad547	-0.045613553
195	0x3e578815	0.21048005
196	0x3da22282	0.07916738
197	0xbdfca963	-0.123369955
198	0x3e7ea273	0.24866657
199	0xbe400b42	-0.18754295
200	0xbf0792df	-0.5295848
201	0xbd7aec90	-0.06126076
202	0xbe6f1c73	-0.23350696
203	0xbe4e2448	-0.20131028
204	0xbf3cf225	-0.73806983
205	0xbd4df766	-0.050284766
206	0xbe67aa30	-0.22623515
207	0xbda238d3	-0.079209946
208	0xbdef2502	-0.116769806
209	0xbea627d4	-0.3245226
210	0xbf1dc22e	-0.6162442
211	0xbcee5a71	-0.02909586
212	0xbe4a892f	-0.19778894
213	0xbec153c4	-0.3775922
214	0xbf1583de	-0.5840434
215	0xbec19d1b	-0.37815174
216	0xbf4429de	-0.76626384
217	0xbf5775af	-0.84163946
218	0xbed389e7	-0.4131615
219	0xbed02b18	-0.40657878
220	0xbe8bacc0	-0.27280235
221	0xbed06bc0	-0.40707207
222	0xbecd9217	-0.4015052
223	0xbdfc70e1	-0.123262174
224	0xbd1bb40d	-0.038013507
225	0xbe47b449	-0.19502367
226	0xbeb9a1b6	-0.36256188
227	0xbf294de4	-0.66134477
228	0xbef26af3	-0.4734722
229	0xbefc9e30	-0.49339437
230	0xbf3deb0a	-0.74186766
231	0xbe883fd7	-0.26611206
232	0xbe161e07	-0.14659892
233	0x3e50d9d0	0.20395589
234	0x3c76b1c1	0.015057028
235	0x3d6f4444	0.058414713
236	0xbe9c9a45	-0.30586448
237	0xbba7413c	-0.005104212
238	0xbe85fb6f	-0.2616839
239	0x3e6ae5ee	0.22939274
240	0x3dfb32b9	0.12265534
241	0xbe57e8c6	-0.2108489
242	0x3c09350c	0.008374464
243	0xbf338fa7	-0.7014107
244	0xbe47f7f8	-0.19528186
245	0xbe9346ca	-0.28764945
246	0xbe89dd84	-0.26926816
247	0xbf424511	-0.75886637
248	0xbf005508	-0.5012975
249	0xbe8b846a	-0.2724946
250	0xbe1150f3	-0.14191036
251	0xbf12910d	-0.5725258
252	0xbecda466	-0.4016449
253	0xbf51a45f	-0.81891435
254	0xbe8d5eb0	-0.27611303
255	0xbe5a3ee8	-0.2131306

fc2.weight f4 [300, 400]
0	0xbfac1f5f	-1.3447074
1	0xbfd2098c	-1.6409163
2	0x3fa3035b	1.2735399
3	0x3fcaaa81	1.5833284
4	0xbf3c2391	-0.7349177
5	0xbf34dde3	-0.7065107
6	0x3d761fc1	0.060088877
7	0xbf8489b6	-1.0354526
8	0x3f0cec74	0.550483
9	0x3f30003f	0.68750376
10	0x3fbb491b	1.4631685
11	0x3f97df2f	1.1864985
12	0xc01a5f0c	-2.4120512
13	0xbea58659	-0.32329062
14	0x3facb7ef	1.3493632
15	0xbf9cd0f7	-1.2251271
16	0xbf41246f	-0.7544622
17	0xbe6a33ba	-0.22871295
18	0xbf513bd4	-0.81731915
19	0xbfbf3a17	-1.4939603
20	0xbfad63c5	-1.3546072
21	0xbe10e323	-0.14149146
22	0xbf6b6469	-0.9195009
23	0x3f7c88bd	0.98646146
24	0xbeb27d98	-0.34861445
25	0xbfd6dba2	-1.6785777
26	0x3e788d5a	0.24272671
27	0xbf81f5dc	-1.0153155
28	0x3ed9c4df	0.42533013
29	0x3ca4e36f	0.02012798
30	0xbd844c37	-0.06459849
31	0xbf895bd9	-1.0731155
32	0xbd09dc0a	-0.03365711
33	0xbdd5d89e	-0.10441707
34	0x3f99bb28	1.201024
35	0xbeab3c70	-0.33444548
36	0x3eae86f6	0.34087342
37	0xbf6601e3	-0.8984663
38	0xbf11c583	-0.56942004
39	0xc0322ff5	-2.784177
40	0xc07ca6ab	-3.9476726
41	0x3dc31502	0.09525491
42	0x3eb3cd10	0.35117388
43	0xbef095bd	-0.4698924
44	0x3e8c31c9	0.27381733
45	0xbfd3c029	-1.6543018
46	0xbf359c92	-0.7094203
47	0x3cc86622	0.024462763
48	0xbf24f7a9	-0.644404
49	0x3e391a3d	0.18076415
50	0x3ed4e023	0.41577253
51	0x3e0d96a9	0.13827004
52	0x402893f3	2.63403
53	0xbf9985e1	-1.1993982
54	0xbeab41d7	-0.3344867
55	0x3f1471d7	0.57986206
56	0xbfbd3d03	-1.4784244
57	0x3f7c6041	0.9858437
58	0xbea5fc9c	-0.32419288
59	0x3dbc35f7	0.091899805
60	0xbe7374b4	-0.23774987
61	0xbf21d35e	-0.63213146
62	0xbf4215a9	-0.758143
63	0x3f341276	0.7034067
64	0xbf572347	-0.84038204
65	0xbf824795	-1.0178095
66	0xbfd3f11a	-1.6557953
67	0xbfa3ec14	-1.280642
68	0xbf34a9f4	-0.7057183
69	0x3f169d57	0.5883383
70	0x3d926c35	0.07149545
71	0xbf966f2d	-1.1752678
72	0xbf6380cb	-0.888684
73	0x3ebaf8c5	0.3651792
74	0xbeca2a2f	-0.3948531
75	0x3ed00506	0.40628833
76	0x4003bad7	2.0582788
77	0xbf3b19f9	-0.73086506
78	0xbf59191a	-0.84803927
79	0xbfc96967	-1.5735291
80	0xbf9276a9	-1.1442462
81	0x3ea9c4ae	0.33157867
82	0x3e4c1e5b	0.19933455
83	0xbf24b17a	-0.6433331
84	0x3f6378ab	0.88856
85	0xbd4013af	-0.04689377
86	0xbf640912	-0.8907634
87	0x3f376295	0.716348
88	0x3f52f5d0	0.8240633
89	0x3fe5ce01	1.7953492
90	0xbe23b3f9	-0.15986623
91	0x3e464efa	0.19366065
92	0x3f2acf36	0.6672243
93	0x3eeb3974	0.4594227
94	0x3e4b4884	0.19851881
95	0x3f69fa67	0.9139771
96	0x3ded9f74	0.11602679
97	0xbf6eb74d	-0.93248445
98	0xbef4805e	-0.47754186
99	0xbe806649	-0.25078037
100	0x3ceeaa9e	0.029134091
101	0x3fb996b9	1.4499122
102	0x3f786905	0.9703525
103	0x3f47d7fa	0.7806393
104	0x3f0b6cc4	0.5446284
105	0xbf1f5104	-0.62232995
106	0xbfc0d0fb	-1.5063776
107	0x3e8b51cc	0.27210844
108	0xbefc9d9d	-0.49339
109	0xbf1108b9	-0.56653935
110	0x3f933b01	1.1502382
111	0xbf9907df	-1.1955527
112	0x3fce81a3	1.6133312
113	0xc021604b	-2.5215023
114	0xbf3baedd	-0.73313695
115	0xbfb4b0ff	-1.4116515
116	0x3fe2499a	1.7678711
117	0xbfca47c4	-1.5803151
118	0xbf8fdde9	-1.1239597
119	0xbf507c91	-0.81440073
120	0xbf34bbb5	-0.7059892
121	0x3fba6592	1.4562247
122	0x3a5b0946	0.0008355569
123	0xbf4abc9d	-0.7919405
124	0x3f1e5650	0.6185045
125	0xbe1a7214	-0.1508258
126	0x3f0309ec	0.51187015
127	0x3f9a6615	1.2062403
128	0x3f1e248d	0.6177452
129	0xbe904da6	-0.2818424
130	0xbf1385ee	-0.57626235
131	0xbee9b74b	-0.45647654
132	0x3ef197de	0.47186178
133	0xbd13ecd2	-0.03611452
134	0x3a781d70	0.0009464836
135	0x3e8f2f0d	0.27965584
136	0xbf3b9278	-0.7327037
137	0xbdb110fb	-0.08645817
138	0xbf2e1851	-0.68005854
139	0xbf7f86ec	-0.9981525
140	0xbe6244b0	-0.22096515
141	0xbf45209e	-0.77002895
142	0xbfe8ce42	-1.8187945
143	0xc00819eb	-2.126582
144	0xbf034071	-0.51270205
145	0x3e96c8e5	0.29450145
146	0xbfd9dfbd	-1.7021405
147	0xc04a4338	-3.1603527
148	0x3ffce1da	1.9756424
149	0x3f238fea	0.6389147
150	0x3f2fc688	0.6866231
151	0xbd621c73	-0.055202913
152	0xbf5d380f	-0.86413664
153	0xbf98c1b9	-1.193412
154	0xbf4a571c	-0.7903917
155	0xbeaab22a	-0.33339053
156	0x3f6de4ce	0.92927253
157	0xbfe2b62f	-1.7711848
158	0x3e2e3532	0.1701248
159	0x3f8cf62c	1.1012626
160	0xbfa8b9c6	-1.3181694
161	0xbf0bf066	-0.54663694
162	0xbe24dcd9	-0.16099872
163	0x3f3686a8	0.7129922
164	0xbfbd31f0	-1.4780865
165	0xbe901fbc	-0.2814921
166	0x3fc6258b	1.5480207
167	0xbef0adef	-0.470077
168	0xbf644dc0	-0.8918114
169	0xbbd5c839	-0.0065241125
170	0xbf1189c2	-0.56850827
171	0x3f254d5a	0.64571154
172	0xbf8d604f	-1.1045016
173	0xbf5b90ed	-0.85768014
174	0xbf4e7e8c	-0.80661845
175	0x3f4e753c	0.80647635
176	0xbf59534a	-0.84892714
177	0xbf1bbd90	-0.60836124
178	0x3e4c8a24	0.19974571
179	0x3f358d69	0.709189
180	0xbf0b5464	-0.54425645
181	0xbef72b5d	-0.4827527
182	0x3fbb95e3	1.4655117
183	0xbef7bc4f	-0.48385856
184	0xbd9c47a6	-0.07630853
185	0xbed2ffbc	-0.41210735
186	0xc02feaeb	-2.7487133
187	0x3bd65c53	0.0065417676
188	0x3cd7af94	0.02632884
189	0x3e7e6c19	0.24845923
190	0xc04fd2e4	-3.2472467
191	0x3ea3d8ac	0.32001245
192	0xbf33704d	-0.7009323
193	0x3fed2428	1.8526659
194	0xbf9f023f	-1.242256
195	0x3e22addb	0.15886633
196	0x3e527242	0.20551398
197	0xbec1a97d	-0.37824622
198	0x3e844e0f	0.25840804
199	0xbcb6bbf5	-0.022306422
200	0x3fc28930	1.5198116
201	0x3f1d6fd8	0.61498785
202	0xbf179174	-0.5920632
203	0xbf4ab841	-0.791874
204	0xbf4d392c	-0.8016536
205	0xbf3fe5c2	-0.7495996
206	0xbff91d4c	-1.9462066
207	0xbec6f27e	-0.38856882
208	0xbf71b886	-0.94422185
209	0xbe4a5c19	-0.19761695
210	0xbf904be4	-1.127316
211	0xbfa3bbe0	-1.279171
212	0xbf1add24	-0.60493684
213	0xbf24969a	-0.642923
214	0x3f3866af	0.7203168
215	0xbf5c2dcd	-0.86007386
216	0xbea92cad	-0.33041897
217	0xbc7ca0bf	-0.015419184
218	0x3ef314be	0.47476763
219	0xbfa8cb93	-1.3187126
220	0xbd21c619	-0.03949556
221	0x3d91f841	0.07127429
222	0x3f20f975	0.6288064
223	0xbefd8ff4	-0.4952389
224	0xbeda736f	-0.42666194
225	0xbf744aab	-0.95426434
226	0xbd2870fb	-0.04112337
227	0x3efe66ee	0.49687904
228	0x3f9c496f	1.220991
229	0x3e9922ab	0.29909262
230	0xbf01338a	-0.5046927
231	0x3ff95156	1.9477947
232	0x3f2e6a6e	0.6813115
233	0xbf856850	-1.0422459
234	0xbeac36a7	-0.33635446
235	0x3f582e1c	0.8444536
236	0x3ea70060	0.32617474
237	0xc00b105b	-2.1728733
238	0x3f34dcda	0.7064949
239	0x3f3a402f	0.72754186
240	0x3eb8c850	0.36090326
241	0xbff2fa31	-1.8982602
242	0x3eae992c	0.34101236
243	0x3d9b62b5	0.07587186
244	0xbf7180e6	-0.9433731
245	0xbd935c69	-0.0719536
246	0xbea73f2b	-0.3266538
247	0xbcd46a05	-0.02592946
248	0x3f61803e	0.8808631
249	0xbca6e3e0	-0.020372331
250	0x3d126e0d	0.035749484
251	0xbe9426ef	-0.28935954
252	0xbf03312b	-0.512469
253	0x3db8bfb6	0.09020941
254	0x3f2b3312	0.668748
255	0x3e2964a1	0.16542293

fc2.bias f4 [300]
0	0xbd976bc3	-0.07393601
1	0x3ba6e763	0.0050935014
2	0x3c5f84b6	0.013642481
3	0x3b5508cb	0.0032506462
4	0xbb9a622b	-0.0047114096
5	0xbc8eaaee	-0.01741549
6	0xbc06befe	-0.008224247
7	0xbc23a24e	-0.009987427
8	0xbdae66aa	-0.08515675
9	0x3bd419c2	0.006472797
10	0xbca3abdb	-0.019979408
11	0xbc8933ba	-0.016748298
12	0xbb821353	-0.003969589
13	0xbb7aa842	-0.0038247262
14	0x3d22dee9	0.039763365
15	0xbab741d8	-0.0013981415
16	0x3c11dd64	0.008902881
17	0x3c43c1de	0.011948077
18	0x3ddb9460	0.1072166
19	0xbc34f637	-0.01104503
20	0x3c423321	0.01185301
21	0xbc6b0fba	-0.014347011
22	0x3cf9603c	0.030441396
23	0x3d46b42d	0.048511673
24	0x3c371b80	0.01117599
25	0xb9e76463	-0.00044134547
26	0xbca47b37	-0.020078285
27	0xbba3b767	-0.0049962285
28	0x3cdba02d	0.026809776
29	0x3a875645	0.0010325393
30	0x3a9c0817	0.0011904266
31	0x3d177ed6	0.036986195
32	0xbd129e06	-0.035795234
33	0xbc3e7e3a	-0.011626774
34	0x3c5e9837	0.0135860955
35	0x3dcdb93c	0.10045096
36	0xbbf25028	-0.0073948093
37	0xbd192cc5	-0.03739621
38	0xbba1dd19	-0.004939687
39	0xbb355ed3	-0.0027674928
40	0xbd2f39a1	-0.04277957
41	0x3879f00a	5.958978e-05
42	0x3ca3ff64	0.02001924
43	0xbcc6ca22	-0.024266306
44	0xbd22d64b	-0.039755147
45	0x3d0fbb05	0.035090465
46	0x3c76070b	0.015016328
47	0xbb595974	-0.003316489
48	0x3cc27deb	0.023741683
49	0x3d9b976c	0.07597241
50	0xbe1323b9	-0.14369096
51	0x3d077e42	0.033079393
52	0xbb96ac77	-0.004598196
53	0xbc96ac82	-0.018392805
54	0xbb99095d	-0.0046703056
55	0xbc563a7c	-0.013075467
56	0xbdebd74a	-0.115156725
57	0xbb817f6e	-0.0039519584
58	0xbd17936d	-0.03700583
59	0xbbb15975	-0.0054122754
60	0xbd02caed	-0.031931806
61	0x3cc7fc9d	0.024412448
62	0xbd4cf75e	-0.050040595
63	0x3d295a0e	0.04134565
64	0x3b847b66	0.0040430306
65	0x3cfa9091	0.030586513
66	0x3db90709	0.09034545
67	0x3b1e175a	0.0024122805
68	0x3d15eaeb	0.03660099
69	0xbce32a28	-0.027730063
70	0xbd556258	-0.05209574
71	0xbbbc7dcb	-0.0057523004
72	0xbc86be73	-0.016448235
73	0x3b8c7cdb	0.004287345
74	0x3c276317	0.010216496
75	0x3c2f97c0	0.010717332
76	0xbcfcf484	-0.030878313
77	0x3c077cf0	0.0082695335
78	0xbb89d1cb	-0.0042059175
79	0x3d37ca51	0.04487068
80	0xbde178f0	-0.11009395
81	0x3d099add	0.033594955
82	0x3c0f89a8	0.008760847
83	0x3bc90516	0.0061346395
84	0xbc923718	-0.017848536
85	0xbbbaf3c0	-0.005705327
86	0xbc9bc685	-0.01901556
87	0xbb71953e	-0.0036862637
88	0xb9980c47	-0.00029000847
89	0x3d68857c	0.056767926
90	0xbb6e58bd	-0.003636881
91	0x3c6edb68	0.014578678
92	0xbc57e94c	-0.013178181
93	0x3ca234e8	0.019800618
94	0xbc2dd59b	-0.01061001
95	0xbcb74e44	-0.022376187
96	0xbc8746b2	-0.016513202
97	0xbdaa82b7	-0.08325713
98	0x3cab8e7d	0.020941967
99	0xbc7d325f	-0.015453904
100	0xbc8e7584	-0.01739002
101	0xbbad6de8	-0.005292643
102	0x3ca17267	0.019707872
103	0xbc8d730c	-0.017266773
104	0xbcc32ae0	-0.023824155
105	0x3cf4d822	0.029888216
106	0x3be99140	0.007127911
107	0xbc5d9b6f	-0.013525828
108	0xbdc62d5e	-0.09676622
109	0xbadb0557	-0.0016709965
110	0x3e0b63b9	0.1361226
111	0x3bb7f724	0.0056141783
112	0x3d6d058f	0.05786663
113	0xbd195fe4	-0.037444964
114	0x3da2e890	0.07954514
115	0x3e52b675	0.20577414
116	0xbd41b75e	-0.047294013
117	0xbe0eac64	-0.1393295
118	0x3de0b778	0.10972494
119	0x3e16ba6f	0.14719556
120	0x3caa62a9	0.020798998
121	0xbc8fce08	-0.017554298
122	0x3cc32760	0.023822486
123	0xbd8e1ed7	-0.06939476
124	0xbc26f2e8	-0.010189749
125	0x3865676e	5.469418e-05
126	0xbc9852d8	-0.01859419
127	0x3ca03f1c	0.019561343
128	0x3cb4fe93	0.022094047
129	0xbc89154b	-0.016733786
130	0xbb057b2f	-0.0020367613
131	0xbb73ce24	-0.0037201727
132	0xbc5b8cf2	-0.013400303
133	0x3c25153f	0.010075866
134	0xbca35306	-0.01993705
135	0x3d930633	0.07178917
136	0x3b802bb1	0.0039114584
137	0x3c8aacba	0.016928066
138	0x3cd64650	0.026156574
139	0x3d36b21d	0.044603456
140	0xbc3031a7	-0.010754026
141	0xbe2427f2	-0.16030863
142	0x3ca3e997	0.020008845
143	0xbe374fda	-0.17901555
144	0xbc06ca20	-0.008226901
145	0x3c84ded7	0.01621954
146	0x3d807af0	0.062734485
147	0xbdc4966d	-0.09599004
148	0x3ad45186	0.0016198612
149	0xbbe579cd	-0.007003045
150	0xbce35427	-0.027750088
151	0xbcc33015	-0.023826638
152	0x3d15e30f	0.036593493
153	0x3db47bef	0.08812701
154	0xbd02575d	-0.031821597
155	0xbcbbca3f	-0.022923587
156	0x3cc87287	0.024468673
157	0xbcbbab97	-0.022908969
158	0x3cc517ed	0.02405926
159	0x3cc39aea	0.02387758
160	0x3cb41aa0	0.021985352
161	0x3d6e8222	0.058229573
162	0x3c223acb	0.009901713
163	0x3bdb80fd	0.006698726
164	0x3c989b5c	0.018628769
165	0x3c4ef315	0.012631197
166	0xbbb3e76e	-0.005490235
167	0xbda528e8	-0.08064443
168	0x3e074a9c	0.13212055
169	0xbb38ef48	-0.0028218795
170	0xbc810f59	-0.015754389
171	0x3caf6733	0.021411514
172	0x3bef2b5d	0.0072988705
173	0x3cf16dff	0.029471396
174	0x3cec6c79	0.028860318
175	0x3e115e6b	0.14196174
176	0x3b742ea5	0.0037259248
177	0x3dbf8bce	0.093528375
178	0xbc619bcc	-0.013770055
179	0x3d028a9a	0.031870462
180	0xbdb8cc85	-0.09023384
181	0x3c52d896	0.012869021
182	0x3c494e7e	0.01228678
183	0xbcd80d78	-0.02637361
184	0xbc853b61	-0.016263666
185	0x3dd661a4	0.10467842
186	0x3c0eaeec	0.008708697
187	0xbc813ce8	-0.015776113
188	0x3c242702	0.010019066
189	0x3cc54225	0.024079392
190	0xbd9d75cd	-0.07688484
191	0xbcc341c5	-0.023835072
192	0xbc8b488f	-0.017002372
193	0x3d19dc5b	0.037563663
194	0xbaf693d3	-0.0018812366
195	0x3b244c24	0.0025069797
196	0xbcd1aab5	-0.025594095
197	0x3c3367e0	0.010950059
198	0xbe1e1a98	-0.15439832
199	0x3d218573	0.039433908
200	0x3d9c0255	0.07617632
201	0xbbcadb1b	-0.00619067
202	0x3e2411ee	0.16022465
203	0xbc89d6a7	-0.016825987
204	0xbda092db	-0.078405105
205	0xbc5a460a	-0.013322363
206	0xbe05b43e	-0.13057038
207	0x3ca0b932	0.019619558
208	0x3c587ad6	0.01321288
209	0xbc366c2a	-0.011134187
210	0x3b175587	0.002309175
211	0xbbd2dcd2	-0.0064350152
212	0x3d07b33a	0.03312991
213	0x3a9ae93c	0.0011818777
214	0xbcab77c4	-0.020931132
215	0x3d2f9e6c	0.042875692
216	0xbbaccc83	-0.005273403
217	0xbcfd173a	-0.030894864
218	0xbc154641	-0.009110988
219	0x3d1978f5	0.03746887
220	0x392f9744	0.00016745651
221	0x3bedf141	0.0072614257
222	0x3c059932	0.0081542
223	0xbd4be080	-0.049774647
224	0x3db66c71	0.08907402
225	0x3bcf3bc2	0.0063242624
226	0x3d07b5e4	0.03313245
227	0x3d114a6b	0.03547136
228	0x3c9e38a1	0.019314112
229	0xbd0818a2	-0.033226617
230	0x3c070ce4	0.008242819
231	0x3c82e179	0.015976654
232	0x3bb866fd	0.0056275115
233	0x3cefbc7f	0.029264687
234	0x3da2084b	0.07911738
235	0xbc5cb419	-0.013470673
236	0x3e9bceac	0.30431116
237	0x3bc14270	0.0058978125
238	0x3c98e466	0.018663596
239	0xbd81d9c2	-0.06340362
240	0x3d52b486	0.05144169
241	0xbcd776e0	-0.026301801
242	0xbd2db8a9	-0.042412434
243	0xbc223baa	-0.00990192
244	0x3af1fdb0	0.0018462446
245	0x3d0e1df8	0.03469655
246	0xbd2a4be8	-0.041576296
247	0xbbc0ea39	-0.0058872965
248	0xbcab13cb	-0.020883461
249	0xbc99dfd9	-0.018783497
250	0xbc2d36e7	-0.010572172
251	0x3bbe8478	0.0058141313
252	0x3b9edaea	0.004847874
253	0xbbe5046b	-0.006989052
254	0x3c2164b3	0.009850669
255	0x3bd1f872	0.006407791

bn2.weight f4 [300]
0	0xba82b1ca	-0.0009971198
1	0x3f24197f	0.64101404
2	0x3f028b85	0.5099414
3	0x3f311c2e	0.69183624
4	0x3efece54	0.4976679
5	0x3ea52f17	0.3226249
6	0x3f18628d	0.59525377
7	0x3efdd0be	0.4957332
8	0x3d3cbad2	0.046076603
9	0x3eaabff2	0.33349568
10	0x3f0cc4fa	0.5498806
11	0x3f4b256c	0.79353976
12	0x3f429110	0.760026
13	0x3f10ef2b	0.5661494
14	0x3e3f504d	0.18682976
15	0x3eb62baf	0.35580203
16	0x3ee7033d	0.45119658
17	0x3f1ede73	0.6205818
18	0xbc910e54	-0.017707027
19	0x3eddf5c8	0.4335158
20	0x3f0a5478	0.5403514
21	0x3efe6dc5	0.49693123
22	0x3efca031	0.49340966
23	0xbcb6901d	-0.022285515
24	0x3eda0013	0.42578182
25	0x3ecfeb82	0.40609366
26	0x3e4022fa	0.18763342
27	0x3ed180c2	0.40918547
28	0x3e715c89	0.23570456
29	0x3edb5fe9	0.4284661
30	0x3ef4fc4f	0.47848746
31	0x3f52f408	0.8240361
32	0xbc965c7c	-0.018354647
33	0x3d93831b	0.07202741
34	0x3fa6e746	1.3039329
35	0x3d02792e	0.031853847
36	0x3f0def53	0.55443305
37	0x3e711add	0.23545404
38	0x3f2108a2	0.629038
39	0x3e830b89	0.25594738
40	0x3f251903	0.6449129
41	0x3f32f2c1	0.69901663
42	0x3dc8f21b	0.09811803
43	0x3f3fa5e2	0.7486249
44	0x3de9916d	0.11404691
45	0x3ebd3fb8	0.36962676
46	0x3f3ccfbe	0.7375449
47	0x3f5573af	0.83379644
48	0x3f11cc84	0.5695269
49	0xbc31e70d	-0.010858309
50	0xbc186bf0	-0.009303078
51	0x3ee024f8	0.43778205
52	0x3f3ac832	0.72961724
53	0x3daf2019	0.08551044
54	0x3f94c590	1.1622791
55	0x3db3b08a	0.087739065
56	0xbd94b048	-0.072601855
57	0x3ef66b73	0.48128852
58	0x3d538ae8	0.051646143
59	0x3f11fd09	0.57026726
60	0x3f12d5a0	0.57357216
61	0x3f05f251	0.5232287
62	0xba5e2932	-0.00084747665
63	0x3e8ef4f7	0.27921268
64	0x3eb686a3	0.35649595
65	0x3e8ac1f6	0.27101105
66	0xbbeb3988	-0.007178489
67	0x3a031eba	0.0005001832
68	0x3f3d07c2	0.7383996
69	0x3e991800	0.29901123
70	0x3e0c4b36	0.13700566
71	0x3f8bfcaa	1.0936482
72	0x3de121a3	0.10992744
73	0x3ed6a268	0.4192078
74	0x3f59818b	0.8496329
75	0x3eda67dd	0.42657366
76	0x3d43f3a1	0.047839765
77	0x3e9e90fc	0.3096999
78	0x3f48bfa3	0.78417414
79	0x3dd8b57e	0.10581492
80	0x3e26fb28	0.16306746
81	0x3ea02761	0.31280044
82	0x3ee2b44d	0.44278184
83	0x3effdd7c	0.49973667
84	0x3f05b29c	0.5222566
85	0x3f1d9311	0.6155253
86	0x3f78ad71	0.9713965
87	0x3cc2fad4	0.023801245
88	0x3efdd2ef	0.49574992
89	0x3e8d50aa	0.27600604
90	0x3f16aced	0.58857614
91	0x3e906dde	0.28208822
92	0x3f3ef11c	0.74586654
93	0x3e4018bc	0.18759435
94	0x3e60f313	0.21967725
95	0x3ed38400	0.41311646
96	0x3ee8ee89	0.45494488
97	0x3e84c806	0.25933856
98	0x3e469a21	0.19394733
99	0x3ee36150	0.4441018
100	0x3eb4dc85	0.35324493
101	0x3ee9c890	0.4566083
102	0x3ce951b2	0.028481338
103	0x3eb636d9	0.3558872
104	0x3f277930	0.6541929
105	0x3f48a372	0.783744
106	0x3f3432ae	0.7038983
107	0x3f77977d	0.9671553
108	0x3e0e46ec	0.13894242
109	0x3f0d6b7e	0.55242145
110	0x3d07149e	0.032978646
111	0x3f358014	0.70898557
112	0xb9f82855	-0.00047332296
113	0x3f5f069e	0.8711947
114	0x3e657dcd	0.2241127
115	0x3d9709d5	0.07374922
116	0x3ea3df86	0.32006472
117	0xbb6029ac	-0.0034204526
118	0xbceb9884	-0.028759249
119	0x34b86b73	3.435085e-07
120	0x3f712980	0.9420395
121	0x3f1b8117	0.6074385
122	0x3f05cf88	0.5226979
123	0x3e02008d	0.12695523
124	0x3f34b433	0.7058746
125	0x3ec6baf2	0.38814503
126	0x3f2cd762	0.6751615
127	0x3f22adc7	0.63546413
128	0x3f0ae108	0.5424962
129	0x3f23b5d3	0.63949317
130	0x3f160a5e	0.5860957
131	0x3f284268	0.6572633
132	0x3f0e05ec	0.55477786
133	0x3e14bf09	0.14525999
134	0x3dd96bd3	0.10616269
135	0xbcbca1ba	-0.023026336
136	0x3f0b1861	0.54334074
137	0x3e8d8180	0.27637863
138	0x3af334c0	0.001855515
139	0x3eb1a525	0.34696308
140	0x3ee245dd	0.44193926
141	0xbc71bc9b	-0.01475444
142	0x3f48975e	0.7835597
143	0xbc090bfb	-0.008364673
144	0x3f11ef1e	0.5700549
145	0x3f15c010	0.5849619
146	0xbd6e978e	-0.058250003
147	0xbb17ff52	-0.0023192954
148	0x3eaaf11e	0.33387083
149	0x3e4b58cf	0.19858097
150	0x3c77d770	0.015127048
151	0x3f9b2966	1.2122009
152	0x3ed22e95	0.41051164
153	0x3c3c9c94	0.0115119405
154	0x3f45fb24	0.77336335
155	0x3e9c95f5	0.30583158
156	0x3f6b80f0	0.9199362
157	0x3e8d3bfc	0.27584827
158	0x3f0fe847	0.562138
159	0x3f1bf3e8	0.60919046
160	0x3efe52ca	0.49672538
161	0x3b914e25	0.0044343644
162	0x3f22eab3	0.6363937
163	0x3ebbeff2	0.367065
164	0x3f3e70bc	0.7439077
165	0x3ea597c5	0.32342353
166	0x3f63eee1	0.89036375
167	0x3e387295	0.1801246
168	0x3e7a0b51	0.2441838
169	0x3f03a8bb	0.5142934
170	0x3f588ecb	0.84592885
171	0x3ee4ff1c	0.44725883
172	0x3efd01fe	0.49415582
173	0x3edeaf29	0.43493012
174	0x3f662fd8	0.89916754
175	0x3e639c53	0.22227602
176	0x3f4b768b	0.7947776
177	0xbb0c3078	-0.0021391194
178	0x3e8662dc	0.262473
179	0x3ed40313	0.41408595
180	0x3ce94a33	0.028477764
181	0x3f387d8c	0.7206657
182	0x3ecd329c	0.40077674
183	0x3f25f712	0.64830124
184	0xbc88ebde	-0.016714033
185	0xbc4da9d3	-0.012552696
186	0x3fa3a3d2	1.2784369
187	0x3eb157b7	0.34637234
188	0x3ecf3c90	0.40475893
189	0x3f4a634f	0.7905778
190	0x3da47429	0.08029968
191	0xbd20321e	-0.039110295
192	0x3e886cf5	0.26645628
193	0x3f42e7c9	0.76134926
194	0xba91e473	-0.0011130705
195	0x3f3b9bcb	0.73284596
196	0x3a8da6b6	0.001080713
197	0x3ee6c8ff	0.45075223
198	0x3d4bac2c	0.049724743
199	0x3f3bf14a	0.7341505
200	0xbe2f92bf	-0.17145823
201	0x3f41cb86	0.7570118
202	0x3c29f678	0.010373704
203	0x3f18bc87	0.5966267
204	0x3e25eb40	0.16203022
205	0x3f2836c4	0.65708566
206	0x3a658c3e	0.00087565545
207	0x3ee84d17	0.45371315
208	0x3f149ace	0.58048713
209	0x3f4736ce	0.77818
210	0x3ee45167	0.44593355
211	0x3f5e57e0	0.86852837
212	0x3eead72a	0.45867282
213	0x3f3c476c	0.7354648
214	0x3ee189ba	0.4405039
215	0x3ea45563	0.32096395
216	0x3f0495eb	0.51791257
217	0x3ec518c6	0.38495463
218	0x3f5a94f4	0.85383534
219	0x3e8a1b2a	0.2697385
220	0x3f03e68c	0.5152366
221	0x3ebbefa3	0.36706266
222	0x3f39a61d	0.72519094
223	0xba27c292	-0.00063995377
224	0x3d7022f8	0.0586271
225	0x3f2f1cf1	0.68403536
226	0x3b3c0cb5	0.0028694097
227	0x3f282550	0.65681934
228	0x3f09e36b	0.5386264
229	0x3f0271d0	0.50954914
230	0x3f255115	0.64576846
231	0x3f24d5a9	0.6438852
232	0x3f3b480c	0.7315681
233	0x3f31ff77	0.69530433
234	0x3e3607b8	0.17776382
235	0x3f11319a	0.5671631
236	0x3d5787cc	0.05261974
237	0x3f0263b6	0.50933397
238	0x3f0ae7ed	0.5426014
239	0x3e3a701f	0.18206833
240	0x3e960951	0.29303983
241	0x3eb882c5	0.3603727
242	0x3f02c01c	0.51074386
243	0x3ed058b0	0.40692663
244	0x3f2b49ea	0.6690966
245	0x3ed68349	0.41897038
246	0x3ed4e1f4	0.4157864
247	0x3eccb441	0.39981273
248	0x3f31568c	0.69272685
249	0x3eb2bd95	0.34910265
250	0x3ee48de9	0.4463952
251	0x3f1ff37f	0.6248092
252	0x3ef06033	0.46948394
253	0x3e7b9074	0.24566823
254	0x3ee2176d	0.44158497
255	0x3e8415e2	0.25797945
