experiments/luna_v1/saves/target_pi_network.pth (torch_old, 505222 bytes, 10 tensors)

fc1.weight f4 [400, 8]
0.29701295 0.46502283 -0.114794955 -0.39183334 -0.18328533 0.15462902 0.3476691 0.4629409
-0.12950073 0.571698 -0.12440032 -0.06681517 0.40503296 0.56649923 0.17208996 0.0891133
0.2652851 1.0875906 -0.3252399 -0.9046381 0.019903874 -0.19264463 0.49395552 0.42357203
0.09903944 0.26735625 -0.3079525 -0.40722352 0.050561093 0.06985708 0.25860828 0.32712466
-0.43270358 0.46326163 -0.11155884 -0.66553485 -0.043961905 0.08058582 0.42292833 0.5299736
0.3053489 0.8273638 -0.06476592 -0.095639296 0.091900565 -0.14618148 0.47020233 0.53148
-0.23991884 0.65861183 0.03892226 -0.77697223 -0.05771916 -0.10894546 0.12188606 0.40491378
-0.23944099 0.8712668 0.33456585 -0.49063346 -0.22035915 0.16770846 0.35341704 0.4176129
-0.5070886 0.4761387 -0.071680866 -0.63777584 0.1553665 -0.03840954 0.48968667 0.43403158
0.033013243 1.3255961 0.07072193 -0.55341667 0.15642992 0.13874702 0.6017648 0.51377773
-0.38571092 0.93157595 -0.27940863 -0.7049739 0.11144881 0.21963787 0.16438453 0.43343335
-0.12313578 0.6886194 -0.37196815 -0.6011573 0.43155926 0.43270084 0.08898194 0.3477858
-0.6142512 0.89758843 -0.14632863 -0.43947402 0.21211578 0.27950066 0.33778298 0.24786025
0.0785377 0.44630343 -0.32444662 -0.28935486 0.2076457 -0.08525582 0.2516509 0.1262819
-0.1551589 0.50245535 -0.08469128 -0.5327067 0.13657403 -0.14725964 0.32311082 0.44562632
0.22018841 1.1616769 0.29922014 -0.96436346 -0.14362814 -0.2325052 0.5078756 0.40435904
0.18793185 0.8123658 0.035090245 -0.5269985 -0.37061718 0.104430355 0.4221433 0.44311556
-0.091167025 1.8223693 -0.07193418 -0.6595587 0.23130304 -0.3124436 0.7258927 0.60695326
-0.44227308 1.0277745 -0.34148914 -0.061552316 0.32346603 0.15647909 0.28149572 0.24402267
-0.18917017 1.0232344 -0.1775971 -0.22898981 0.45257154 0.3175929 0.33036703 0.1626193
-0.0013630242 1.0352703 0.19829969 0.120827526 -0.1147632 -0.22436 0.13406566 0.6833168
-0.4036588 0.5300784 -0.06291514 -0.6490116 0.22049709 0.15496033 0.29013023 0.4258348
-0.21053758 0.64559877 0.043932706 -0.5729774 0.11513112 -0.18921962 0.123874836 0.47538894
-0.50634634 0.8875554 -0.05542707 -0.63961184 -0.021459617 0.03056584 0.48891512 0.31997746
-0.19189915 0.64135873 -0.1926176 -0.40989688 0.19607806 0.56754684 0.28806785 0.15619549
-0.32019642 0.8781138 -0.17130657 -0.25425854 -0.25770208 -0.2794321 0.3765806 0.3946107
-0.54587805 0.57439816 0.021237474 -0.33760878 0.25822777 0.080081895 0.3777588 0.66625243
0.17767134 0.7991105 0.07804602 -0.23153746 0.11408974 0.16432855 0.3827829 0.37111518
0.3990455 0.5845376 0.052430443 -0.3979007 0.06290652 -0.20647225 0.3271155 0.22295135
-0.6461833 0.92666584 -0.03447179 -0.30216783 0.15246466 -0.07772826 0.5733048 0.33548975
-0.045463692 0.395203 0.3571158 -0.4918537 0.3262851 0.25181508 0.07313991 0.5900964
-0.43927938 0.82262486 -0.15959853 -0.56598324 -0.21522693 0.0057353782 0.33642754 0.48623976
00000000: 1512 983e 7917 ee3e 9e19 ebbd 619e c8be
00000010: 26af 3bbe 1257 1e3e af01 b23e 9706 ed3e
00000020: d79b 04be cd5a 123f 98c5 febd 64d6 88bd
00000030: 7b60 cf3e 1806 113f 5a38 303e 0981 b63d
00000040: 73d3 873e 2b36 8b3f d885 a6be 5d96 67bf
00000050: 730d a33c a244 45be bde7 fc3e 6fde d83e
00000060: 31d5 ca3d ebe2 883e f3ab 9dbe 9a7f d0be
00000070: 2619 4f3d 3b11 8f3d 4e68 843e e27c a73e
00000080: 538b ddbe a130 ed3e f678 e4bd 7e60 2abf
00000090: 6611 34bd 2e0a a53d 108a d83e 5aac 073f
000000a0: b156 9c3e 1dce 533f ffa3 84bd 89de c3bd
000000b0: 5d36 bc3d 99b0 15be 5cbe f03e 130f 083f
000000c0: 49ad 75be c99a 283f f36c 1f3d a7e7 46bf
000000d0: ed6a 6cbd cc1e dfbd 669f f93d dc50 cf3e
000000e0: 0530 75be 570b 5f3f 374c ab3e 4f34 fbbe
000000f0: d4a5 61be c4bb 2b3e 14f3 b43e 5cd1 d53e
00000100: 8fd0 01bf 74c8 f33e 6bcd 92bd 4745 23bf
00000110: 6518 1f3e 5253 1dbd 36b8 fa3e 6339 de3e
00000120: e538 073d 22ad a93f a9d6 903d b7ac 0dbf
00000130: 2a2f 203e b313 0e3e 420d 1a3f f086 033f
00000140: e77b c5be c37b 6e3f a60e 8fbe 2b79 34bf
00000150: 463f e43d c0e8 603e 6b54 283e faea dd3e
00000160: 9d2e fcbd 5c49 303f 9c72 bebe 72e5 19bf
00000170: 56f5 dc3e f78a dd3e 2a3c b63d fb10 b23e
00000180: 913f 1dbf 5bc8 653f 2cd7 15be bd02 e1be
00000190: e134 593e b61a 8f3e e4f1 ac3e 14cf 7d3e
000001a0: 60d8 a03d e281 e43e de1d a6be 5226 94be
000001b0: 13a1 543e 9a9a aebd 63d8 803e 0b50 013e
000001c0: fae1 1ebe eaa0 003f 9f72 adbd 775f 08bf
000001d0: 10da 0b3e 3bcb 16be c86e a53e 2229 e43e
000001e0: 1279 613e d4b1 943f 6233 993e 86e0 76bf
000001f0: 4113 13be d815 6ebe 2304 023f 2608 cf3e
00000200: 3571 403e 34f7 4f3f caba 0f3d 60e9 06bf
00000210: 89c1 bdbe 95df d53d 2b23 d83e 0be0 e23e
00000220: c7b5 babd 6643 e93f 3a52 93bd d7d8 28bf
00000230: b4da 6c3e 9cf8 9fbe 1bd4 393f 4a61 1b3f
00000240: 9e71 e2be 1d8e 833f aad7 aebe 481e 7cbd
00000250: 579d a53e 0e3c 203e 3520 903e 14e1 793e
00000260: d3b5 41be 58f9 823f 04dc 35be 4e7c 6abe
00000270: 75b7 e73e 899b a23e de25 a93e ac85 263e
00000280: 81a7 b2ba bd83 843f 130f 4b3e 6c74 f73d
00000290: f808 ebbd a1be 65be 8248 093e daed 2e3f
000002a0: 5eac cebe 38b3 073f a7d9 80bd a025 26bf
000002b0: fdc9 613e ecad 1e3e f38b 943e 0507 da3e
000002c0: 2a97 57be f645 253f c8f2 333d a6ae 12bf
000002d0: ddc9 eb3d cac2 41be 17b2 fd3d 2e66 f33e
000002e0: ea9f 01bf d536 633f 7f07 63bd 9abd 23bf
000002f0: 14cc afbc 3665 fa3c 1553 fa3e 16d4 a33e
00000300: 3681 44be 1630 243f 8c3d 45be 01de d1be
00000310: b0c8 483e c04a 113f a17d 933e b6f1 1f3e
00000320: c9f0 a3be 11cc 603f fd6a 2fbe 2d2e 82be
00000330: 87f1 83be b911 8fbe 2ccf c03e 6a0a ca3e
00000340: aabe 0bbf c20b 133f 36fa ad3c 0fdb acbe
00000350: 6e36 843e fa01 a43d 9a69 c13e 858f 2a3f
00000360: 7aef 353e 8192 4c3f 97d6 9f3d 2818 6dbe
00000370: e2a7 e93d be45 283e 1ffc c33e cf02 be3e
00000380: b14f cc3e 42a4 153f 4ec1 563d a4b9 cbbe
00000390: 22d5 803d 766d 53be af7b a73e 5c4d 643e
000003a0: 456c 25bf f939 6d3f 4b32 0dbd beb5 9abe
000003b0: b21f 1c3e fe2f 9fbd 1ac4 123f 50c5 ab3e
000003c0: 2338 3abd 0c58 ca3e e2d7 b63e 40d4 fbbe
000003d0: d70e a73e e8ed 803e 61ca 953d 8f10 173f
000003e0: 3ae9 e0be 8b97 523f cc6d 23be 47e4 10bf
000003f0: 7364 5cbe d7ef bb3b 3b40 ac3e 6bf4 f83e

fc1.bias f4 [400]
0.6512839 0.6896126 1.408507 0.77087355 0.6449765 0.74385434 0.56725717 0.6076658
0.6605134 1.2029254 0.7984951 0.61385405 0.6147355 0.6848584 0.7126805 1.7049807
0.5825004 1.831474 0.9856529 0.69047034 0.86368763 0.6259997 0.64320797 1.0608811
0.838894 0.6940056 0.5774628 0.94264424 0.61895037 0.59467846 0.8009287 0.7556616
0.7224821 0.57541084 1.3380092 0.49539405 0.6056433 0.73652303 0.6623525 0.64630175
0.53008264 2.0726993 0.6189256 0.5553281 0.61657315 0.88442963 0.8004849 0.46974242
0.6558785 0.63540375 0.7648561 0.926101 1.0075595 0.69610757 0.71785307 0.74588084
0.56465316 0.672453 0.908953 1.7474347 0.8078545 0.5944479 0.5973402 0.907019
0.8098038 0.75385946 0.7868234 0.6408579 0.62933457 0.77966094 0.88791543 0.7603488
0.5998886 0.6676431 0.5712871 0.6577648 1.4273275 1.1340059 0.8203039 0.6846725
0.5585029 0.6385518 0.4351249 0.76923704 0.66218257 0.78731453 0.7612585 0.8882699
0.7339146 0.75273377 0.7054805 0.7139363 0.77318215 0.7846411 1.4461921 0.6321782
0.80879647 1.2457964 0.5510432 0.9471083 2.6668441 0.81268245 0.7143526 0.6706476
0.7086447 0.64697737 0.5902998 1.7885062 0.72614866 0.7163162 0.7363801 0.97670406
0.7100896 0.6461954 0.7298686 0.73158365 0.92557305 0.6965461 0.55870074 0.72224194
0.7089292 0.8433874 0.7401101 0.58566093 0.71914554 0.9430685 0.63730174 1.139794
0.7229354 0.96326715 0.59449303 1.5444238 0.64336073 0.7040658 2.6445205 0.5803025
0.71077704 0.547886 0.9325306 0.66573715 0.69447255 0.67200685 0.76707035 0.6357842
0.85025203 0.6399401 0.6654778 0.52043426 0.6607233 0.5947832 0.8288119 0.73156404
0.7191442 0.60595685 0.6770716 0.71870434 0.7049417 0.8832407 0.73494923 0.6130847
0.6696806 0.7896049 0.5749233 0.61642355 0.65461636 2.0900989 0.6972693 0.7629849
0.7291418 0.844281 0.6174941 0.66040623 0.6631546 0.60949165 1.3288207 0.98033273
0.5660759 0.7515038 0.71217674 0.7537963 0.8169566 0.671804 0.6774225 0.6678671
0.7334558 0.7053377 0.7111103 2.785258 2.7382963 0.59104824 0.54379594 0.6789824
0.502801 0.7951756 0.8059366 0.683042 0.60533184 0.723278 0.64371616 0.7173274
0.81726295 0.67196125 0.7062418 0.59135187 1.0089102 0.5809273 0.64809203 0.6274523
0.66152716 0.651276 0.7901908 0.5639917 0.6332132 0.78184646 1.2372557 0.5682358
1.2598821 2.6754754 0.6817986 0.645224 0.7202644 0.7272999 0.8343712 0.69993824
0.65788484 0.5773666 0.79680187 1.2120719 0.7968013 0.7708955 1.4208342 0.819083
0.6928083 0.574163 0.7359603 0.7630794 0.76613474 0.48302236 0.6682541 0.6570227
0.67200935 0.5433736 0.59002334 1.302611 0.6593158 0.7006881 0.81560045 1.393227
0.8269906 0.65253603 0.7237807 1.1805974 0.61689615 2.5496216 0.7775377 0.6590767
00000000: 8bba 263f 748a 303f f549 b43f f857 453f
00000010: 2e1d 253f 3d6d 3e3f c437 113f fc8f 1b3f
00000020: 6817 293f 76f9 993f 2d6a 4c3f 8a25 1d3f
00000030: 4e5f 1d3f e152 2f3f 3b72 363f cf3c da3f
00000040: bf1e 153f bd6d ea3f c053 7c3f aac2 303f
00000050: a21a 5d3f 8441 203f 47a9 243f f4ca 873f
00000060: c2c1 563f 5aaa 313f 9ad4 133f 2251 713f
00000070: 8873 1e3f d93c 183f aa09 4d3f 0a73 413f
00000080: 96f4 383f 204e 133f e343 ab3f 4aa4 fd3e
00000090: 700b 1b3f c68c 3c3f ef8f 293f 0874 253f
000000a0: 7fb3 073f 1ba7 0440 e871 1e3f fb29 0e3f
000000b0: bdd7 1d3f fb69 623f 94ec 4c3f 1482 f03e
000000c0: a7e7 273f d2a9 223f 9ccd 433f f514 6d3f
000000d0: b6f7 803f 1b34 323f 38c5 373f 0cf2 3e3f
000000e0: 1c8d 103f e125 2c3f 25b1 683f f1ab df3f
000000f0: 8dcf 4e3f bd2d 183f 4aeb 183f 6632 683f
00000100: 4d4f 4f3f effc 403f 426d 493f 430f 243f
00000110: 121c 213f dc97 473f 6d4e 633f 38a6 423f
00000120: 4d92 193f a8ea 2a3f df3f 123f 4663 283f
00000130: abb2 b63f 1b27 913f 70ff 513f b246 2f3f
00000140: 0cfa 0e3f 2178 233f b1c8 de3e b8ec 443f
00000150: cc84 293f 728d 493f d6e1 423f a865 633f
00000160: d4e1 3b3f 29b3 403f 5f9a 343f 88c4 363f
00000170: 44ef 453f 3dde 483f d31c b93f 6ed6 213f
00000180: 490d 4f3f 4276 9f3f 2b11 0d3f b175 723f
00000190: 93ad 2a40 f50b 503f d0df 363f 90af 2b3f
000001a0: bd69 353f 4fa0 253f e31d 173f c5ed e43f
000001b0: e1e4 393f 8060 373f 6883 3c3f 4709 7a3f
000001c0: 6fc8 353f 106d 253f abd8 3a3f 1149 3b3f
000001d0: 5bf2 6c3f d850 323f 0307 0f3f d9e4 383f
000001e0: 627c 353f 3de8 573f db77 3d3f e0ed 153f
000001f0: ec19 383f f06c 713f 3526 233f c5e4 913f
00000200: 4b12 393f ad98 763f b230 183f aeaf c53f
00000210: 4ab3 243f a83d 343f d33f 2940 b48e 143f
00000220: 7cf5 353f 4242 0c3f 53ba 6e3f c06d 2a3f
00000230: f4c8 313f a408 2c3f b95e 443f c1c2 223f
00000240: 1eaa 593f 1dd3 233f c15c 2a3f 2e3b 053f
00000250: 2a25 293f b643 183f 042d 543f c847 3b3f
00000260: d619 383f fd1f 1b3f 9054 2d3f 02fd 373f
00000270: 0f77 343f 101c 623f a225 3c3f 1ef3 1c3f
00000280: 3070 2b3f 8c23 4a3f 2c2e 133f efcd 1d3f
00000290: f094 273f 2ec4 0540 3e80 323f fa52 433f
000002a0: 09a9 3a3f cd22 583f 1814 1e3f 6210 293f
000002b0: 80c4 293f a507 1c3f cc16 aa3f 16f7 7a3f
000002c0: 5aea 103f 8e62 403f 3751 363f cbf8 403f
000002d0: 1124 513f 59fb 2b3f 906b 2d3f 57f9 2a3f
000002e0: c2c3 3b3f 0391 343f 530b 363f ab41 3240
000002f0: 3f40 2f40 f04e 173f 3636 0b3f cad1 2d3f
00000300: 91b7 003f a190 4b3f dc51 4e3f d7db 2e3f
00000310: 07f7 1a3f bf28 393f 95ca 243f c5a2 373f
00000320: 2538 513f a705 2c3f 43cc 343f d662 173f
00000330: f823 813f a7b7 143f 5ce9 253f b7a0 203f
00000340: d859 293f 06ba 263f f249 4a3f c361 103f
00000350: 431a 223f 1727 483f 655e 9e3f e777 113f
00000360: d143 a13f fd3a 2b40 5a8a 2e3f 662d 253f
00000370: 3f63 383f 5430 3a3f 5a99 553f 272f 333f
00000380: 246b 283f 4cce 133f 35fb 4b3f 2c25 9b3f
00000390: 2cfb 4b3f 6859 453f e5dd b53f 6caf 513f
000003a0: e25b 313f 59fc 123f e567 3c3f 2c59 433f
000003b0: 6821 443f b54e f73e b312 2b3f a432 283f
000003c0: ce08 2c3f 881a 0b3f c50b 173f f5bb a63f
000003d0: ecc8 283f 4c60 333f 31cb 503f 4355 b23f
000003e0: a8b5 533f 9a0c 273f b149 393f d11d 973f
000003f0: e8ec 1d3f 002d 2340 b60c 473f 40b9 283f

bn1.weight f4 [400]
2.456968 1.8691494 0.40158254 1.4294173 2.1383889 1.2569559 3.135362 2.135689
1.7102866 0.3942739 1.0687752 1.4094969 1.3562591 1.2660929 1.451698 0.26018345
1.4635593 0.2393531 0.70194435 2.0564914 1.7232932 2.6547878 1.8921747 0.7221063
0.8323053 2.154108 1.3569722 0.95040494 1.5998019 1.5011677 0.7417184 1.0954472
1.450695 1.6768416 0.44120124 1.5798609 1.3511878 1.438679 1.9057021 1.8161277
2.7152293 0.19518304 2.0519245 2.4984066 2.0233397 0.7568236 1.2605015 1.3485795
2.0368822 1.5543673 0.9936243 0.44624782 0.6728818 1.6014595 1.4567869 1.2957158
1.5244201 1.4478443 0.9232458 0.3343645 1.7990191 1.9022235 2.218722 0.79538476
0.6801033 1.4092464 1.1524066 1.5173407 2.0457861 1.9141331 1.0475074 2.2760355
1.8631393 1.4187666 1.8875914 1.3064772 0.37036598 0.6107901 0.77560616 1.8321377
1.4086812 1.4788967 1.4271622 0.75473446 1.5986798 1.2800143 1.2072304 0.9210854
0.99065876 1.1362796 1.3260001 1.2069275 1.1610146 1.3358676 0.39953598 1.8573728
1.2181666 0.4234586 1.7134138 0.8473268 0.15722975 1.4748858 1.2809997 1.4681967
1.9718785 1.3958132 1.9987873 0.2607696 1.6451701 0.8387818 1.6878353 0.5926746
1.0926787 2.3869417 1.6917964 1.1566017 0.9738281 1.8311814 2.1030278 1.0242308
1.8592509 0.90923756 1.5135492 1.8190033 1.5287927 0.6199088 1.3606561 0.47647604
1.3304276 0.5713783 1.9213369 0.30681822 1.2410743 1.7779819 0.16336605 1.4698163
2.1827703 2.027782 1.0513682 1.3911755 2.2063365 1.6812187 1.0112699 1.991838
0.9609499 1.6696422 1.29636 4.4021654 1.3449788 1.3090962 1.0497237 0.81958383
1.6823816 1.9145442 1.7036338 1.6664836 1.2721993 0.8718954 1.6362488 2.777576
1.9651 1.4220008 1.7117366 1.6200598 2.0857487 0.1815872 1.5386341 1.0459069
1.5624657 1.5479083 2.0753026 2.0181851 2.4327629 3.0065281 0.329158 0.49221265
1.3336163 1.6044734 0.8587886 1.5537088 1.564573 1.7287803 2.4262512 1.5410743
1.7792276 0.77449244 2.0787416 0.09642327 0.14112754 0.93625206 2.3875823 0.8815781
3.8734932 1.1664969 1.4838939 1.1557115 1.6790667 1.6838418 1.8150388 1.4101684
0.6460853 1.7334391 1.6946601 1.3044819 0.8929673 1.541978 2.0141737 1.2873768
1.4839113 1.1024331 1.2097191 1.876775 1.0357002 1.2846867 0.5101442 1.9913839
0.36206576 0.15559657 1.3501779 0.8670528 1.1986463 1.4479266 0.75034636 1.4401518
1.2884009 1.1494079 0.92271465 0.39803508 0.58387166 1.8029785 0.38067913 1.4200331
1.320278 2.106065 2.4882343 1.4902064 1.1674899 2.1150763 1.5674491 1.9511926
1.1790586 2.2041345 2.3967707 0.4923147 1.3331347 1.0778996 0.98695236 0.38293305
0.84873396 1.1049232 2.1905334 0.56291604 1.4985818 0.16989276 1.6675651 2.0784562
00000000: f73e 1d40 4a40 ef3f 3a9c cd3e 25f7 b63f
00000010: 5ddb 0840 eee3 a03f c5a9 4840 21af 0840
00000020: acea da3f 45de c93e a0cd 883f 656a b43f
00000030: e699 ad3f 550f a23f 3dd1 b93f c436 853e
00000040: e955 bb3f fb18 753e a0b2 333f 8e9d 0340
00000050: df94 dc3f 0be8 2940 c832 f23f f5db 383f
00000060: f611 553f e8dc 0940 44b1 ad3f bd4d 733f
00000070: 4fc6 cc3f 4326 c03f 42e1 3d3f 9d37 8c3f
00000080: 60b0 b93f bfa2 d63f 21e5 e13e e238 ca3f
00000090: b9f3 ac3f a226 b83f 0cee f33f df76 e83f
000000a0: 51c6 2d40 10de 473e bb52 0340 e5e5 1f40
000000b0: 667e 0140 31bf 413f 1d58 a13f 419e ac3f
000000c0: 475c 0240 82f5 c63f 2a5e 7e3f 987a e43e
000000d0: fb41 2c3f a0fc cc3f fe77 ba3f 04da a53f
000000e0: 3320 c33f f652 b93f d659 6c3f d331 ab3e
000000f0: 4246 e63f 0f7c f33f 8bff 0d40 569e 4b3f
00000100: 401b 2e3f 3062 b43f 0f82 933f 3838 c23f
00000110: 29ee 0240 5002 f53f b914 863f 91aa 1140
00000120: 597b ee3f 259a b53f 989c f13f a53a a73f
00000130: 9ca0 bd3e bd5c 1c3f 208e 463f 7d83 ea3f
00000140: aa4f b43f 7d4c bd3f 40ad b63f 4736 413f
00000150: 8aa1 cc3f 82d7 a33f 8786 9a3f 41cc 6b3f
00000160: d09b 7d3f 9c71 913f 5fba a93f 9a7c 9a3f
00000170: 209c 943f b6fd aa3f fb8f cc3e 64be ed3f
00000180: e2ec 9b3f 91cf d83e 2551 db3f 69ea 583f
00000190: d600 213e 0fc9 bc3f ccf7 a33f dfed bb3f
000001a0: 8466 fc3f 02aa b23f 43d8 ff3f 9883 853e
000001b0: ef94 d23f 67ba 563f fd0a d83f 86b9 173f
000001c0: e5dc 8b3f a7c3 1840 c98c d83f 860b 943f
000001d0: cc4c 793f 2764 ea3f 0298 0640 ff19 833f
000001e0: effb ed3f cbc3 683f fbbb c13f 1ad5 e83f
000001f0: 7baf c33f 58b2 1e3f fb29 ae3f abf4 f33e
00000200: 744b aa3f d945 123f 5eee f53f 4717 9d3e
00000210: 86db 9e3f e994 e33f 6e49 273e f122 bc3f
00000220: 82b2 0b40 2ec7 0140 3c93 863f 0a12 b23f
00000230: 9e34 0d40 2d32 d73f 4b71 813f 8cf4 fe3f
00000240: d000 763f d6b6 d53f 20ef a53f 8ade 8c40
00000250: 4428 ac3f 7790 a73f 595d 863f 3fd0 513f
00000260: 4858 d73f c90f f53f ac10 da3f 564f d53f
00000270: 6dd7 a23f 8934 5f3f 9a70 d13f cec3 3140
00000280: 6688 fb3f 1f04 b63f 2f1a db3f 1f5e cf3f
00000290: e87c 0540 fff1 393e f6f1 c43f 47e0 853f
000002a0: e0fe c73f dc21 c63f c2d1 0440 f229 0140
000002b0: 63b2 1b40 f56a 4040 6687 a83e 4c03 fc3e
000002c0: f0b3 aa3f 625f cd3f 92d9 5b3f eedf c63f
000002d0: ee43 c83f ac48 dd3f b347 1b40 ec41 c53f
000002e0: bbbd e33f 2345 463f 1a0a 0540 9079 c53d
000002f0: bd83 103e 37ae 6f3f 26ce 1840 1aaf 613f
00000300: 50e7 7740 c54f 953f 3cf0 bd3f 5bee 933f
00000310: a8eb d63f 2188 d73f 3153 e83f 6680 b43f
00000320: d965 253f 55e1 dd3f 9fea d83f 43f9 a63f
00000330: 8199 643f 895f c53f 39e8 0040 c3c8 a43f
00000340: cef0 bd3f 871c 8d3f 13d8 9a3f 2a3a f03f
00000350: d391 843f 9d70 a43f cf98 023f abe5 fe3f
00000360: af60 b93e b554 1f3e a1d2 ac3f 2cf7 5d3f
00000370: 3e6d 993f a955 b93f b316 403f e556 b83f
00000380: 52ea a43f cc1f 933f 0737 6c3f 41cb cb3e
00000390: 9d78 153f 00c8 e63f 60e8 c23e a5c3 b53f
000003a0: dffe a83f c5c9 0640 3b3f 1f40 15bf be3f
000003b0: 4f70 953f 695d 0740 2ca2 c83f aec0 f93f
000003c0: 64eb 963f 8a10 0d40 b164 1940 ac10 fc3e
000003d0: 28a4 aa3f 9df8 893f e9a8 7c3f cd0f c43e
000003e0: a146 593f 206e 8d3f b331 0c40 441b 103f
000003f0: 87d1 bf3f 5ef8 2d3e c672 d53f 6d05 0540

bn1.bias f4 [400]
-0.63914174 0.032006565 -0.65256864 -0.35449713 0.036776844 -0.30203208 -0.3214522 0.053833272
-0.12717126 -0.66837734 -0.4159252 -0.2254309 -0.2935112 0.19375204 -0.101877876 -0.7960864
-0.19833145 -0.76389986 -0.5544679 0.12887508 0.21450526 -0.053885594 -0.14888784 -0.46881872
-0.4583142 -0.16102333 -0.040297672 -0.59494114 -0.31554416 -0.09660735 -0.44739902 -0.36143264
-0.11463135 -0.016934494 -0.7364931 -0.009295783 0.028911 -0.4643314 -0.40477645 -0.5151302
-0.17170447 -0.83631957 -0.06839963 -0.1574432 -0.05417334 -0.5227535 -0.116913415 -0.0109738335
-0.15099528 0.17884803 -0.508597 -0.60431534 -0.57291967 -0.21117783 -0.2655188 -0.064742856
-0.07225619 -0.31286836 -0.48148933 -0.72430515 -0.10189483 0.3205229 -0.18440565 -0.478309
0.117298916 -0.26488918 -0.23736952 -0.174414 0.071162656 0.01818831 -0.6603419 0.056483068
-0.04933497 -0.4147026 0.05088536 -0.16867402 -0.72648907 -0.4952211 -0.59368074 -0.25720173
0.07634514 0.26996747 -0.0987087 -0.43936735 0.012204605 -0.42544463 -0.17984892 -0.29083928
0.087784335 -0.24199478 -0.07577449 0.24671543 -0.3441647 -0.30382648 -0.64980745 0.0035042576
-0.29584026 -0.82406485 -0.22167866 -0.38914144 -0.8456298 -0.34220877 -0.09668409 -0.24424191
-0.13515185 -0.27006483 0.15779491 -0.7543646 -0.14131977 -0.3920209 -0.32232735 -0.6827144
-0.2851448 -0.019908972 0.0697955 -0.20051168 -0.39742085 -0.46101367 0.00057214237 -0.4265799
-0.22387546 -0.30490494 -0.16556004 -0.025428073 -0.30227396 -0.47875312 -0.05306622 -0.64309543
-0.085650355 -0.53895813 -0.036761098 -0.7442924 -0.038725417 -0.19332941 -0.8373209 -0.36605516
0.0377262 0.010569944 -0.48931423 -0.6701455 0.12415433 -0.3693033 -0.42755342 -0.0119035095
0.042192418 -0.29006937 -0.09715672 -0.13347739 -0.09547096 -0.06609684 0.031020638 -0.26594296
-0.08862134 -0.44344756 -0.3243776 -0.30362675 -0.29268855 -0.71394736 -0.17990093 0.006894074
-0.45887926 -0.10979244 -0.006173972 0.019264834 -0.2361982 -0.8481213 -0.09306767 -0.3909317
-0.41174632 0.034108963 -0.43167904 -0.17686623 -0.089359105 -0.29483095 -0.7269211 -0.6567067
-0.06744173 -0.12727594 0.40599266 -0.24221271 -0.37513268 -0.55472213 0.1532439 -0.20705113
-0.2330158 0.29113573 -0.137744 -0.8596369 -0.8390852 -0.27515277 -0.095648095 -0.14132088
0.19973204 -0.43463427 -0.045517925 0.21053044 0.079529144 -0.12373847 0.24826226 -0.18697584
-0.53286374 -0.06158429 -0.23319149 -0.2016871 -0.73930883 -0.051155545 -0.22534123 -0.0781824
-0.11666811 -0.32534415 -0.616568 -0.030883595 -0.19810468 -0.37776083 -0.5839956 -0.3779594
-0.7662602 -0.8416363 -0.41566756 -0.40566152 -0.27063793 -0.40852556 -0.40219164 -0.122220926
-0.03859601 -0.1927794 -0.36272678 -0.6620977 -0.4766968 -0.49230412 -0.74162483 -0.26507708
-0.14687279 0.20412865 0.014962639 0.05648638 -0.3058536 -0.0053094863 -0.25909135 0.22868021
0.12214675 -0.21071112 0.0073302495 -0.7023575 -0.19578506 -0.28925565 -0.2691095 -0.7597792
-0.5013098 -0.27217126 -0.14106767 -0.5725726 -0.40104058 -0.818915 -0.2759082 -0.21455693
00000000: cb9e 23bf 5119 033d bd0e 27bf a680 b5be
00000010: 51a3 163d f3a3 9abe 6295 a4be 4780 5c3d
00000020: 2f39 02be c71a 2bbf 26f4 d4be 5cd7 66be
00000030: 1a47 96be ef66 463e 59a5 d0bd 51cc 4bbf
00000040: 6617 4bbe f18e 43bf 9cf1 0dbf d4f7 033e
00000050: 44a7 5b3e 24b7 5cbd 0e76 18be 0209 f0be
00000060: 29a8 eabe 4de3 24be 2c0f 25bd 104e 18bf
00000070: 018f a1be 13da c5bd 7c11 e5be b30d b9be
00000080: d7c3 eabd 35ba 8abc d08a 3cbf 574d 18bc
00000090: c3d6 ec3c d8bc edbe dc3e cfbe 93df 03bf
000000a0: 4cd3 2fbe 0a19 56bf 1b15 8cbd ca38 21be
000000b0: dde4 5dbd 2cd3 05bf 4d70 efbd 98cb 33bc
000000c0: 829e 1abe f023 373e 6a33 02bf 69b4 1abf
000000d0: ddaa 12bf 003f 58be 15f2 87be e797 84bd
000000e0: 0efb 93bd 4830 a0be c585 f6be 106c 39bf
000000f0: 3dae d0bd 941b a43e d6d4 3cbe ebe4 f4be
00000100: 6a3a f03d 8e9f 87be ff10 73be 9599 32be
00000110: babd 913d a7ff 943c 2b0c 29bf ca5a 673d
00000120: 7713 4abd e653 d4be 2b6d 503d e2b8 2cbe
00000130: 30fb 39bf 9f8d fdbe 76fb 17bf f2af 83be
00000140: d75a 9c3d 2d39 8a3e c927 cabd c2f4 e0be
00000150: d3f5 473c e1d3 d9be 512a 38be e3e8 94be
00000160: 46c8 b33d 7bcd 77be a82f 9bbd f8a2 7c3e
00000170: 5b36 b0be 258f 9bbe c859 26bf b0a7 653b
00000180: 6078 97be eaf5 52bf bbff 62be 8c3d c7be
00000190: 327b 58bf fd35 afbe 4f02 c6bd 8d1a 7abe
000001a0: 3f65 0abe f045 8abe fd94 213e 0a1e 41bf
000001b0: 21b6 10be f7b6 c8be 1708 a5be 5fc6 2ebf
000001c0: 80fe 91be 2418 a3bc f1f0 8e3d ef52 4dbe
000001d0: bf7a cbbe fc09 ecbe d3fb 153a ae68 dabe
000001e0: 9c3f 65be 801c 9cbe 9288 29be 894e d0bc
000001f0: a7c3 9abe 211f f5be f75b 59bd e7a1 24bf
00000200: 7469 afbd 29f9 09bf ce92 16bd f289 3ebf
00000210: 8b9e 1ebd 25f8 45be aa5a 56bf 956b bbbe
00000220: ca86 1a3d 8f2d 2d3c 6587 fabe a88e 2bbf
00000230: a044 fe3d 5215 bdbe 48e8 dabe f006 43bc
00000240: f5d1 2c3d f983 94be 1afa c6bd 4cae 08be
00000250: 4786 c3bd c85d 87bd fe1e fe3c ad29 88be
00000260: 1b7f b5bd 8f0b e3be d214 a6be f774 9bbe
00000270: 46db 95be 41c5 36bf f337 38be afe7 e13b
00000280: 39f2 eabe dcda e0bd 084f cabb 49d1 9d3c
00000290: f1dd 71be 7a1e 59bf 439a bebd 3328 c8be
000002a0: 6ad0 d2be d7b5 0b3d 0905 ddbe 6c1c 35be
000002b0: e801 b7bd 15f4 96be 8017 3abf ee1d 28bf
000002c0: e41e 8abd a054 02be 45de cf3e 9c06 78be
000002d0: 6411 c0be 4502 0ebf f8eb 1c3e 3605 54be
000002e0: b29b 6ebe be0f 953e c30c 0dbe 2a11 5cbf
000002f0: 4ace 56bf d3e0 8cbe 26e3 c3bd 6cb6 10be
00000300: 8e86 4c3e 6288 debe 0171 3abd 4b95 573e
00000310: 2de0 a23d 986a fdbd 7638 7e3e 9876 3fbe
00000320: c269 08bf cf3f 7cbd c0c9 6ebe 1087 4ebe
00000330: 5843 3dbf 7a88 51bd dabf 66be 181e a0bd
00000340: b1ef eebd 8293 a6be 67d7 1dbf 98ff fcbc
00000350: f4db 4abe de69 c1be bc80 15bf e583 c1be
00000360: a129 44bf 7a75 57bf 61d2 d4be deb2 cfbe
00000370: 0e91 8abe 432a d1be 10ec cdbe f74e fabd
00000380: da16 1ebd f767 45be 53b7 b9be 3c7f 29bf
00000390: 9a11 f4be 490f fcbe 20db 3dbf 2fb8 87be
000003a0: d265 16be 1a07 513e db25 753c 435e 673d
000003b0: d898 9cbe 33fb adbb 9fa7 84be 252b 6a3e
000003c0: 1328 fa3d a8c4 57be 9732 f03b b3cd 33bf
000003d0: e17b 48be 5119 94be b8c8 89be e480 42bf
000003e0: d755 00bf 085a 8bbe 0b74 10be 1e94 12bf
000003f0: 3155 cdbe 6aa4 51bf d743 8dbe d0b4 5bbe

fc2.weight f4 [300, 400]
-1.3439581 -1.6395663 1.2729652 1.5852237 -0.73532337 -0.705802 0.062267236 -1.0363925
0.5505407 0.68751043 1.4619458 1.1874061 -2.410395 -0.32201812 1.3505679 -1.225127
-0.75364834 -0.22871366 -0.8156838 -1.4906608 -1.3483032 -0.14060111 -0.9172385 0.9875605
-0.34809193 -1.6790183 0.24241309 -1.0157864 0.4261733 0.02138356 -0.06434483 -1.0720725
-0.03139674 -0.10256487 1.2022935 -0.33410525 0.34189996 -0.8960528 -0.569947 -2.7834904
-3.9472554 0.095253535 0.34811568 -0.4698451 0.27523202 -1.6543283 -0.7086503 0.025457839
-0.6426959 0.18253328 0.4174723 0.13826407 2.6338992 -1.1982198 -0.33369154 0.5815139
-1.47991 0.9856364 -0.32353616 0.100358315 -0.23968865 -0.6331882 -0.7592608 0.70326096
-0.8411521 -1.0182893 -1.654441 -1.2799091 -0.70487493 0.58933085 0.07153642 -1.1743348
-0.8875182 0.36755663 -0.39344746 0.40734842 2.058684 -0.73065275 -0.84803784 -1.5710956
-1.1479596 0.3300836 0.19969457 -0.64245844 0.8890711 -0.04635262 -0.8894746 0.7170428
0.8236946 1.7947401 -0.15897173 0.19476785 0.66820776 0.46029776 0.20010294 0.91233104
0.11814605 -0.93247384 -0.47668302 -0.25164282 0.029133847 1.4514744 0.97025234 0.7809858
0.5461355 -0.6212451 -1.5060002 0.27211085 -0.49416012 -0.56664526 1.152496 -1.1930091
1.6139088 -2.5197134 -0.7318901 -1.4092977 1.7676855 -1.5800287 -1.1233268 -0.8128873
-0.70678496 1.4554908 0.00146387 -0.7934763 0.6173158 -0.14777732 0.5115854 1.2070899
0.61797786 -0.28118944 -0.57637405 -0.45619974 0.4736368 -0.035586793 0.00094648654 0.27771705
-0.7327382 -0.08438751 -0.6792633 -0.9950856 -0.22057824 -0.7681978 -1.8178436 -2.125677
-0.5120981 0.29660037 -1.7014872 -3.1627443 1.9769117 0.6393425 0.68914634 -0.055442497
-0.86300707 -1.1920645 -0.78876126 -0.33309594 0.9309133 -1.7694074 0.17235471 1.1013044
-1.3156223 -0.54406404 -0.16103269 0.71331215 -1.4771163 -0.2814981 1.5463574 -0.47109148
-0.8918234 -0.008998671 -0.56991583 0.6459894 -1.1044576 -0.85791117 -0.8066244 0.8064695
-0.8494341 -0.6048488 0.20027171 0.7120968 -0.545279 -0.48230258 1.4672046 -0.48350367
-0.07576898 -0.41249272 -2.7473454 0.0065418486 0.026329072 0.24854824 -3.2474446 0.3201404
-0.6987488 1.8534074 -1.2455093 0.16065769 0.20608696 -0.377877 0.25798506 -0.02207024
1.5184361 0.6151675 -0.58946246 -0.7924618 -0.7985076 -0.7499824 -1.9463084 -0.38888893
-0.94264793 -0.19789955 -1.1275588 -1.2780894 -0.6040363 -0.6425081 0.7229002 -0.8583558
-0.3304157 -0.015419085 0.47321984 -1.3205806 -0.03801941 0.072858654 0.6306282 -0.49454927
-0.42592087 -0.95429397 -0.03995907 0.49678835 1.2236462 0.2976206 -0.5039774 1.9504933
0.6826643 -1.0412966 -0.33678773 0.84254605 0.3272424 -2.1732183 0.70913136 0.7278461
0.3616186 -1.8988353 0.34126475 0.07633836 -0.9433883 -0.071792215 -0.32707796 -0.020671323
0.88147116 -0.021429017 0.03803838 -0.28750733 -0.5122535 0.09021097 0.67030764 0.16380906
00000000: d206 acbf 4fdd d1bf 86f0 a23f 9ce8 ca3f
00000010: 273e 3cbf 71af 34bf ee0b 7f3d 82a8 84bf
00000020: 3cf0 0c3f af00 303f 0a21 bb3f ecfc 973f
00000030: e943 1ac0 8fdf a4be 69df ac3f f6d0 9cbf
00000040: 19ef 40bf ea33 6abe a7d0 50bf f9cd bebf
00000050: 3395 acbf bdf9 0fbe 24d0 6abf c4d0 7c3f
00000060: 1b39 b2be 12ea d6bf 233b 783e 4a05 82bf
00000070: 6333 da3e 932c af3c 39c7 83bd ac39 89bf
00000080: de99 00bd 880d d2bd c1e4 993f d80f abbe
00000090: 830d af3e b763 65bf 0ce8 11bf b524 32c0
000000a0: d59f 7cc0 4914 c33d 383c b23e 898f f0be
000000b0: 36eb 8c3e 08c1 d3bf 1b6a 35bf f58c d03c
000000c0: b887 24bf 01ea 3a3e eebe d53e 1995 0d3e
000000d0: ce91 2840 445f 99bf 9ed9 aabe 18de 143f
000000e0: b16d bdbf ab52 7c3f 88a6 a5be a988 cd3d
000000f0: f170 75be 9f18 22bf ea5e 42bf e908 343f
00000100: be55 57bf 4e57 82bf b9c4 d3bf 10d4 a3bf
00000110: af72 34bf 63de 163f b081 923d 9a50 96bf
00000120: 6534 63bf 6230 bc3e f271 c9be f98f d03e
00000130: 7bc1 0340 0f0c 3bbf 0219 59bf a919 c9bf
00000140: 57f0 92bf b800 a93e bc7c 4c3e 2878 24bf
00000150: 2a9a 633f 3fdc 3dbd 9bb4 63bf 1e90 373f
00000160: a6dd 523f 0bba e53f 7cc9 22be 3971 473e
00000170: aa0f 2b3f 26ac eb3e c9e7 4c3e 878e 693f
00000180: 8ef6 f13d 9bb6 6ebf cc0f f4be 54d7 80be
00000190: 1baa ee3c eac9 b93f 7562 783f afee 473f
000001a0: 89cf 0b3f eb09 1fbf 9dc4 c0bf 1d52 8b3e
000001b0: 8e02 fdbe aa0f 11bf fd84 933f 86b4 98bf
000001c0: 9094 ce3f fc42 21c0 265d 3bbf de63 b4bf
000001d0: 8543 e23f 613e cabf 2cc9 8fbf 6219 50bf
000001e0: dcef 34bf 864d ba3f 54df bf3a 4321 4bbf
000001f0: 6908 1e3f f052 17be 43f7 023f ec81 9a3f
00000200: cc33 1e3f 10f8 8fbe 408d 13bf 0393 e9be
00000210: 8680 f23e 75c3 11bd a31d 783a ee30 8e3e
00000220: bb94 3bbf 5cd3 acbd 33e4 2dbf eebd 7ebf
00000230: 43df 61be 9ca8 44bf 19af e8bf 180b 08c0
00000240: dc18 03bf 01dc 973e 55ca d9bf 676a 4ac0
00000250: 710b fd3f f3ab 233f e56b 303f ac17 63bd
00000260: 08ee 5cbf 9295 98bf 42ec 49bf 8d8b aabe
00000270: 5650 6e3f f17b e2bf c17d 303e 8bf7 8c3f
00000280: 5066 a8bf c847 0bbf c1e5 24be a09b 363f
00000290: 2612 bdbf 8520 90be 0aef c53f e732 f1be
000002a0: 8a4e 64bf 296f 13bc 01e6 11bf 905f 253f
000002b0: de5e 8dbf 11a0 5bbf f07e 4ebf c974 4e3f
000002c0: 8374 59bf 5fd7 1abf 0714 4d3e fa4b 363f
000002d0: 6897 0bbf 5df0 f6be 5ccd bb3f cb8d f7be
000002e0: c42c 9bbd 3f32 d3be 82d4 2fc0 015d d63b
000002f0: 11b0 d73c 6e83 7e3e 22d6 4fc0 71e9 a33e
00000300: 34e1 32bf 743c ed3f d96c 9fbf 7383 243e
00000310: 7608 533e 1879 c1be 9e16 843e a6cc b4bc
00000320: 1d5c c23f 9e7b 1d3f 03e7 16bf c7de 4abf
00000330: fe6a 4cbf d9fe 3fbf a220 f9bf 731c c7be
00000340: 6051 71bf 2ea6 4abe d953 90bf 6f98 a3bf
00000350: 1fa2 1abf 697b 24bf fd0f 393f 35bd 5bbf
00000360: 3f2c a9be 54a0 7cbc df49 f23e c908 a9bf
00000370: 3eba 1bbd eb36 953d da70 213f 9035 fdbe
00000380: 4d12 dabe 9c4c 74bf 1fac 23bd 0b5b fe3e
00000390: 70a0 9c3f ba61 983e aa04 01bf c4a9 f93f
000003a0: 16c3 2e3f 3549 85bf 716f acbe 19b1 573f
000003b0: 518c a73e 0216 0bc0 a289 353f 1f54 3a3f
000003c0: 1326 b93e 090d f3bf 41ba ae3e 4957 9c3d
000003d0: e581 71bf cc07 93bd c376 a7be e856 a9bc
000003e0: 18a8 613f e88b afbc 22ce 1b3d 2934 93be
000003f0: 0c23 03bf 87c0 b83d 4899 2b3f 90bd 273e

fc2.bias f4 [300]
-0.073874265 0.0049562575 0.013136629 0.0036082033 -0.004381943 -0.016887369 -0.007754841 -0.009935737
-0.08360812 0.0062915417 -0.020169476 -0.016976582 -0.0035427348 -0.0037718762 0.04105923 -0.0011668921
0.008533394 0.012363848 0.107407086 -0.010915277 0.011661965 -0.01477956 0.030812502 0.04705836
0.010898945 -0.00095292437 -0.020447271 -0.005338641 0.026499113 0.0014372991 0.00063297997 0.03673635
-0.03608557 -0.011664034 0.013886454 0.09875597 -0.0070296265 -0.036640648 -0.0045410004 -0.002395665
-0.04321263 0.00043072557 0.02004697 -0.024588572 -0.040176034 0.035222262 0.014613312 -0.002951388
0.023775592 0.07449749 -0.14298281 0.03349925 -0.004368709 -0.019026268 -0.0049463296 -0.01396897
-0.11312028 -0.003699243 -0.037297565 -0.004933452 -0.031888023 0.023942385 -0.050844923 0.041620024
0.003598305 0.030255843 0.089361705 0.0027954804 0.036999594 -0.027333891 -0.052653767 -0.0054556625
-0.01649082 0.0044644484 0.010170078 0.010181949 -0.029773057 0.007845808 -0.004469537 0.044034556
-0.10709443 0.03395565 0.008321497 0.006478046 -0.017910508 -0.005276572 -0.018645262 -0.004222436
-0.00050117535 0.057032555 -0.0039970055 0.014944136 -0.012761372 0.01910082 -0.010956759 -0.022663726
-0.016784985 -0.08321598 0.02123697 -0.015089471 -0.017531672 -0.004901318 0.020117499 -0.016885156
-0.024215909 0.030222377 0.007190751 -0.0138946315 -0.09580793 -0.0019525806 0.13480382 0.005666102
0.057400275 -0.037844706 0.07901653 0.20324413 -0.04695845 -0.13881575 0.10782912 0.1469115
0.020441568 -0.01779012 0.023703266 -0.06982868 -0.0098976875 -0.00028240084 -0.018930474 0.019889962
0.021880846 -0.017169911 -0.0019723703 -0.0033698126 -0.013197979 0.010449589 -0.020340513 0.07099794
0.003723694 0.016543902 0.026049659 0.04399505 -0.010430705 -0.15961765 0.020274865 -0.1773533
-0.008355927 0.016070435 0.06283926 -0.09521563 0.0013408036 -0.00659721 -0.027273664 -0.0241799
0.036234822 0.08813346 -0.032180034 -0.022595817 0.024160476 -0.0231633 0.02420238 0.023498155
0.022510296 0.059098653 0.009968612 0.0068054223 0.019044993 0.012958238 -0.005354136 -0.07974765
0.13093081 -0.003101329 -0.016109051 0.021710997 0.0077852476 0.029814864 0.029101022 0.14075841
0.004070805 0.09193003 -0.013081938 0.031405892 -0.09088881 0.012502148 0.0119824875 -0.026740791
-0.017137004 0.10361171 0.009006663 -0.015496984 0.010563363 0.02446857 -0.07572731 -0.024456337
-0.01727316 0.03718803 -0.0019124775 0.002923846 -0.02548733 0.010748692 -0.15354443 0.039849143
0.07573654 -0.00582265 0.15968059 -0.016394518 -0.076715805 -0.013564495 -0.12939383 0.020009175
0.01271838 -0.011552763 0.001978071 -0.006634976 0.033213038 0.0009348213 -0.020612506 0.04281546
-0.0049426616 -0.03053122 -0.009536337 0.03696988 -0.00017336587 0.0076438915 0.0077178143 -0.04922298
0.08769464 0.00591578 0.03291898 0.03538649 0.019677883 -0.033580527 0.008038905 0.01615795
0.0059449375 0.029025026 0.07785894 -0.013249761 0.30276597 0.006288055 0.018215263 -0.062655106
0.0510622 -0.025703264 -0.042835895 -0.009611845 0.0022500437 0.035047986 -0.041316055 -0.0063463426
-0.021009952 -0.018934863 -0.01111663 0.005547146 0.005278055 -0.0076195635 0.009365089 0.00640782
00000000: 644b 97bd 1a68 a23b 043b 573c 9b77 6c3b
00000010: 6796 8fbb 6157 8abc 521c febb 80c9 22bc
00000020: bc3a abbd 4729 ce3b 753a a5bc 7912 8bbc
00000030: 3a2d 68bb 9531 77bb b92d 283d 67f2 98ba
00000040: a6cf 0b3c bd91 4a3c 3ff8 db3d fdd5 32bc
00000050: d411 3f3c f825 72bc 806a fc3c 44c0 403d
00000060: 7d91 323c accd 79ba 0981 a7bc c4ef aebb
00000070: ab14 d93c c163 bc3a 91ee 253a db78 163d
00000080: 76ce 13bd 811a 3fbc 0284 633c 9240 ca3d
00000090: c858 e6bb 8114 16bd accc 94bb 9700 1dbb
000000a0: baff 30bd 02d3 e139 8b39 a43c f96d c9bc
000000b0: a08f 24bd 3845 103d ac6c 6f3c 136c 41bb
000000c0: 08c5 c23c 2492 983d 166a 12be 8236 093d
000000d0: 6327 8fbb fadc 9bbc d214 a2bb 1bde 64bc
000000e0: 9bab e7bd 006f 72bb 55c5 18bd cba8 a1bb
000000f0: 049d 02bd d222 c43c c442 50bd c279 2a3d
00000100: 8ad1 6b3b 1adb f73c 4503 b73d 6134 373b
00000110: e38c 173d 53eb dfbc 7aab 57bd 6ac5 b2bb
00000120: c217 87bc 824a 923b 66a0 263c 30d2 263c
00000130: a0e6 f3bc b48b 003c 3275 92bb 945d 343d
00000140: 5354 dbbd 1415 0b3d e356 083c ca45 d43b
00000150: 0fb9 92bc 18e7 acbb f3bd 98bc 5c5c 8abb
00000160: 4f61 03ba f89a 693d 50f9 82bb 40d8 743c
00000170: 1315 51bc 5379 9c3c fa83 33bc 47a9 b9bc
00000180: aa80 89bc 246d aabd 27f9 ad3c d439 77bc
00000190: 959e 8fbc 3c9b a0bb 74cd a43c bd52 8abc
000001a0: 7160 c6bc eb94 f73c 64a0 eb3b 4fa6 63bc
000001b0: f336 c4bd bced ffba 030a 0a3e b5aa b93b
000001c0: 8d1c 6b3d 0d03 1bbd 6bd3 a13d 3b1f 503e
000001d0: 8157 40bd b725 0ebe 83d5 dc3d f86f 163e
000001e0: 1375 a73c 96bc 91bc 5a2d c23c 5702 8fbd
000001f0: e929 22bc 330f 94b9 1514 9bbc 46f0 a23c
00000200: 763f b33c eaa7 8cbc e242 01bb 13d8 5cbb
00000210: 563c 58bc c134 2b3c 26a1 a6bc 5e67 913d
00000220: 3809 743b 1487 873c 1866 d53c 2734 343d
00000230: 8ce5 2abc cf72 23be 7917 a63c 1a9c 35be
00000240: 4ce7 08bc 25a6 833c dfb1 803d 6a00 c3bd
00000250: e7bd af3a 692d d8bb 056d dfbc ed14 c6bc
00000260: f76a 143d 517f b43d 36cf 03bd dd1a b9bc
00000270: 31ec c53c f6c0 bdbc 1244 c63c 347f c03c
00000280: 8367 b83c 6e11 723d 6453 233c 0500 df3b
00000290: 3f04 9c3c ca4e 543c c071 afbb bc52 a3bd
000002a0: ba12 063e ab3f 4bbb 21f7 83bc 43db b13c
000002b0: 641b ff3b 4d3e f43c 4465 ee3c f922 103e
000002c0: 6364 853b d045 bc3d a055 56bc 77a3 003d
000002d0: ea23 babd cfd5 4c3c 3252 443c 810f dbbc
000002e0: e762 8cbc 6032 d43d af90 133c 10e7 7dbc
000002f0: f511 2d3c 4f72 c83c eb16 9bbd a858 c8bc
00000300: 7180 8dbc 7a52 183d 19ac faba ff9d 3f3b
00000310: ceca d0bc 481b 303c c03a 1dbe db38 233d
00000320: c21b 9b3d eecb bebb 4f83 233e cc4d 86bc
00000330: 2d1d 9dbd 9e3d 5ebc d17f 04be 48ea a33c
00000340: c160 503c cd47 3dbc 86a2 013b 366a d9bb
00000350: 650a 083d cc0e 753a 8fdb a8bc 445f 2f3d
00000360: 0df6 a1bb 9c1c fabc 4c3e 1cbc bb6d 173d
00000370: 8cc9 35b9 9c79 fa3b b8e5 fc3b 099e 49bd
00000380: 3f99 b33d 29d9 c13b 0dd6 063d 6df1 103d
00000390: 8333 a13c bc8b 09bd 9db5 033c ad5d 843c
000003a0: c0cd c23b e4c5 ed3c 8274 9f3d 8715 59bc
000003b0: 2404 9b3e 070c ce3b 2d38 953c 5251 80bd
000003c0: 9926 513d a78f d2bc b174 2fbd 007b 1dbc
000003d0: 7875 133b 7a8e 0f3d 063b 29bd fbf4 cfbb
000003e0: 101d acbc 491d 9bbc 8722 36bc d5c4 b53b
000003f0: 89f3 ac3b 88ad f9bb 0870 193c b1f8 d13b

bn2.weight f4 [300]
-0.0008532271 0.6417261 0.5092133 0.69170684 0.49781528 0.32245812 0.5949719 0.49663243
0.04598385 0.33264184 0.5501205 0.79439837 0.76004606 0.5668446 0.18720712 0.3557494
0.45163944 0.6206233 -0.017737204 0.43502194 0.5421179 0.49637556 0.49332362 -0.022165015
0.4247851 0.40425792 0.18740307 0.4092474 0.23707692 0.42691246 0.47852233 0.82511175
-0.017860059 0.07136127 1.3045427 0.0319216 0.5542607 0.23485468 0.6293499 0.25564137
0.645299 0.6998288 0.09885022 0.74859184 0.1142343 0.36872134 0.7368636 0.83481455
0.57024807 -0.010496429 -0.009099826 0.43740943 0.72996193 0.086229414 1.1636292 0.08721912
-0.07324833 0.48075616 0.050784014 0.56976414 0.5739488 0.523382 -0.0012174357 0.27997774
0.35669875 0.27125385 -0.0069671664 7.706021e-05 0.7382068 0.2988094 0.13628666 1.0942476
0.11059408 0.41979063 0.8501445 0.42662624 0.047478765 0.309662 0.78470325 0.10600294
0.16205224 0.31327462 0.44188902 0.49955213 0.5222392 0.61495775 0.9716859 0.02288765
0.49653217 0.2768899 0.58868927 0.28332183 0.7464594 0.18741366 0.21994871 0.41286835
0.45518205 0.25961027 0.1944468 0.44394323 0.3528776 0.45704564 0.027584318 0.35545263
0.65570074 0.7843689 0.7042415 0.96787536 0.138614 0.55320007 0.03269331 0.70992744
-0.0005593125 0.8713892 0.22311227 0.073691286 0.32015935 -0.0026327374 -0.028771326 3.077529e-06
0.94281745 0.6069162 0.52346855 0.12676796 0.70596623 0.38758117 0.6757294 0.63702136
0.5431996 0.6382534 0.58746415 0.65794075 0.55526537 0.14643137 0.107077844 -0.023875505
0.5435842 0.2755524 0.0006038364 0.34681183 0.44228956 -0.014477867 0.7846459 -0.008540107
0.57020295 0.58526427 -0.0586438 -0.00016881409 0.3323768 0.19821763 0.014570453 1.2132746
0.41134197 0.011771508 0.7734583 0.30552858 0.92095953 0.2773279 0.56264025 0.6084462
0.4960661 0.0049146605 0.6371781 0.3676472 0.74319947 0.32475704 0.8899255 0.18010421
0.2446616 0.5150352 0.84596974 0.44790298 0.49399453 0.4361655 0.8998372 0.22251816
0.79574066 0.00012203683 0.262123 0.41264957 0.02875911 0.7208425 0.40064853 0.6500173
-0.016999055 -0.012067429 1.2790253 0.3464677 0.403247 0.7907898 0.079249874 -0.039134603
0.26769793 0.7620277 -0.00034003536 0.7323887 0.00086136203 0.45027545 0.049511664 0.73439676
-0.17261586 0.75797963 0.010968704 0.59545237 0.16061889 0.65784276 0.00024355065 0.4539001
0.58055174 0.778205 0.44714496 0.86971384 0.4587913 0.7362803 0.44098213 0.32153684
0.5181237 0.3849938 0.85297656 0.26939696 0.5166416 0.36650765 0.7254779 -0.00028056215
0.05829287 0.6847845 0.0024924362 0.6574885 0.5391681 0.50942814 0.6471578 0.64437616
0.73317 0.6963675 0.17872125 0.56845665 0.0532699 0.5095967 0.5427373 0.18232754
0.2924288 0.35978186 0.51016897 0.40758362 0.6695319 0.41902232 0.41625446 0.4009869
0.6934124 0.35139766 0.4471993 0.62582576 0.46932954 0.24734904 0.44130132 0.25906995
00000000: 1aab 5fba 2948 243f ce5b 023f b313 313f
00000010: a5e1 fe3e 3b19 a53e 1450 183f 9b46 fe3e
00000020: 9059 3c3d 0850 aa3e b2d4 0c3f b15d 4b3f
00000030: 6192 423f ba1c 113f 39b3 3f3e c924 b63e
00000040: 493d e73e 2be1 1e3f 9d4d 91bc 32bb de3e
00000050: 3dc8 0a3f f024 fe3e ea94 fc3e 6893 b5bc
00000060: 6f7d d93e e5fa ce3e 97e6 3f3e e088 d13e
00000070: 4bc4 723e 4594 da3e e100 f53e 863a 533f
00000080: 424f 92bc dc25 923d 41fb a63f 39c0 023d
00000090: 07e4 0d3f bf7d 703e 131d 213f 6de3 823e
000000a0: 5132 253f fb27 333f fc71 ca3d b7a3 3f3f
000000b0: acf3 e93d 0bc9 bc3e 18a3 3c3f 68b6 553f
000000c0: c7fb 113f 37f9 2bbc 7017 15bc 21f4 df3e
000000d0: c9de 3a3f 0c99 b03d cdf1 943f f09f b23d
000000e0: 3803 96bd ac25 f63e e602 503d 10dc 113f
000000f0: 4fee 123f 5dfc 053f 5d92 9fba 3e59 8f3e
00000100: 38a1 b63e c9e1 8a3e d44c e4bb 639b a138
00000110: 1ffb 3c3f 8cfd 983e bb8e 0b3e 4e10 8c3f
00000120: 267f e23d ccee d63e 12a3 593f c16e da3e
00000130: 1879 423d 058c 9e3e 50e2 483f 1218 d93d
00000140: 06f1 253e 8865 a03e 473f e23e 4cc5 ff3e
00000150: 78b1 053f df6d 1d3f 68c0 783f e27e bb3c
00000160: 7739 fe3e 83c4 8d3e 57b4 163f 8f0f 913e
00000170: f717 3f3f 5ee9 3f3e 3c3a 613e 7b63 d33e
00000180: 9f0d e93e a3eb 843e 101d 473e 874c e33e
00000190: 5fac b43e e301 ea3e 82f8 e13c e3fd b53e
000001a0: 01dc 273f 66cc 483f 2c49 343f aec6 773f
000001b0: d4f0 0d3e 859e 0d3f 6ce9 053d cebd 353f
000001c0: d49e 12ba 5d13 5f3f 8b77 643e 75eb 963d
000001d0: edeb a33e 018a 2cbb d8b1 ebbc 8c87 4e36
000001e0: 7c5c 713f dc5e 1b3f 0902 063f 76cf 013e
000001f0: 34ba 343f 0a71 c63e 9afc 2c3f d513 233f
00000200: 210f 0b3f 9364 233f 0d64 163f ce6e 283f
00000210: df25 0e3f 1bf2 153e a14b db3d 9096 c3bc
00000220: 5628 0b3f 3415 8d3e c64a 1e3a 5291 b13e
00000230: c773 e23e 9334 6dbc 8ede 483f ceeb 0bbc
00000240: d2f8 113f e1d3 153f 7b34 70bd b003 31b9
00000250: 4b2d aa3e 90f9 4a3e e9b8 6e3c 954c 9b3f
00000260: 6a9b d23e 48dd 403c 5d01 463f 3e6e 9c3e
00000270: 01c4 6b3f ecfd 8d3e 3109 103f 21c3 1b3f
00000280: 60fc fd3e 290b a13b 1b1e 233f 413c bc3e
00000290: 5242 3e3f 8e46 a63e 28d2 633f 3d6d 383e
000002a0: 9288 7a3e 59d9 033f 7991 583f 8a53 e53e
000002b0: daec fc3e 1651 df3e bb5b 663f cddb 633e
000002c0: a9b5 4b3f 06ee ff38 fc34 863e ce46 d33e
000002d0: 3a98 eb3c 2289 383f ce21 cd3e 8967 263f
000002e0: 9a41 8bbc 77b6 45bc 1ab7 a33f 3764 b13e
000002f0: 6476 ce3e 3371 4a3f c24d a23d 9b4b 20bd
00000300: b40f 893e 3f14 433f c646 b2b9 d37d 3b3f
00000310: 07cd 613a 818a e63e becc 4a3d 6d01 3c3f
00000320: 36c2 30be f40a 423f 14b6 333c 916f 183f
00000330: 4779 243e 6268 283f a161 7f39 9865 e83e
00000340: 0a9f 143f 7138 473f 2ff0 e43e 91a5 5e3f
00000350: b1e6 ea3e de7c 3c3f 69c8 e13e 7aa0 a43e
00000360: c1a3 043f e81d c53e ac5c 5a3f 66ee 893e
00000370: a042 043f e4a6 bb3e ebb8 393f 6a18 93b9
00000380: 81c4 6e3d 094e 2f3f 2458 233b 2b51 283f
00000390: ec06 0a3f e269 023f 22ac 253f d6f5 243f
000003a0: 07b1 3b3f 2445 323f b402 373e 6086 113f
000003b0: 8a31 5a3d ee74 023f d5f0 0a3f 12b4 3a3e
000003c0: 3ab9 953e 5435 b83e 6f9a 023f cdae d03e
000003d0: 7166 2b3f 188a d63e 4e1f d53e 284e cd3e
000003e0: 7a83 313f 65ea b33e 4ff7 e43e 1e36 203f
000003f0: f64b f03e 1149 7d3e 3ff2 e13e d1a4 843e

bn2.bias f4 [300]
-0.0006082945 0.09196014 -0.0640457 0.005866195 -0.053791802 -0.08597935 0.036181822 -0.056090567
0.04864004 -0.16590883 0.0714955 0.10199304 -0.08602361 0.034021467 0.23888046 -0.100970216
-0.11187866 -0.1322116 -0.002054577 0.0010931445 0.090433046 -0.048796993 -0.051711 -0.0062064747
-0.039382927 -0.06610394 0.07253487 -0.04928509 0.007377557 -0.08410828 -0.061150823 -0.019105468
-0.030857606 0.0028256872 0.00773851 -0.024614735 -0.12609796 0.0058466364 -0.07921812 0.02505126
-0.09898066 0.13959286 0.06560041 0.04597311 0.003851004 0.021084333 -0.047278315 -0.11073904
-0.05854373 0.002164089 0.00237124 -0.04830139 0.037418086 -0.0035794922 -0.02059152 -0.047796533
-0.0071987733 0.039525565 -0.003921663 0.011640893 0.06714942 0.13825597 -0.00022943055 -0.06808824
-0.06332425 -0.022486215 0.0035644467 7.927006e-05 -0.064200595 0.021568038 0.00082897156 0.020865565
0.073797815 -0.09373179 0.07546477 -0.072078235 0.06781147 0.061479777 0.02282756 -0.12281642
0.29477766 -0.11073358 -0.02064029 -0.091659576 0.060138468 -0.0526817 -0.009513143 0.0016974693
0.055597365 -0.086394586 0.0028519244 -0.081514016 -0.10933586 -0.20313132 0.06277543 0.077730484
-0.0132768825 0.050675415 -0.15103388 -0.15087786 -0.09974976 -0.055868708 0.027974622 0.07875916
0.12943938 0.052908923 -0.003314306 -0.25429878 0.12184876 0.13103224 -0.059867118 -0.040190794
0.00055187376 -0.14108387 -0.25052762 -0.035941266 -0.018858854 -0.010065271 0.063915715 -4.726067e-06
-0.023208328 -0.061342187 -0.12806936 0.0831555 0.009629732 -0.118413806 -0.0063667516 -0.08123354
-0.07486867 -0.03322196 -0.107326165 0.07241313 0.008056557 -0.06634651 0.04306907 0.018249119
0.065665506 -0.023693573 -0.00071286084 -0.21070409 0.01734773 -0.016523099 0.18975206 -0.011643956
-0.13264252 -0.040890213 -0.0018834057 -0.0003090358 -0.031024763 -0.008341161 0.01253263 -0.045300618
0.024698853 -0.001128839 0.1913874 0.024656657 -0.018569482 0.112788245 -0.085145146 -0.0033848425
-0.12274878 0.002493346 -0.08236808 -0.12824751 -0.0402405 -0.057572175 -0.0635809 0.14491624
-0.32202247 0.035860486 0.11166754 -0.032469787 0.021385215 -0.019790605 -0.15655956 -0.31612647
0.23311156 0.00038889257 0.19568305 -0.18170348 0.0028115292 -0.10382499 -0.09682963 -0.026815454
-0.0037130986 0.000109782195 -0.0024816853 -0.20214483 0.024487685 0.016058149 0.09620148 -0.0008608246
0.050094612 -0.042455696 -0.00039210691 -0.05523482 0.00084582786 -0.054783832 0.07343818 0.03557652
-0.0006656759 0.07129188 -0.0103778085 -0.035876837 0.1973194 -0.043340396 0.000394607 -0.03530322
-0.091163844 0.09201835 -0.060884334 -0.08544469 -0.006418245 0.020715103 0.0809472 -0.02506799
0.15035935 -0.059618 0.07817712 -0.065120965 0.072647214 -0.0072608073 0.09818916 -0.00010916875
-0.07973486 -0.009738506 0.003094149 0.16661082 0.095512435 0.08411617 -0.15197156 0.005901965
-0.108268104 0.14787802 -0.32551795 0.10759121 -0.08043572 -0.10489643 -0.06979335 0.056363255
-0.16443624 -0.017175931 0.009297822 0.019982848 -0.09626959 -0.01454363 0.11622957 -0.0020098244
-0.16596042 -0.01671186 0.026746998 -0.011185358 -0.09065867 -0.040780425 -0.0068350425 -0.07349635
00000000: f475 1fba 9955 bc3d 642a 83bd 3639 c03b
00000010: cb54 5cbd f115 b0bd 6433 143d 39bf 65bd
00000020: c73a 473d 01e4 29be 3c6c 923d bae1 d03d
00000030: 252d b0bd 185a 0b3d 149d 743e 79c9 cebd
00000040: a420 e5bd 7a62 07be 15a6 06bb d847 8f3a
00000050: f634 b93d 5bdf 47bd eace 53bd af5f cbbb
00000060: fe4f 21bd 8161 87bd 298d 943d 2adf 49bd
00000070: 6fbf f13b f640 acbd 4979 7abd 1283 9cbc
00000080: 17c9 fcbc 2a2f 393b 5493 fd3b d7a4 c9bc
00000090: d31f 01be 2495 bf3b 1c3d a2bd 4d38 cd3c
000000a0: 5fb6 cabd 6ef1 0e3e 8259 863d 4d4e 3c3d
000000b0: 2061 7c3b 0db9 ac3c e8a6 41bd 26cb e2bd
000000c0: 8dcb 6fbd 63d3 0d3b ce66 1b3b aed7 45bd
000000d0: b543 193d ea95 6abb 8caf a8bc 4cc6 43bd
000000e0: b0e3 ebbb 8fe5 213d 4b81 80bb 72b9 3e3c
000000f0: a385 893d f992 0d3e 4b93 70b9 d971 8bbd
00000100: 25b0 81bd 0335 b8bc 7e99 693b ca3d a638
00000110: 9a7b 83bd 74af b03c 574f 593a 43ee aa3c
00000120: 4f23 973d 74f6 bfbd 468d 9a3d c19d 93bd
00000130: bde0 8a3d 38d2 7b3d dd00 bb3c 2d87 fbbd
00000140: 19ed 963e 4ac8 e2bd d315 a9bc 04b8 bbbd
00000150: c153 763d c4c8 57bd 04dd 1bbc 9e7d de3a
00000160: 10ba 633d a5ef b0bd 5ae7 3a3b d2f0 a6bd
00000170: 7beb dfbd a801 50be 6890 803d 2931 9f3d
00000180: 4887 59bc 0691 4f3d a0a8 1abe ba7f 1abe
00000190: 9a49 ccbd 96d6 64bd 092b e53c 7c4c a13d
000001a0: c28b 043e 07b7 583d d434 59bb 7333 82be
000001b0: d88b f93d 512d 063e 3937 75bd 1a9f 24bd
000001c0: 9fab 103a 4a78 10be 2845 80be 2637 13bd
000001d0: e27d 9abc cee8 24bc 3ee6 823d 9b94 9eb6
000001e0: 641f bebc f241 7bbd 9d24 03be 6e4d aa3d
000001f0: 06c6 1d3c f082 f2bd 2fa0 d0bb c55d a6bd
00000200: bf54 99bd c013 08bd d2cd dbbd 564d 943d
00000210: a6ff 033c aee0 87bd 3169 303d 2d7f 953c
00000220: a37b 863d 0619 c2bc 48df 3aba d0c2 57be
00000230: d41c 8e3c 735b 87bc 5d4e 423e 4bc6 3ebc
00000240: 71d3 07be 7f7c 27bd 9cdc f6ba 1506 a2b9
00000250: a527 febc 5da9 08bc a955 4d3c 248d 39bd
00000260: 4055 ca3c 8df5 93ba 0ffb 433e c2fc c93c
00000270: 071f 98bc 86fd e63d 9460 aebd 3cd4 5dbb
00000280: b663 fbbd 6867 233b 99b0 a8bd 5153 03be
00000290: 39d3 24bd cdd0 6bbd b436 82bd ec64 143e
000002a0: 21e0 a4be 72e2 123d f4b1 e43d 0aff 04bd
000002b0: 0c30 af3c e81f a2bc 2651 20be 54db a1be
000002c0: ccb4 6e3e 47e4 cb39 2361 483e 7a10 3abe
000002d0: a241 383b 32a2 d4bd 9d4e c6bd 15ac dbbc
000002e0: 7557 73bb de3a e638 c5a3 22bb 0eff 4ebe
000002f0: 669a c83c 618c 833c 4805 c53d f6a8 61ba
00000300: 0230 4d3d 06e6 2dbd b393 cdb9 e83d 62bd
00000310: 8cba 5d3a 0365 60bd c266 963d afb8 113d
00000320: c180 2eba 7a01 923d af07 2abc 97f3 12bd
00000330: 190e 4a3e b385 31bd 41e3 ce39 1c9a 10bd
00000340: 1cb4 babd 1e74 bc3d da61 79bd a0fd aebd
00000350: 2450 d2bb b8b2 a93c a5c7 a53d 635b cdbc
00000360: cdf7 193e 0132 74bd 531b a03d 245e 85bd
00000370: 10c8 943d 11ec edbb 6617 c93d 87f1 e4b8
00000380: 084c a3bd 418e 1fbc 35c7 4a3b 079c 2a3e
00000390: 069c c33d 1945 ac3d 6f9e 1bbe 4565 c13b
000003a0: abbb ddbd 566d 173e 4aaa a6be c858 dc3d
000003b0: 7cbb a4bd f1d3 d6bd d1ef 8ebd 28dd 663d
000003c0: f961 28be 8ab4 8cbc e455 183c 12b3 a33c
000003d0: fe28 c5bd 6848 6ebc c509 ee3d 42b7 03bb
000003e0: 87f1 29be 50e7 88bc 851c db3c cb42 37bc
000003f0: 41ab b9bd 6009 27bd 7ef8 dfbb 4185 96bd
