experiments/luna_v1/saves/target_q_network.pth (torch_old, 507906 bytes, 11 tensors)

fc1.weight f4 [400, 8]
0.1339626 0.11780293 0.10153331 -0.20827892 0.030990789 0.055990938 0.20038092 0.14392225
0.13492991 0.118486576 0.10208754 -0.20858198 0.031933922 0.057031706 0.20607966 0.14505748
-0.78270817 0.30865097 0.23984472 -0.7157856 0.19614567 -1.0420305 -0.47332337 0.11783183
0.1354177 0.118308716 0.10086148 -0.20918536 0.032226484 0.058007274 0.20351945 0.14452372
0.13486126 0.119914114 0.10179604 -0.20891073 0.032592926 0.05731634 0.20658755 0.1460136
0.13558829 0.120293476 0.10071849 -0.2077281 0.032586783 0.057425067 0.20549035 0.14253211
0.13510938 0.12044365 0.10199692 -0.20897917 0.031947836 0.05753212 0.20698221 0.14592937
-0.7440552 0.43121633 0.066998474 0.10883085 -1.0292166 -0.19961624 -0.24995433 -0.08656131
0.13554898 0.12058894 0.1022743 -0.2094674 0.032619804 0.05770647 0.2071737 0.14638862
0.13520183 0.11980544 0.10193218 -0.2089615 0.032693654 0.057631474 0.20663509 0.14590673
0.1338102 0.119569644 0.10179789 -0.20796439 0.03193375 0.057681985 0.20800246 0.14518973
0.13513945 0.11984797 0.10203602 -0.20946442 0.032571353 0.057406016 0.20664942 0.14629783
0.13482705 0.12005295 0.101244405 -0.20879108 0.032926396 0.058092643 0.20667262 0.14635368
0.13505104 0.1195092 0.101743 -0.20926252 0.032762777 0.05806771 0.20651409 0.14561416
0.13553265 0.120083384 0.102261536 -0.20929796 0.032634575 0.057609085 0.20714694 0.1466109
0.13490732 0.12073808 0.10230797 -0.2089304 0.03273136 0.057334445 0.20601635 0.14680345
0.5781925 0.13710445 -0.5844321 -0.45507294 -0.40947175 0.84625816 0.47016287 -0.6797845
0.13562839 0.12079902 0.102075115 -0.2092367 0.032345295 0.058012534 0.20628497 0.14287038
0.13500814 0.12027934 0.10200694 -0.20914432 0.032294072 0.05764536 0.20706391 0.14602461
0.13449037 0.11587084 0.101909414 -0.20897406 0.030378858 0.05642147 0.20555443 0.1459808
0.13541147 0.120292306 0.10234427 -0.20895374 0.03256191 0.05739284 0.20641159 0.14636119
0.13513261 0.120386764 0.10205823 -0.20936355 0.032625087 0.05749108 0.20739202 0.14680652
0.13122872 0.117993735 0.09841064 -0.20734125 0.034401525 0.05742532 0.20551132 0.14827263
0.13486898 0.11993346 0.102242805 -0.2097099 0.031653296 0.057250194 0.20583543 0.14498556
0.1349162 0.119977735 0.101858154 -0.20928086 0.03248476 0.05754338 0.20707871 0.14633018
0.13525823 0.11970815 0.10192154 -0.20905668 0.032337923 0.057495195 0.20691018 0.14627095
-0.28068322 0.6370753 0.22161567 -1.0654731 1.653732 0.37374398 -0.16850643 0.072105244
-0.30234036 0.1283213 -0.040673655 -0.20616008 0.2182239 1.1903362 -0.09521654 -0.16141815
0.13402455 0.11930589 0.10159454 -0.20846812 0.0323831 0.057249673 0.20651352 0.14724618
0.13354167 0.117835395 0.10145072 -0.20881997 0.030850546 0.055611063 0.20830563 0.14667587
0.13489997 0.12014612 0.10337497 -0.2091606 0.031964604 0.05716268 0.20451818 0.1424955
0.13338636 0.12016567 0.10074874 -0.20952916 0.03318008 0.05783126 0.2066518 0.14374214
00000000: 7e2d 093e aa42 f13d b2f0 cf3d 1247 55be
00000010: 65e0 fd3c c156 653d a830 4d3e 5b60 133e
00000020: 112b 0a3e 17a9 f23d 4613 d13d 8496 55be
00000030: 25cd 023d 149a 693d 8c06 533e f389 143e
00000040: 905f 48bf 8007 9e3e db99 753e ba3d 37bf
00000050: 69da 483e 4161 85bf 7157 f2be d151 f13d
00000060: f0aa 0a3e d74b f23d 7790 ce3d b034 56be
00000070: ebff 033d 0999 6d3d 6767 503e 07fe 133e
00000080: 1219 0a3e 8895 f53d 717a d03d b2ec 55be
00000090: 2980 053d 8ac4 6a3d b08b 533e 9784 153e
000000a0: a8d7 0a3e 6d5c f63d 7f45 ce3d adb6 54be
000000b0: b879 053d 8c36 6b3d 106c 523e f0f3 113e
000000c0: 1d5a 0a3e 29ab f63d c3e3 d03d a3fe 55be
000000d0: bcdb 023d cda6 6b3d 25f3 533e 826e 153e
000000e0: 677a 3ebf 63c8 dc3e 7f36 893d b5e2 de3d
000000f0: 5fbd 83bf 3368 4cbe 07f4 7fbe 0e47 b1bd
00000100: 5acd 0a3e 56f7 f63d 3075 d13d 9f7e 56be
00000110: 589c 053d 9f5d 6c3d 5825 543e e6e6 153e
00000120: 5972 0a3e 8e5c f53d d2c1 d03d 01fa 55be
00000130: c8e9 053d fb0e 6c3d 2698 533e 9368 153e
00000140: 8b05 093e eee0 f43d 6a7b d03d 9ef4 54be
00000150: f7cc 023d f243 6c3d 99fe 543e 9eac 143e
00000160: ff61 0a3e da72 f53d 43f8 d03d d77d 56be
00000170: 8a69 053d 9222 6b3d e89b 533e 19cf 153e
00000180: 1a10 0a3e 52de f53d 3a59 cf3d 54cd 55be
00000190: d4dd 063d 8df2 6d3d fda1 533e bddd 153e
000001a0: d24a 0a3e 3dc1 f43d a25e d03d ea48 56be
000001b0: 4332 063d 68d8 6d3d 6e78 533e e11b 153e
000001c0: 12c9 0a3e 47ee f53d 7f6e d13d 3452 56be
000001d0: d5ab 053d 81f7 6b3d 541e 543e 2b21 163e
000001e0: 2525 0a3e 8745 f73d d786 d13d daf1 55be
000001f0: 5211 063d 86d7 6a3d f3f5 523e a553 163e
00000200: 6c04 143f 1c65 0c3e 589d 15bf 52ff e8be
00000210: 48a6 d1be 60a4 583f 30b9 f03e 5b06 2ebf
00000220: 2be2 0a3e 7a65 f73d c20c d13d 2542 56be
00000230: 807c 043d 8d9e 6d3d 5e3c 533e 9d4c 123e
00000240: 933f 0a3e 0455 f63d 04e9 d03d ee29 56be
00000250: ca46 043d 8a1d 6c3d 9008 543e 7a87 153e
00000260: d8b7 093e b14d ed3d e2b5 d03d 4cfd 55be
00000270: 15dd f83c 331a 673d dc7c 523e fe7b 153e
00000280: 4ea9 0a3e d05b f63d df99 d13d f8f7 55be
00000290: a35f 053d c114 6b3d 8f5d 533e b5df 153e
000002a0: 3460 0a3e 568d f63d e803 d13d 6663 56be
000002b0: e2a1 053d c47b 6b3d 935e 543e 7354 163e
000002c0: d260 063e b3a6 f13d 858b c93d 4451 54be
000002d0: 9de8 0c3d d036 6b3d 8f71 523e c8d4 173e
000002e0: 181b 0a3e ad9f f53d ad64 d13d 31be 56be
000002f0: e3a6 013d 2e7f 6a3d 86c6 523e 1877 143e
00000300: 7927 0a3e e3b6 f53d 029b d03d b94d 56be
00000310: bd0e 053d 9bb2 6b3d 710c 543e 94d7 153e
00000320: 2281 0a3e 8c29 f53d 3ebc d03d f412 56be
00000330: c574 043d 1580 6b3d 43e0 533e 0dc8 153e
00000340: b6b5 8fbe 5e17 233f 38ef 623e 6c61 88bf
00000350: 7dad d33f 5f5b bf3e f38c 2cbe eaab 933d
00000360: 5bcc 9abe a966 033e 6b99 26bd a11b 53be
00000370: 1676 5f3e f05c 983f e400 c3bd cd4a 25be
00000380: bb3d 093e a556 f43d cc10 d03d ab78 55be
00000390: 24a4 043d a27e 6a3d 4878 533e b4c7 163e
000003a0: 26bf 083e af53 f13d 65c5 cf3d e7d4 55be
000003b0: 49ba fc3c 6dc8 633d 124e 553e 3332 163e
000003c0: 3823 0a3e 2b0f f63d 42b6 d33d 322e 56be
000003d0: 51ed 023d 6a23 6a3d 376d 513e 57ea 113e
000003e0: 6f96 083e 6b19 f63d 5b55 ce3d d08e 56be
000003f0: d6e7 073d 79e0 6c3d 889c 533e 2431 133e

fc1.bias f4 [400]
0.29750893 0.29941884 -0.55862814 0.3013643 0.2999914 0.2979542 0.3004402 0.040523376
0.3015782 0.30124432 0.296933 0.30139446 0.30012608 0.30090123 0.3017495 0.30050692
-0.21767488 0.30025864 0.30061802 0.2991405 0.3013761 0.30053133 0.29595488 0.29926342
0.30090147 0.30096555 0.18617864 0.29560095 0.29978842 0.29784334 0.29772553 0.29679143
0.05802557 0.015905371 0.30110893 0.29941472 0.2808701 -0.33819163 -0.97803056 0.20108865
0.29956794 0.300395 0.29827425 0.2995292 0.29970512 0.30023718 0.36543128 0.29838574
0.3010271 0.30147734 0.30069795 0.30011776 0.033602513 -0.5080675 0.29995427 0.30017093
0.30043176 -0.49556082 0.29376495 0.18539086 0.18873978 0.30172378 0.30000392 0.29911023
0.30099386 0.29925692 0.3014432 0.2815083 0.30180675 0.3018883 0.30093244 0.30052492
0.298034 0.30017266 0.12465252 0.3000742 0.29953617 0.2991147 0.3011537 0.036927365
0.29664585 0.30044952 0.29951563 0.3004574 0.29656294 0.30065477 0.29608297 0.2977373
0.29976764 0.297911 0.17841862 -0.07350071 0.29920503 0.29946175 0.30083966 0.30104527
0.29971814 0.30016905 0.30166984 0.2922767 0.30170536 0.29991177 0.3006223 0.28540015
0.30124804 0.29792255 0.29551375 0.30090442 0.26697993 0.115370534 0.30137137 0.29878542
0.30025333 0.29599568 0.2899524 0.30051842 0.30070245 0.29566863 -0.677919 0.30140227
0.0501672 -0.5156715 0.29901198 0.30095756 0.29956824 0.2991181 0.12911542 -0.42260212
0.30154797 -0.17739117 -0.3755783 -0.72332406 -0.015238195 0.35259992 -0.698829 0.29927182
-0.12455326 0.30151856 0.30048582 0.30113512 0.29967874 0.29968286 -0.70306545 0.30100936
0.30140203 0.08240475 0.30195636 0.29358938 0.3006805 0.298769 0.30008942 0.29377455
0.30040053 -0.16996211 -0.29983905 0.2966911 0.30034515 0.30040875 -0.73031914 -0.5578057
0.30017057 0.2989323 0.29909527 0.30106753 -0.03507299 -0.2135548 0.2997403 0.29964143
0.30161226 0.29717678 0.30054787 0.2985303 0.30128112 0.29958063 0.29907382 0.30108485
-0.36264926 0.3018414 0.2925176 -0.055486307 0.29171333 0.29976675 0.29937348 0.29723588
0.1257229 0.29862425 0.3000748 -0.33677614 -0.3036079 0.29940838 0.30092272 0.30051926
0.295164 0.29708833 0.298472 0.29873186 0.29573068 0.3012818 0.30029273 0.30159366
0.30072314 0.30029848 0.30142304 0.29950863 0.3012454 0.29941568 0.29226375 0.3009471
0.2936637 0.30012277 0.14632949 -0.3605764 -0.54257786 0.30153438 -0.22490692 0.30000433
0.3006708 0.2998642 0.07525009 0.30175823 0.29946616 0.29887614 0.30092695 0.29877123
0.3015681 0.29992697 0.30127496 -0.61022455 0.3008649 -0.27990824 0.2959369 0.29336092
0.29878852 0.29800105 0.37389857 0.29765117 0.30100965 0.30158395 0.30109027 0.29855683
0.299217 0.29962066 -0.23238257 0.29890925 0.29542407 0.30105144 -0.22148576 0.30058834
0.29841024 0.29709348 0.29990584 0.30040133 0.29777634 0.3007281 0.3004927 0.30098903
00000000: 1753 983e 6d4d 993e 4102 0fbf 6c4c 9a3e
00000010: 7998 993e 748d 983e 4cd3 993e d7fb 253d
00000020: 7568 9a3e b23c 9a3e 9a07 983e 6050 9a3e
00000030: 20aa 993e ba0f 9a3e e97e 9a3e 0bdc 993e
00000040: 2ae6 5ebe 80bb 993e 9bea 993e f228 993e
00000050: f84d 9a3e 3edf 993e 6687 973e 0e39 993e
00000060: c20f 9a3e 2818 9a3e 9da5 3e3e 0259 973e
00000070: de7d 993e ec7e 983e 7b6f 983e 0cf5 973e
00000080: 38ac 6d3d fb4b 823c f32a 9a3e e34c 993e
00000090: 35ce 8f3e 7427 adbe 3660 7abf 2fea 4d3e
000000a0: f860 993e 60cd 993e 67b7 983e e45b 993e
000000b0: f372 993e b0b8 993e cf19 bb3e 04c6 983e
000000c0: 3920 9a3e 3d5b 9a3e 15f5 993e 09a9 993e
000000d0: caa2 093d b610 02bf 9b93 993e 01b0 993e
000000e0: 31d2 993e 26ba fdbe 5c68 963e 1ad7 3d3e
000000f0: 0045 413e 8a7b 9a3e 1d9a 993e fa24 993e
00000100: de1b 9a3e 3438 993e c356 9a3e db21 903e
00000110: 6a86 9a3e 1a91 9a3e d113 9a3e 67de 993e
00000120: ea97 983e 3bb0 993e d249 ff3d 53a3 993e
00000130: ce5c 993e 9025 993e d130 9a3e 2641 173d
00000140: f7e1 973e 85d4 993e 1d5a 993e 8dd5 993e
00000150: 19d7 973e 6cef 993e 3098 973e 0671 983e
00000160: 257b 993e ca87 983e 5fb3 363e 8a87 96bd
00000170: 6731 993e 0d53 993e a807 9a3e 9b22 9a3e
00000180: a874 993e c2af 993e 7874 9a3e 4ba5 953e
00000190: 2079 9a3e 098e 993e 2beb 993e f81f 923e
000001a0: 2f3d 9a3e 4e89 983e 944d 973e 2510 9a3e
000001b0: 98b1 883e 6347 ec3d 594d 9a3e 67fa 983e
000001c0: ceba 993e bf8c 973e a474 943e 8ddd 993e
000001d0: acf5 993e e161 973e 198c 2dbf 6651 9a3e
000001e0: 1f7c 4d3d 0c03 04bf 1918 993e 1c17 9a3e
000001f0: 0261 993e 0226 993e d536 043e 4e5f d8be
00000200: 7f64 9a3e 08a6 35be cd4b c0be c42b 39bf
00000210: 9fa9 79bc fa87 b43e 75e6 32bf 283a 993e
00000220: c815 ffbd a460 9a3e 47d9 993e 622e 9a3e
00000230: 7e6f 993e 0870 993e 19fc 33bf e61d 9a3e
00000240: 5e51 9a3e d2c3 a83d 069a 9a3e 5951 963e
00000250: cbf2 993e 40f8 983e 52a5 993e 9e69 963e
00000260: 19ce 993e 8c0a 2ebe 8184 99be e5e7 973e
00000270: d7c6 993e 2dcf 993e 32f6 3abf 5bcc 0ebf
00000280: f5af 993e a80d 993e 0423 993e 8625 9a3e
00000290: b2a8 0fbd 1cae 5abe 9077 993e 9a6a 993e
000002a0: ec6c 9a3e 8e27 983e 69e1 993e f7d8 983e
000002b0: 8541 9a3e a262 993e 3420 993e cb27 9a3e
000002c0: 2aad b9be f58a 9a3e dec4 953e 9c45 63bd
000002d0: 735b 953e 077b 993e 7b47 993e 4d2f 983e
000002e0: 81bd 003e 47e5 983e 67a3 993e ec6d acbe
000002f0: 7f72 9bbe 0e4c 993e 8b12 9a3e a9dd 993e
00000300: bc1f 973e f61b 983e 52d1 983e 62f3 983e
00000310: 036a 973e 9c41 9a3e f8bf 993e 7c6a 9a3e
00000320: 62f8 993e b9c0 993e 1f54 9a3e 3259 993e
00000330: d63c 9a3e 034d 993e 98a3 953e bd15 9a3e
00000340: 175b 963e b1a9 993e 66d7 153e 789d b8be
00000350: 62e6 0abf b762 9a3e 004e 66be 2b9a 993e
00000360: 86f1 993e cd87 993e b81c 9a3d 0e80 9a3e
00000370: a153 993e 4b06 993e 1913 9a3e 8bf8 983e
00000380: 2267 9a3e 0790 993e b640 9a3e ad37 1cbf
00000390: f70a 9a3e 2250 8fbe 0b85 973e 6733 963e
000003a0: cffa 983e 9893 983e a26f bf3e bc65 983e
000003b0: f01d 9a3e 3669 9a3e 8128 9a3e 71dc 983e
000003c0: f832 993e e167 993e b2f5 6dbe a20a 993e
000003d0: d341 973e 6a23 9a3e 2acd 62be b7e6 993e
000003e0: 3ac9 983e a31c 983e 428d 993e 34ce 993e
000003f0: 2476 983e 09f9 993e 2eda 993e 3c1b 9a3e

bn1.weight f4 [400]
-0.026718894 -6.103208e-05 1.5333363 -0.0025001054 -1.5056163e-05 -0.007246703 -2.8281418e-12 0.9818441
-1.6525459e-09 -4.4907603e-15 -0.007105238 -0.00024808812 -0.011008044 -7.0027496e-16 -7.1666256e-07 -0.00994796
1.0081667 -9.5896205e-05 -8.976682e-16 -8.299527e-11 -0.004204288 -1.9388565e-08 -4.8499486e-12 -0.0007165719
-0.012228971 -5.7541444e-11 0.6962527 0.5829669 -0.0052017057 -5.439057e-20 -0.026722407 -0.019875767
0.65906096 1.2157905 -1.3967105e-19 -0.0028022954 0.6069378 1.3105661 2.0079646 0.95724887
-0.02410838 -0.010521699 -1.3393717e-09 -0.00014725448 -9.358824e-15 -8.509917e-05 0.7537449 -3.3669078e-11
-0.02298838 -3.4943047e-12 -5.7976825e-19 -1.732282e-14 0.97273797 0.7364029 -1.6904894e-09 -0.0060586277
-0.0002719416 1.3415954 -1.470258e-07 0.655403 0.63079375 7.088144e-13 -1.7112438e-06 -9.943728e-11
-7.2223807e-12 -0.010598586 -0.01458069 -0.014762399 -4.5074415e-07 -1.3059344e-13 1.2215421e-16 -0.0020969894
-4.9393715e-11 -5.278844e-07 0.8192091 -0.0030622783 -0.00014545216 -0.014563493 -6.329392e-08 0.9612623
-2.6271667e-19 -0.00044749505 -0.0075704954 -7.0873184e-20 -2.7711862e-05 -1.6298898e-14 -0.01044516 -6.4013833e-10
-0.0091781635 -0.0044975337 0.6889275 1.1241246 -0.024851423 -1.0945615e-06 -2.325963e-13 -2.6435505e-06
-0.023269162 -0.022809481 -2.363312e-10 -0.0049814014 -0.00036000623 -0.00026145062 -0.019883374 -0.0031501278
0.003096829 -5.858451e-11 -7.652312e-12 -9.134053e-17 0.7384336 1.4047107 -4.8128124e-15 -1.2675322e-06
-0.003674574 -0.010226232 -2.433197e-05 -2.0500882e-05 -0.004069351 -0.0008353117 1.1962028 -0.0010152828
1.2233474 1.4220849 -0.0075482787 -8.984321e-05 -0.00017955857 -0.003648607 1.0128319 0.6929229
-2.5475183e-17 0.66640514 1.6353638 1.7606134 1.1835895 1.2619982 2.2369044 -1.9294908e-05
0.9611963 -0.00015127663 -0.011569554 -0.001054656 -2.5965961e-14 -0.021334333 1.2248764 -1.6988675e-12
-1.3879314e-10 0.86467224 -4.2979296e-12 -0.0019246503 -0.0017158317 -0.0009989834 -0.014663388 -3.4862488e-08
-6.542974e-13 0.9873109 2.0354772 -0.0002453732 -0.013313902 -4.8142528e-11 1.4526348 1.0138903
-3.516371e-05 -1.7815732e-10 -0.0048014433 -4.879439e-12 0.84112406 1.0685906 -2.8870224e-09 -0.027005594
-1.4746359e-17 -0.00834153 -0.024011835 -1.0750087e-09 -4.2170235e-08 -0.0018959632 -0.004699166 -0.0005256742
1.0792495 -1.7653641e-13 -0.00018269311 0.5106724 -0.017932747 -0.022620061 -0.006697509 -0.005755212
0.37691888 -0.022884732 -0.00093048 0.994594 1.793454 -2.0836682e-10 -2.418206e-09 -5.70574e-06
-0.0025969923 -0.0016293707 -7.7156956e-16 -2.483698e-06 -0.0076421564 -6.011296e-12 -2.0030186e-15 -2.3305015e-14
-2.8794842e-18 -1.6794299e-15 -0.014191625 -3.65464e-08 -0.003899567 -3.271353e-12 -0.0071851285 -1.2804158e-09
-0.00013780945 -0.01450663 0.40214387 0.82891166 1.0450519 -7.914872e-14 1.0134945 -1.8687476e-12
-0.0036077264 -0.001534445 1.1918309 -0.017395962 -0.0026451165 -0.009709915 -2.724679e-15 -0.00972616
-1.2272269e-13 -0.0059955935 -3.8184026e-12 0.8218747 -8.6107337e-14 0.763921 -1.5164407e-07 0.004152678
-2.2730479e-11 -0.0060514933 0.6855886 -0.0040150024 -7.132671e-10 -1.6752054e-20 -0.001340188 -0.00078127655
-0.02472767 -4.933995e-05 0.73840874 -0.0059183403 -0.02493562 -2.3472998e-11 0.6956965 -0.0037207548
-0.00047964498 -0.027485859 -0.007915081 -2.3277084e-06 -0.00789128 -0.008213815 -1.0455549e-05 -9.683379e-13
00000000: 95e1 dabc b2fc 7fb8 5d44 c43f cfd8 23bb
00000010: ba99 7cb7 c075 edbb 4603 47ac 235a 7b3f
00000020: ca1f e3b0 f4cb a1a7 0ed3 e8bb d311 82b9
00000030: 155b 34bc 2cd7 49a6 ad60 40b5 c5fc 22bc
00000040: 9b0b 813f e21b c9b8 1c5e 81a6 2f82 b6ae
00000050: 20c4 89bb e88b a6b2 74a4 aaac 54d8 3bba
00000060: 065c 48bc e811 7dae 9e3d 323f 523d 153f
00000070: 1273 aabb 156d 809f f3e8 dabc 81d2 a2bc
00000080: 38b8 283f 069f 9b3f fce4 24a0 b7a6 37bb
00000090: 4760 1b3f a1c0 a73f 7e82 0040 430e 753f
000000a0: f07e c5bc 3463 2cbc f414 b8b0 5368 1ab9
000000b0: f597 28a8 4577 b2b8 6df5 403f 0314 14ae
000000c0: 2152 bcbc cce3 75ac 0d1e 2ba1 b407 9ca8
000000d0: 5b05 793f e784 3c3f cf56 e8b0 7487 c6bb
000000e0: 6293 8eb9 66b9 ab3f 25de 1db4 7ec8 273f
000000f0: b37b 213f 7683 472b e4ad e5b5 36aa daae
00000100: 6c1d feac b1a5 2dbc d9e3 6ebc fddd 71bc
00000110: cefd f1b4 ff08 13aa 8fd5 0c25 a56d 09bb
00000120: 613c 59ae f1b3 0db5 b0b7 513f 81b0 48bb
00000130: 8484 18b9 b89b 6ebc 33ec 87b3 4915 763f
00000140: 9f14 9ba0 c59d eab9 eb11 f8bb 3658 a79f
00000150: c576 e8b7 b3ce 92a8 2d22 2bbc bbf5 2fb0
00000160: 0260 16bc 0c60 93bb 8d5d 303f 51e3 8f3f
00000170: 3695 cbbc d9e8 92b5 a9f0 82aa da67 31b6
00000180: f89e bebc f3da babc a9ec 81af 063b a3bb
00000190: 38bf bcb9 4f13 89b9 75e2 a2bc 6072 4ebb
000001a0: 2bf4 4a3b 26d4 80ae f39e 06ad ef9d d2a4
000001b0: fc09 3d3f 8fcd b33f 5c66 ada7 1320 aab5
000001c0: 1fd1 70bb ed8b 27bc 821c ccb7 4ff9 abb7
000001d0: 3158 85bb d2f8 5aba 2c1d 993f 3d13 85ba
000001e0: a696 9c3f e106 b63f 8d57 f7bb 356a bcb8
000001f0: e347 3cb9 781d 6fbb 7aa4 813f 6563 313f
00000200: 93f7 eaa3 8799 2a3f 9a53 d13f c85b e13f
00000210: dc7f 973f 2889 a13f 7129 0f40 80db a1b7
00000220: f610 763f 03a0 1eb9 3a8e 3dbc 623c 8aba
00000230: 6ee1 e9a8 57c5 aebc c0c8 9c3f 2718 efab
00000240: cc9a 18af 295b 5d3f 4f38 97ac 8c44 fcba
00000250: c2e5 e0ba 52f0 82ba b53e 70bc b6bb 15b3
00000260: 192b 38ab 68c0 7c3f 4245 0240 6fa5 80b9
00000270: 8d22 5abc abbb 53ae f0ef b93f 28c7 813f
00000280: bf7c 13b8 d4e2 43af 6d55 9dbb 14ae abac
00000290: e853 573f 94c7 883f 0965 46b1 d63a ddbc
000002a0: db02 88a3 eaaa 08bc 78b4 c4bc 82bf 93b0
000002b0: aa1e 35b3 f881 f8ba 76fb 99bb 66cd 09ba
000002c0: d924 8a3f 28c3 46aa 4f91 3fb9 6dbb 023f
000002d0: b2e7 92bc b54d b9bc c776 dbbb 3896 bcbb
000002e0: 83fb c03e c378 bbbc 75eb 73ba b69d 7e3f
000002f0: e78f e53f 0c1a 65af 882d 26b1 ef73 bfb6
00000300: 4d32 2abb 9c90 d5ba c963 5ea6 9bad 26b6
00000310: 0e6b fabb f180 d3ac 2c55 10a7 b5e9 d1a8
00000320: eb77 54a2 0708 f2a6 fd83 68bc 31f7 1cb3
00000330: e18f 7fbb 7533 66ac 3a71 ebbb a0fa afb0
00000340: f180 10b9 37ad 6dbc cde5 cd3e 8e33 543f
00000350: 43c4 853f 213a b2a9 30ba 813f 5d80 03ac
00000360: 9b6f 6cbb 6e1f c9ba ea8d 983f fa81 8ebc
00000370: b159 2dbb 5616 1fbc 7555 44a7 795a 1fbc
00000380: 682c 0aaa af76 c4bb 1d59 86ac 6166 523f
00000390: 80e5 c1a9 5490 433f 9bd3 22b4 3013 883b
000003a0: 7df0 c7ad 9b4b c6bb bc82 2f3f 4890 83bb
000003b0: b60f 44b0 fb37 9e9e 3fa9 afba 95ce 4cba
000003c0: af91 cabc 5ef2 4eb8 5b08 3d3f a3ee c1bb
000003d0: c945 ccbc 7e78 cead 2a19 323f e8d7 73bb
000003e0: dc78 fbb9 062a e1bc 42ae 01bc ba35 1cb6
000003f0: 6d4a 01bc 3d93 06bc 3e6a 2fb7 0d48 88ab

bn1.bias f4 [400]
-0.0321022 -0.0031650327 -0.13290232 -0.0025854325 -0.0011985833 -0.008973825 -3.0822157e-08 -0.49506068
-2.7562521e-06 -5.286184e-11 -0.020960901 -0.0034349284 -0.011134791 -1.6746547e-11 -0.0003241134 -0.008052951
-0.11067226 -0.00076602475 -8.781197e-11 -8.190231e-07 -0.0042713517 -0.00014381706 -2.480956e-07 -0.00929403
-0.02613376 -5.056652e-07 -0.28213787 -0.79868805 -0.016365625 -1.890835e-15 -0.030915089 -0.02144626
-1.0360768 -0.5312458 -9.641935e-16 -0.008578885 -0.07137921 0.053868398 0.41362947 -0.46767572
-0.03515812 -0.012258913 -2.0271985e-08 -0.0039342865 -2.1020491e-10 -0.0023284582 -0.528366 -4.771921e-07
-0.033732247 -1.5700701e-08 -7.8749636e-15 -4.4579856e-10 -0.5219985 -0.6035538 -1.0536253e-05 -0.020269943
-0.0055982624 -0.33241573 -0.00014148772 -0.61352706 -0.49663052 -1.9666782e-08 -0.00024226756 -2.1455292e-06
-5.5078044e-07 -0.009437871 -0.014675753 -0.0024132484 -1.4175727e-05 -2.8192895e-10 -3.783232e-11 -0.004632506
-2.2118377e-06 -0.0005686269 -0.40644896 -0.0036157272 -0.0028239205 -0.03325751 -7.314416e-05 -0.04599251
-1.8476936e-14 -0.0068241744 -0.0029148571 -4.128006e-15 -0.001162335 -2.085446e-14 -0.012132768 -1.0220929e-09
-0.01625344 -0.006873464 -0.41410393 -0.2622979 -0.02832785 -3.4969305e-06 -1.0202698e-09 -0.0008429718
-0.029514747 -0.028224893 -2.602381e-07 -0.008916402 -0.006507735 -0.0036922828 -0.022621863 -0.0056949216
-0.007906899 -3.7572894e-07 -2.782868e-07 -1.5083979e-12 0.023257747 -0.39996606 -7.110818e-11 -0.0006194005
-0.012603278 -0.0072497125 -0.0042292336 -0.0012717528 -0.017207684 -0.0062489836 -0.6269316 -0.009818517
-0.37370276 -0.02889698 -0.007539039 -0.0037553145 -0.00456666 -0.014636438 -0.14690898 0.7576794
-5.5561187e-13 -0.2656511 -0.030198501 0.31453425 -0.10007309 -0.34742728 0.07537756 -0.0006175696
-0.24248475 -0.0046877367 -0.015537233 -0.006128221 -1.1996133e-09 -0.022760585 -0.102510154 -2.2465167e-11
-2.647379e-09 0.31017032 -8.760001e-09 -0.0062686754 -0.0038035952 -0.004256208 -0.012986092 -8.231605e-05
-1.3914103e-09 -0.6099122 -0.46704227 -0.007238014 -0.021475485 -2.824381e-08 0.039439674 0.18851645
-0.0019876428 -1.2116567e-06 -0.015306204 -6.3347e-08 -0.3095618 -0.37518427 -2.990168e-05 -0.038523857
-6.378991e-09 -0.017511172 -0.02545676 -1.7222594e-05 -0.0003998791 -0.012465077 -0.0094529325 -0.0054946775
-0.22120225 -1.3489492e-09 -0.0005487319 -0.41684213 -0.014223937 -0.032440737 -0.016610425 -0.005004269
0.0881808 -0.016973611 -0.010827723 -0.284411 -0.14800225 -4.0863835e-10 -3.759553e-08 -0.00045988377
-0.0067653665 -0.007722098 -1.076469e-11 -0.0006134351 -0.020904593 -5.2234203e-08 -4.4257327e-11 -7.919585e-10
-3.082699e-14 -3.260405e-11 -0.011822916 -9.968333e-08 -0.013098557 -3.415147e-08 -0.013868508 -1.0572921e-05
-0.002331975 -0.018548347 -0.40993655 -0.17638882 -0.025809985 -5.005766e-10 -0.16884632 -2.402782e-08
-0.005650925 -0.010351139 -0.08594079 -0.013869798 -0.008511866 -0.01538369 -1.8049312e-11 -0.012411892
-1.0791035e-09 -0.015109212 -6.9856454e-09 0.76754296 -1.3766393e-08 -0.09773392 -2.8038878e-05 -0.0077269934
-2.6127182e-07 -0.0166589 -0.103825934 -0.0033677006 -2.3087636e-09 -2.2461206e-13 -0.010772499 -0.006494272
-0.031009646 -0.00082499575 -0.20643373 -0.01694949 -0.03201636 -7.36999e-09 -0.40360218 -0.010474943
-0.009891787 -0.034284838 -0.02338455 -0.00041278632 -0.017478744 -0.016663762 -0.0013972932 -3.9990176e-09
00000000: 997d 03bd 706c 4fbb 8c17 08be 5c70 29bb
00000010: c819 9dba f306 13bc 5261 04b3 9878 fdbe
00000020: 0df8 38b6 247d 68ae 32b6 abbc 891c 61bb
00000030: b36e 36bc df4d 93ad c4ed a9b9 86f0 03bc
00000040: 23a8 e2bd 0dcf 48ba bf19 c1ae d7da 5bb5
00000050: b2f6 8bbb 99cd 16b9 0032 85b4 fd45 18bc
00000060: 7816 d6bc 0cbd 07b5 6074 90be d276 4cbf
00000070: 3411 86bc c03f 08a7 a441 fdbc 11b0 afbc
00000080: 2a9e 84bf baff 07bf 76f4 8aa6 748e 0cbc
00000090: 432f 92bd 1ca5 5c3d 3ec7 d33e 3173 efbe
000000a0: f601 10bd 9cd9 48bc 9122 aeb2 30eb 80bb
000000b0: 6c1f 67af 0c99 18bb ff42 07bf 6418 00b5
000000c0: d32a 0abd 35de 86b2 dcdc 0da8 9214 f5af
000000d0: b2a1 05bf 8082 1abf ddc4 30b7 270d a6bc
000000e0: a171 b7bb 6532 aabe 525c 14b9 1c10 1dbf
000000f0: 5b46 febe b6ef a8b2 3409 7eb9 e9fb 0fb6
00000100: 58d9 13b5 4da1 1abc 9272 70bc 9727 1ebb
00000110: 49d4 6db7 f9fd 9aaf 6863 26ae 47cc 97bb
00000120: 156f 14b6 e80f 15ba 141a d0be d6f5 6cbb
00000130: 8611 39bb 0739 08bd f964 99b8 a462 3cbd
00000140: ea6c a6a8 539d dfbb 3007 3fbb 23ba 94a7
00000150: 7e59 98ba 1cd7 bba8 84c8 46bc b279 8cb0
00000160: ef25 85bc cc3a e1bb 6e05 d4be e94b 86be
00000170: cf0f e8bc cfac 6ab6 8d39 8cb0 e1fa 5cba
00000180: e9c8 f1bc e437 e7bc dab6 8bb4 1a16 12bc
00000190: d63e d5bb 3afa 71bb 7c51 b9bc 779c babb
000001a0: f08b 01bc cbb7 c9b4 7267 95b4 c349 d4ab
000001b0: 0887 be3c 5ac8 ccbe 595e 9cae 445f 22ba
000001c0: fb7d 4ebc ff8e edbb 6295 8abb f1b0 a6ba
000001d0: 21f7 8cbc 46c4 ccbb 977e 20bf d8dd 20bc
000001e0: f855 bfbe 5cb9 ecbc 0b0a f7bb b91b 76bb
000001f0: eca3 95bb accd 6fbc 4f6f 16be 47f7 413f
00000200: 0e64 1cab 6c03 88be d962 f7bc a20a a13e
00000210: 1ff3 ccbd fde1 b1be 8d5f 9a3d 65e4 21ba
00000220: ec4d 78be 969b 99bb e18f 7ebc 3ecf c8bb
00000230: a4df a4b0 6874 babc d8f0 d1bd 0f9b c5ad
00000240: 2fed 35b1 a5ce 9e3e e47e 16b2 7669 cdbb
00000250: bd45 79bb a977 8bbb 9ec3 54bc 18a1 acb8
00000260: e63b bfb0 3523 1cbf 2a20 efbe dd2c edbb
00000270: 5bed afbc cc9c f2b2 7f8b 213d 750a 413e
00000280: 1d43 02bb 35a0 a2b5 dfc6 7abc 6209 88b3
00000290: e27e 9ebe 2718 c0be 5ed5 fab7 31cb 1dbd
000002a0: 332e dbb1 9773 8fbc b28a d0bc 3d79 90b7
000002b0: dda6 d1b9 533a 4cbc 79e0 1abc b20c b4bb
000002c0: d882 62be ee65 b9b0 c6d8 0fba 556c d5be
000002d0: 840b 69bc 94e0 04bd 9612 88bc dafa a3bb
000002e0: 2398 b43d 3e0c 8bbc c366 31bc 529e 91be
000002f0: e78d 17be bca6 e0af b978 21b3 8e1c f1b9
00000300: 02b0 ddbb a709 fdbb db5f 3dad efce 20ba
00000310: 1c40 abbc 1d58 60b3 52a5 42ae 20b1 59b0
00000320: 1ad5 0aa9 e664 0fae e7b4 41bc 7d11 d6b3
00000330: 549b 56bc f0ad 12b3 bd38 63bc 5a62 31b7
00000340: 0cd4 18bb b4f2 97bc 34e3 d1be 459f 34be
00000350: 766f d3bc f298 09b0 0de6 2cbe bc65 ceb2
00000360: 652b b9bb d397 29bc ba01 b0bd 263e 63bc
00000370: 5b75 0bbc df0b 7cbc 70c3 9ead 405b 4bbc
00000380: 944f 94b0 a18c 77bc 6306 f0b1 b27d 443f
00000390: 3d81 6cb2 b928 c8bd 0835 ebb7 b832 fdbb
000003a0: ed44 8cb4 3f78 88bc b1a2 d4bd a4b4 5cbb
000003b0: 33a8 1eb1 05e4 7caa 237f 30bc e7cd d4bb
000003c0: f107 febc 8744 58ba 5d63 53be a8d9 8abc
000003d0: 9623 03bd 1e3b fdb1 f2a4 cebe 189f 2bbc
000003e0: 2911 22bc 426e 0cbd f590 bfbc 3e6b d8b9
000003f0: 952f 8fbc 7182 88bc 6125 b7ba bb67 89b1

fc2.weight f4 [300, 400]
0.00013389045 6.0951476e-20 0.063700475 -0.0019597306 2.0716831e-21 0.00785336 -1.30746595e-23 -0.030276775
2.9451952e-16 -4.4570646e-30 2.7132555e-15 -5.343424e-17 -0.00055121846 8.1887147e-29 -2.1213813e-16 0.0016875804
-0.022220196 -8.2156805e-07 -6.968937e-30 -1.575145e-27 0.0034157073 4.6880457e-21 -2.9705147e-19 -2.050645e-17
2.09751e-06 2.1418283e-18 -0.0060283463 -0.06512889 3.6305656e-10 3.569463e-33 6.7352385e-06 2.093367e-08
0.026011856 -0.031354267 -1.5403092e-21 1.7116061e-07 0.06571111 0.028761888 -0.071863934 0.04680857
6.652e-08 -0.0019169046 -1.7253957e-13 -1.4080533e-18 2.300735e-25 -2.1363621e-16 0.006070704 -1.2834727e-28
1.4553059e-07 -5.869169e-20 -1.2958432e-30 -2.9304928e-28 0.08622818 0.055982 2.3916914e-26 -8.9487556e-10
-8.6057503e-19 0.0035211865 1.1655225e-26 0.079533376 0.08664167 1.5057045e-25 7.192581e-24 -1.9457055e-22
3.040857e-22 -2.7462069e-05 5.493985e-05 -4.5973794e-14 -3.825741e-10 1.4315748e-18 9.533723e-28 3.208026e-15
-1.0059365e-27 -1.3648885e-19 0.034415614 0.003722262 2.7451664e-19 5.1627868e-08 -5.303527e-20 0.039823737
8.935061e-36 5.050053e-11 -4.0206377e-10 2.1502302e-33 5.2755507e-21 -1.7656471e-15 -1.5624727e-07 -1.4181029e-10
-7.599549e-05 -1.3795551e-13 0.10410359 0.04289113 9.634878e-07 -9.455186e-10 -8.039044e-21 -2.3709513e-18
-2.0217134e-05 4.9484497e-05 1.35619114e-14 0.00021685737 1.6888613e-09 2.87412e-14 3.5042955e-05 -2.2341621e-07
-8.948081e-06 -2.5909605e-29 1.9472937e-28 2.9935377e-32 -0.0147101255 0.024286048 1.6566644e-28 -6.144898e-10
4.8769586e-11 -1.2309903e-10 -1.3643488e-24 9.4557555e-18 3.5227656e-14 -2.3472891e-20 0.051010463 -2.7588154e-10
0.047530554 0.09282769 -9.662532e-12 -1.028728e-19 3.803615e-19 -3.067668e-08 -0.0023913584 0.05096791
2.8681634e-31 0.012291181 0.03568082 0.07383102 0.015265629 -0.10279673 -0.15571736 1.1577591e-22
0.13051419 5.111742e-18 -0.00015692857 2.1838803e-06 2.4457888e-28 -0.00014347042 -0.06319679 -8.6436095e-15
2.559885e-15 0.06191225 5.6413965e-22 2.205213e-06 2.4297933e-12 2.6970358e-18 5.5956385e-12 1.0363446e-26
2.1920862e-17 0.00797399 0.1268578 2.4085193e-15 -2.8686105e-07 1.5414365e-09 0.036545884 -0.10267251
-6.7342745e-20 -1.9449641e-26 1.5212247e-05 -2.8822152e-26 0.103161484 -0.1547958 2.5266472e-17 -7.2690436e-09
-1.6200135e-26 -3.5616029e-07 -0.009432631 2.5176257e-25 1.2513054e-20 1.7156783e-16 -0.0010380221 -8.819188e-09
0.0021837978 -6.147307e-22 2.284661e-22 -0.045924675 8.146929e-06 6.7481456e-06 -3.2020256e-10 -4.688284e-10
-0.0663075 0.0018423647 -4.5686125e-16 -0.033052526 -0.016908137 2.47852e-12 -8.354254e-12 2.375209e-10
-2.7250177e-10 0.0070302817 4.8042265e-37 2.917746e-24 -7.4954135e-14 5.2679702e-23 -2.732842e-29 -1.612274e-24
-1.844878e-31 1.6692425e-29 -3.7836685e-08 -2.6183058e-10 8.843072e-11 1.6192748e-29 -5.2787352e-09 6.6179957e-22
-2.7002456e-22 -3.8969898e-05 0.0015677131 0.06442924 0.060522232 -1.4442017e-23 -0.03127037 5.504368e-26
-1.2722563e-06 1.410046e-13 0.052772973 2.4999536e-06 -0.00012436505 -1.6548677e-11 1.5920687e-27 -1.1371833e-07
-1.498904e-25 2.8714187e-06 -6.801087e-17 -0.04722953 1.8850195e-30 0.06432202 -2.669064e-27 -0.0030593064
2.2339994e-29 4.080846e-13 -0.0321061 1.498145e-11 -4.415904e-20 3.142992e-36 -4.3254435e-13 5.9759725e-22
-0.00022662898 -5.711011e-20 -0.0069109295 1.0991106e-13 6.1124665e-05 9.028794e-16 0.03538193 3.3303847e-15
1.9608591e-17 2.0595943e-11 1.532874e-12 4.2843245e-22 6.44316e-13 -1.6604364e-08 1.4804463e-10 -1.4485327e-17
00000000: f264 0c39 e8ea 8f1f 6575 823d d36e 00bb
00000010: 2e88 1c1d 61ab 003c 94e6 7c99 0007 f8bc
00000020: 69c7 a925 cecc b48e bb82 4327 046c 76a4
00000030: a57f 10ba cc9b cf10 2094 74a5 cd31 dd3a
00000040: 2107 b6bc ba89 5cb5 ca58 0d8f 7997 f992
00000050: 0fda 5f3b ff1b b11d 2659 afa0 7c23 bda3
00000060: f3c2 0c36 fe09 1e22 6f89 c5bb 4c62 85bd
00000070: ab97 c72f 0b45 9409 42ff e136 a1d1 b332
00000080: d116 d53c 556d 00bd d3c3 e89c 45c8 3734
00000090: 8c93 863d 0d9e eb3c 662d 93bd 58ba 3f3d
000000a0: c2d9 8e33 a540 fbba 2543 42aa c0ca cfa1
000000b0: 9a68 8e16 484e 76a5 c2ec c63b 12b3 2291
000000c0: 2543 1c34 f394 8a9f 3843 d28d f7bd b991
000000d0: 6698 b03d 624d 653d 95dc ec14 45fb 75b0
000000e0: 36ff 7da1 b5c3 663b 03db 6614 65e2 a23d
000000f0: 3071 b13d ae65 3a16 f01f 0b19 ab38 6b9b
00000100: fcce b71b 585e e6b7 376f 6638 2d0c 4fa9
00000110: 8552 d2af 5e43 d321 6011 9712 a229 6727
00000120: a265 9f92 3923 21a0 63f7 0c3d 32f1 733b
00000130: c80b a220 71bd 5d33 b573 7a9f 371e 233d
00000140: 1907 3e05 8b1a 5e2e 7209 ddaf 57a2 3209
00000150: ff4d c71d e174 fea6 ecc4 27b4 0cec 1baf
00000160: c55f 9fb8 f852 1baa 4334 d53d 9cae 2f3d
00000170: 3051 8135 7af3 81b0 6eda 179e 01f2 2ea2
00000180: f797 a9b7 938d 4f38 474f 7428 3564 6339
00000190: 861d e830 5970 0129 16fb 1238 2ee4 6fb4
000001a0: b71f 16b7 9760 0390 4bd9 7611 f16e 1b0b
000001b0: bd02 71bc 89f3 c63c d501 5211 e0e8 28b0
000001c0: ac7d 562e 4c59 07af 6d1f d397 8b6d 2e23
000001d0: b9a6 1e29 f8b1 dd9e 59f0 503d e0aa 97af
000001e0: 66af 423d 721c be3d 2dfc 29ad cbe6 f29f
000001f0: 9b86 e020 5ec1 03b3 56b8 1cbb bac3 503d
00000200: 8a27 ba0c f360 493c 0d26 123d b834 973d
00000210: b01c 7a3c 1887 d2bd 5f74 1fbe e9f6 0b1b
00000220: 83a5 053e 0a97 bc22 318d 24b9 c78e 1236
00000230: 3105 9b11 8c70 16b9 526d 81bd 9db5 1ba8
00000240: 8b75 3827 b397 7d3d 3180 2a1c 45fd 1336
00000250: 44fb 2a2c 9101 4722 08e1 c42c ea44 4d14
00000260: 2c2f ca23 57a5 023c 03e7 013e 578d 2d27
00000270: e201 9ab4 7ada d330 23b1 153d f745 d2bd
00000280: 3102 9f9f b39e c094 1a38 7f37 6bb8 0e95
00000290: 5446 d33d ca82 1ebe c50a e923 2fc3 f9b1
000002a0: 3970 a094 4c36 bfb4 528b 1abc 5fd5 9b16
000002b0: 6b5d 6c1e e3cd 4525 3e0e 88ba 3383 17b2
000002c0: 0c1e 0f3b 7cca 399c 6b19 8a1b 831b 3cbd
000002d0: cbae 0837 216e e236 8108 b0af dede 00b0
000002e0: 3acc 87bd 807b f13a 69ae 03a6 1662 07bd
000002f0: ef82 8abc 0c69 2e2c 37f8 12ad 1894 822f
00000300: 37cf 95af 475e e63b b77a 2303 eabf 6118
00000310: 1ec8 a8a9 50be 7e1a 5192 0a90 c17c f997
00000320: 967a 6f8c 0348 a90f e081 22b3 61f1 8faf
00000330: 1276 c22e c736 a40f 3f60 b5b1 4304 481c
00000340: 4738 a39b 9c73 23b8 b97b cd3a 7af3 833d
00000350: 29e6 773d b4ac 8b99 5c15 00bd 1448 8815
00000360: 65c2 aab5 cfc1 1e2a 7928 583d e0c4 2736
00000370: fd67 02b9 4f90 91ad fb45 fc12 5035 f4b3
00000380: 2a8e 3996 99b2 4036 88d2 9ca4 c073 41bd
00000390: 53ee 180e 43bb 833d 0d77 5393 a57e 48bb
000003a0: f18d e20f 30bb e52a b081 03bd 3ac7 832d
000003b0: 0189 509f 27b0 8504 3680 f3aa d99c 341c
000003c0: 41a3 6db9 f1d8 869f 1475 e2bb 6a7f f729
000003d0: 0e30 8038 5f1e 8226 a5ec 103d c1fa 6f27
000003e0: 7adb b423 f129 b52d 9bbb d72b 5b7c 011c
000003f0: dc5b 352b 62a1 8eb2 dcc6 222f 839a 85a3

fc2.bias f4 [300]
0.04114982 -0.008810232 0.008019434 0.24010801 -0.0061526443 -0.0076796827 0.3913308 -0.022956578
0.10518416 -0.015522689 -0.050586183 0.24042106 -0.0052285744 0.33941647 -0.010247163 0.17473254
-0.007225866 -0.008448487 -0.0037168204 -0.043825798 0.6593748 -0.003688736 -0.021455929 0.044524975
-0.022960765 -0.0101267 -0.0149049945 0.0135159325 0.22319461 -0.018111147 -0.41669062 0.18806429
0.5356656 -0.002592089 0.034581553 -0.018853692 0.049996153 -0.46863955 -0.009737223 -0.008142546
0.010261717 0.18033107 0.25497067 -0.042524174 -0.002342516 -0.04522054 -0.52698445 -0.00017312555
0.22225909 0.0072900644 -0.030140094 -0.008384517 -0.0062070643 -0.027542002 -0.05193274 0.015273547
0.047746077 0.030214688 -0.016775612 -0.045135543 0.10830789 -0.009962088 -0.3946072 -0.0118051125
-0.0013506409 0.08214387 -0.028755005 -0.03525876 0.10811717 -0.0014422802 0.12284796 0.13507266
0.8912466 0.16502766 -0.0043438063 -0.01757415 0.022786934 -0.02584124 -0.012013117 0.11879524
-0.028294286 -0.004396185 -0.0044507124 -0.0061803716 -0.010043208 -0.017443305 0.027214909 0.334985
-0.04359234 -0.014000869 -0.032401655 0.005861238 -0.0037543648 -0.04641877 -0.013604297 -0.0033445521
0.13556519 0.17065269 0.016672138 -0.016021807 0.21945669 -0.0022603923 -0.03327573 -0.0042534256
-0.0049788314 -0.019636735 0.012916106 -0.03896122 -0.0050330525 -0.028095255 -0.017347861 -0.020793723
-0.003972771 -0.01955191 0.0006176008 -0.017070306 0.00084072497 -0.00306246 -0.0078074853 -0.0032641008
0.003440472 -0.02014437 0.044486523 -0.0034492952 0.051501185 -0.0011605461 0.3051129 -0.013000393
-0.04398625 0.19693281 0.0144034885 -0.043058157 -0.034250937 0.034336295 -0.011798098 0.0513873
-0.04160366 -0.027996406 -0.008178215 -0.041124545 0.018946605 0.033449322 0.15097558 0.018192932
0.55998844 -0.021110786 -0.03480605 -0.006445053 -0.040530607 0.006362865 0.010022215 -0.008948747
-0.00848326 -0.0016624527 0.42109746 -0.0039763027 0.2201838 -0.018603941 -0.009705809 -2.9300561e-05
-0.39720252 -0.010132526 -0.008769412 0.007820876 -0.01316996 -0.009310346 -0.11777142 0.0009319967
-0.012861253 0.0025352691 -0.0044477587 -0.03343367 -0.04647452 6.929164e-05 -0.0008709037 -0.009837622
-0.002230401 -0.007261162 0.11598345 -0.008415528 0.0007437854 0.10768407 0.1975132 0.2288975
-0.013006393 -0.010055343 -0.0024547675 -0.00867437 -0.050701294 -0.0033668685 0.023323204 -9.337796e-05
-0.021442885 -0.014018478 -0.011515897 -0.04247755 -0.021277167 -0.01032248 0.31472972 0.030319247
-0.005023129 -0.011920001 -0.021107836 -0.023599636 0.0016910287 -0.013732809 0.38081688 -0.00038698816
-0.017224198 -0.14501962 -0.00915031 0.20876125 0.009068448 -0.39500254 0.118229255 0.26667467
0.2445986 -0.00709648 0.21363764 -0.006089154 -0.040550254 -0.010521542 -0.0006593115 -0.0062859645
0.086121425 -0.0057617887 -0.012199071 -0.016503949 0.20833194 -0.035524786 0.22163612 0.0066068606
-0.016510416 -0.020253275 0.2468428 -0.0071667377 0.0020584383 -0.0141049735 0.1797383 -0.029881299
-0.04202235 -0.19488609 -0.04032834 -0.015732368 0.0025462087 -0.010107668 -0.030557737 0.006733094
0.042148042 0.015318864 -0.040028144 -0.012556952 -0.016524768 -0.0016107793 -0.02302088 -0.013925404
00000000: b78c 283d cb58 10bc f263 033c e0de 753e
00000010: 1f9c c9bb d9a5 fbbb 835c c83e 6f0f bcbc
00000020: cb6a d73d e052 7ebc 7533 4fbd f030 763e
00000030: 7654 abbb ffc7 ad3e b7e3 27bc 16ed 323e
00000040: f5c6 ecbb 866b 0abc e695 73bb ae82 33bd
00000050: c9cc 283f b8be 71bb 58c4 afbc d25f 363d
00000060: 3718 bcbc 75ea 25bc 1434 74bc ee71 5d3c
00000070: 218d 643e d45d 94bc 7958 d5be ed93 403e
00000080: 6121 093f 09e0 29bb 63a5 0d3d 0f73 9abc
00000090: c4c8 4c3d 86f1 efbe e088 1fbc 5068 05bc
000000a0: c320 283c b5a8 383e 848b 823e d42d 2ebd
000000b0: e684 19bb 2c39 39bd 74e8 06bf 0989 35b9
000000c0: e397 633e 7ee1 ee3b 5ce8 f6bc 375f 09bc
000000d0: a164 cbbb c49f e1bc 6db7 54bd e63d 7a3c
000000e0: 6491 433d cb84 f73c 026d 89bc 0ce0 38bd
000000f0: 87d0 dd3d 0738 23bc f409 cabe 3b6a 41bc
00000100: fd07 b1ba 0c3b a83d 9e8f ebbc 7d6b 10bd
00000110: 896c dd3d e50a bdba b697 fb3d 7d50 0a3e
00000120: bd28 643f 03fd 283e 7d56 8ebb aaf7 8fbc
00000130: aaab ba3c 02b1 d3bc aad2 44bc eb4a f33d
00000140: 6bc9 e7bc df0d 90bb 48d7 91bb b784 cabb
00000150: 448c 24bc 43e5 8ebc cdf1 de3c 2783 ab3e
00000160: e28d 32bd e763 65bc 99b7 04bd a10f c03b
00000170: ca0b 76bb 9c21 3ebd 8fe4 5ebc 4630 5bbb
00000180: 9ad1 0a3e 94bf 2e3e 0294 883c 2a40 83bc
00000190: 41b9 603e 1723 14bb 224c 08bd 5260 8bbb
000001a0: 7725 a3bb 38dd a0bc 139e 533c cd95 1fbd
000001b0: 4eec a4bb 0528 e6bc 1a1d 8ebc 9957 aabc
000001c0: 052e 82bb 542b a0bc 7de6 213a 07d7 8bbc
000001d0: 1964 5c3a 8eb3 48bb efd5 ffbb 86ea 55bb
000001e0: 8b79 613b ce05 a5bc 8037 363d 920d 62bb
000001f0: e8f2 523d 771d 98ba c237 9c3e 9aff 54bc
00000200: ed2a 34bd c1a8 493e 9cfc 6b3c c05d 30bd
00000210: b64a 0cbd 37a4 0c3d cf4c 41bc 7d7b 523d
00000220: 9968 2abd b858 e5bc ebfd 05bc 3672 28bd
00000230: e935 9b3c 2802 093d 5899 1a3e 5809 953c
00000240: 675b 0f3f 87f0 acbc ca90 0ebd 0631 d3bb
00000250: 6c03 26bd 957f d03b 3734 243c c49d 12bc
00000260: 5ffd 0abc a8e6 d9ba 169a d73e a54b 82bb
00000270: dd77 613e 4b67 98bc 1d05 1fbc 7aca f5b7
00000280: 215e cbbe e502 26bc 94ad 0fbc 2223 003c
00000290: d1c6 57bc 6c8a 18bc 2432 f1bd 3d51 743a
000002a0: 01b8 52bc c226 263b 81be 91bb bef1 08bd
000002b0: 115c 3ebd aa50 9138 5c4d 64ba fa2d 21bc
000002c0: eb2b 12bb 0bef edbb bb88 ed3d 48e1 09bc
000002d0: 98fa 423a 7789 dc3d e640 4a3e 1b64 6a3e
000002e0: c418 55bc 2abf 24bc 2ae0 20bb f21e 0ebc
000002f0: 29ac 4fbd aea6 5cbb 4e10 bf3c e9d3 c3b8
00000300: fda8 afbc c2ad 65bc 2cad 3cbc f1fc 2dbd
00000310: 744d aebc 9f1f 29bc 4124 a13e 1260 f83c
00000320: 0f99 a4bb 1c4c 43bc 57ea acbc 0654 c1bc
00000330: 82a5 dd3a 93ff 60bc 6efa c23e ace4 cab9
00000340: c319 8dbc 0680 14be 2feb 15bc 82c5 553e
00000350: d493 143c c63d cabe 2e22 f23d 9589 883e
00000360: 0e78 7a3e 9789 e8bb d3c3 5a3e 8787 c7bb
00000370: 0618 26bd 8c62 2cbc a5d5 2cba 7efa cdbb
00000380: 6e60 b03d 63cd bcbb 9dde 47bc 4a33 87bc
00000390: f854 553e 7082 11bd 94f4 623e 5d7e d83b
000003a0: da40 87bc 32ea a5bc 5cc4 7c3e f4d6 eabb
000003b0: dde6 063b 8c18 67bc 510d 383e a0c9 f4bc
000003c0: a11f 2cbd 3890 47be 542f 25bd 2be1 80bc
000003d0: 4bde 263b a29a 25bc 3854 fabc 49a1 dc3b
000003e0: 6da3 2c3d f9fb 7a3c 8df4 23bd adbb 4dbc
000003f0: f35e 87bc c920 d3ba 4996 bcbc 6127 64bc

bn2.weight f4 [300]
0.005653965 -4.0881493e-10 2.7770686 -1.2068554e-09 0.00020741545 1.2257374e-07 2.1168108 2.6177123e-11
2.429677 3.4403605e-10 1.4665693e-05 4.3093965e-05 -2.874931e-20 -0.01566214 6.1020416e-14 -4.0213607e-08
6.393701e-12 1.5141247e-10 7.9568696e-07 8.447261e-08 2.1945503 1.26358e-06 0.01969782 -1.895483e-07
6.81879e-06 1.9462117e-08 1.11258405e-10 -6.442079e-06 -0.014762035 3.353971e-10 2.324257 -8.476713e-07
2.2852898 0.92974967 -2.0038019e-13 2.4929715e-12 2.5552022 2.0896058 8.847302e-08 0.00081951247
1.5971657e-12 -0.002724644 -1.0297198e-09 -1.2383779e-08 5.390419e-08 2.6108997e-05 2.5756037 -3.8632603e-05
2.8129113e-10 5.6583787e-07 3.7470475e-11 -4.5535173e-11 1.1170653e-15 1.5594606e-09 2.4743505 2.8510333e-11
2.643099 7.448662e-11 9.5016755e-12 -8.489703e-12 -1.420915e-08 0.00012515196 3.1062598 -9.482647e-09
1.0331133e-11 2.2850827e-12 0.0021482357 1.4487652e-08 -2.601857e-07 8.7211123e-07 -9.9361e-07 -0.0012510213
1.0218823 -1.6551815e-11 1.1802553e-05 5.5573135e-10 0.00022649187 4.318641e-07 1.765347e-07 -6.592759e-06
1.775619e-07 3.0688792e-05 0.00012322984 3.4283414e-09 1.6247411e-07 2.1241081e-05 0.00019899801 -2.4557361e-05
1.3795255e-09 0.00040467212 0.0019835334 5.120605e-07 1.341893e-09 1.02610065e-11 8.573559e-11 9.0881594e-11
-3.3500243e-09 -9.174416e-12 2.6145134e-12 5.2055413e-09 -5.3543175e-07 4.389861e-09 9.72397e-08 8.194296e-05
3.0114587e-12 5.2736937e-06 9.77292e-05 2.0111372e-06 -2.8256287e-05 1.0649846e-06 0.08107283 2.0701313
2.0586752e-16 4.3825884e-11 1.9436532e-11 -1.2063984e-05 -4.888868e-08 0.00011767067 1.2216432e-09 5.230598e-08
5.5528973e-05 2.2697881e-10 8.401094e-15 0.007877615 2.4852712 1.1047966e-10 -0.2824654 5.7291395e-06
7.568824e-06 -5.176917e-10 9.488125e-12 1.0780197e-10 3.011918e-05 -1.4118696e-05 2.3128112e-07 2.8394263
4.9477763e-05 0.0018502215 1.7912653e-06 2.882848e-12 -0.0002474512 -0.005719232 0.68744546 -8.166318e-14
-2.1035275 3.5319345e-11 1.2792468e-06 8.5869845e-09 -9.416768e-12 0.001026189 2.0291529e-05 1.3867e-09
4.5702137e-07 -0.0008004667 2.2211459 3.567713e-13 6.6045374e-08 8.732877e-05 9.482331e-16 5.9837015e-07
2.6854117 3.4645196e-11 2.2138727e-06 0.00044707136 0.00016645584 -7.738686e-05 2.3194878 0.0016349198
2.1871406e-06 -2.0237516e-09 1.3597206e-08 2.089949e-09 -5.994356e-08 -5.1970945e-12 4.4375328e-15 8.3479756e-13
-0.0013017998 2.6686004e-07 -9.614292e-10 9.0886647e-07 2.730927e-05 2.3354416 4.825128e-13 -0.00010572133
9.280275e-05 2.1726533e-12 -7.5248537e-13 4.868477e-07 -5.373221e-16 2.2330597e-07 7.218197e-12 4.4000152e-13
1.7518175e-07 -1.343212e-05 8.465215e-07 4.7874448e-08 1.2111868e-06 6.122059e-12 0.0011123463 -3.6847695e-13
-2.5713112e-15 0.0002783589 8.70787e-07 -3.3057747e-13 4.716047e-17 0.0016816232 -0.09739579 5.1272592e-17
1.9885253e-09 2.3511891 1.4208241e-09 -3.0072716e-08 1.5723035e-13 2.4870546 -0.00028918954 -2.8489495e-11
-5.211471e-10 4.3594885e-11 0.0005469767 1.4471642e-10 9.1145004e-05 8.021682e-12 5.806013e-07 2.5267525e-08
1.4169655e-11 2.0824412e-07 3.2163958e-10 1.1811173e-07 -0.049510542 1.4074666e-06 -0.08997886 -0.0009071539
0.0024238776 4.9412498e-05 -3.6924318e-11 0.00060037273 1.66322e-06 0.00015480828 -0.010787479 4.415542e-09
4.3047115e-12 2.1123931 -1.7944927e-06 7.297058e-13 9.384215e-08 1.1806746e-07 7.9016195e-07 1.1373916e-06
3.0630987e-10 6.1025164e-11 5.092689e-08 -3.0428593e-09 3.9213642e-08 2.0504762e-05 0.000766262 2.0438027e-05
00000000: e544 b93b 96bf e0af 7ebb 3140 73de a5b0
00000010: a97d 5939 d09c 0334 d479 0740 a441 e62d
00000020: d47f 1b40 c522 bd2f ac0c 7637 cbbf 3438
00000030: c8c3 079f e34d 80bc e067 8929 54b7 2cb3
00000040: 57f5 e02c d27a 262f 3197 5535 4f67 b533
00000050: 8373 0c40 4798 a935 535d a13c a486 4bb4
00000060: f6cc e436 a62d a732 eaa8 f42e 0a29 d8b6
00000070: 76dc 71bc f262 b82f a0c0 1440 878b 63b5
00000080: 3042 1240 1304 6e3f a89b 61aa 626d 2f2c
00000090: 6f88 2340 1abc 0540 8ffe bd33 8dd4 563a
000000a0: f5c7 e02b f18f 32bb 0b86 8db0 70c0 54b2
000000b0: 4984 6733 a504 db37 b1d6 2440 7109 22b8
000000c0: 35a4 9a2f 15e4 1735 01cc 242e 0c44 48ae
000000d0: 6ffc a026 a454 d630 c25b 1e40 90c7 fa2d
000000e0: 8928 2940 3dcc a32e be27 272d 395a 15ad
000000f0: 811c 74b2 393b 0339 f6cc 4640 1fe9 22b2
00000100: 49bf 352d 64cc 202c 6ac9 0c3b 5ee5 7832
00000110: a6af 8bb4 071b 6a35 2e5c 85b5 4ff9 a3ba
00000120: 0acd 823f 6097 91ad 9403 4637 1ec2 1830
00000130: 737e 6d39 f3da e734 7d8d 3d34 5e37 ddb6
00000140: d8a7 3e34 d7b7 0038 4237 0139 0598 6b31
00000150: 8b74 2e34 e02e b237 1faa 5039 8800 ceb7
00000160: bd99 bd30 2c2a d439 2bfe 013b 8874 0935
00000170: aa6d b830 7783 342d d988 bc2e cad9 c72e
00000180: 4036 66b1 e565 21ad e3fa 372c 6ddc b231
00000190: 97ba 0fb5 a0d5 9631 17d2 d033 cbd8 ab38
000001a0: 9ee9 532c aff4 b036 f7f3 cc38 13f7 0636
000001b0: ea07 edb7 98f0 8e35 8309 a63d 087d 0440
000001c0: 5e59 6d25 8fbf 402e 2ef7 aa2d 6b66 4ab7
000001d0: acf9 51b3 f6c5 f638 c0e6 a730 09a7 6033
000001e0: c8e7 6838 db90 792f 3557 1728 1d11 013c
000001f0: af0e 1f40 85f2 f22e 4e9f 90be ef3c c036
00000200: b4f7 fd36 514d 0eb0 b7ea 262d 1d0f ed2e
00000210: 72a8 fc37 56df 6cb7 1256 7834 29b9 3540
00000220: 5886 4f38 2283 f23a 686b f035 c6dc 4a2c
00000230: 56bc 81b9 6568 bbbb 6dfc 2f3f 9ee3 b7a9
00000240: 32a0 06c0 0c56 1b2e 96b2 ab35 f585 1332
00000250: 5aa9 25ad 3081 863a ba37 aa37 2b96 be30
00000260: 8a5c f534 69d6 51ba 4127 0e40 2ad8 c82a
00000270: d4d4 8d33 4724 b738 a0a7 8826 af9f 2035
00000280: c9dd 2b40 065f 182e 0b92 1436 e764 ea39
00000290: a68a 2e39 c14a a2b8 7d72 1440 ce4a d63a
000002a0: cac6 1236 3712 0bb1 2599 6932 c69e 0f31
000002b0: 52ba 80b3 44db b6ac 04e1 9f27 81f9 6a2b
000002c0: 27a1 aaba f744 8f34 4823 84b0 d4f8 7335
000002d0: 3616 e537 e077 1540 b6d0 072b b5b6 ddb8
000002e0: 199f c238 0be3 182c 49ce 53ab ebaf 0235
000002f0: 60df 1aa6 e1c5 6f34 bdf7 fd2c e7b2 f72a
00000300: 9819 3c34 845a 61b7 843c 6335 839e 4d33
00000310: 1090 a235 9b66 d72c 26cc 913a 206f cfaa
00000320: 5248 39a7 b3f0 9139 07c0 6935 3c19 baaa
00000330: 417d 5924 e969 dc3a 7277 c7bd fe73 6c24
00000340: 82a6 0831 e279 1640 ce46 c330 4d29 01b3
00000350: 9006 312a e72b 1f40 5d9e 97b9 a498 faad
00000360: 7840 0fb0 7abb 3f2e fc62 0f3a 0d1e 1f2f
00000370: 1a25 bf38 721e 0d2d 9eda 1b35 e00b d932
00000380: 7446 792d b599 5f34 bfd2 b02f 9ca4 fd33
00000390: 91cb 4abd 2fe8 bc35 d646 b8bd 11ce 6dba
000003a0: ebd9 1e3b 4440 4f38 1665 22ae 5562 1d3a
000003b0: ce3b df35 0854 2239 f7bd 30bc 85b7 9731
000003c0: 6575 972c 7331 0740 4dda f0b5 d864 4d2b
000003d0: 4486 c933 468c fd33 841b 5435 7aa8 9835
000003e0: 4865 a82f 1d32 862e b5ba 5a33 8c1a 51b1
000003f0: db6b 2833 a401 ac37 f9de 483a 5472 ab37
